models/net_1_layers_hidden_100.ckpt (torch, 322399 bytes, 7 tensors)

encoder.weight f4 [97, 100]
-0.7781418 0.34760293 0.24089542 1.1443251 -1.8453786 0.9936242 0.36600193 1.5705699
-0.11211701 -0.45640305 0.39288872 -0.6520674 -0.2423889 -0.09511544 0.7518468 0.4872711
-0.50383157 2.171524 2.1823466 -1.3942647 0.7385198 -0.13899116 -0.68725187 -1.2395343
0.29285103 -1.0537349 0.04887315 -0.8813835 0.09802288 0.2745411 0.6584112 0.2644423
0.038179986 0.5849307 0.06983464 0.39750716 1.1569346 1.2436357 0.95060825 -2.5560665
-1.2053496 0.7358666 -0.32113516 0.2805376 -0.46198812 -0.3553302 -0.49215356 1.4597107
-0.73170775 -0.24447756 -0.54736716 -0.81612426 -0.84746665 1.3370088 -0.64722806 0.4024167
-1.5526373 0.0012979477 -1.069253 -1.0897688 -1.0567849 -1.9722557 2.0472155 2.0446029
-2.4771268 1.2853532 -0.65986586 2.1646185 -1.4573517 0.34004945 -0.04038949 0.8259909
0.83062166 -0.1280496 -0.20126536 1.7062042 -0.2664389 0.7917193 0.8143668 0.4191499
0.0406904 1.2135702 -1.1510973 -0.9931257 1.1290009 -0.6294213 0.54598564 -1.3621079
-2.3666685 0.73438764 0.97481036 -0.27461684 -0.1804383 1.063032 -0.039964423 0.89951116
0.24075691 0.18866725 -0.43459886 -0.68843865 -0.28811237 -0.691769 -1.616921 0.34018946
0.24574293 -1.4955131 1.7417612 1.2879733 1.4334974 -1.06903 -0.37497988 0.66842794
0.669228 -0.49274644 1.0180656 0.57640386 -0.33552235 -1.5332545 -0.04897268 2.0230293
2.1504457 0.755219 0.12658298 1.0327929 1.798796 -0.7851701 0.6940012 0.73165274
-0.1599097 -0.6744601 -0.4428825 1.3885525 0.90037346 -0.76995367 0.29543722 -0.09089097
1.0677313 1.6731403 -0.44347435 -0.79838324 -0.46138427 0.12881184 0.88764316 0.014998752
0.2409276 0.27123004 0.59391075 0.7173292 1.7079855 -0.03571336 1.6916578 -0.23448743
-0.19920474 0.33237162 -0.5017876 -1.9418298 -1.1870794 0.41936955 -1.561739 -2.1894655
0.71949005 1.4004202 1.138808 -1.500258 0.31426576 -2.044756 0.5436816 -1.4931045
-0.043675285 -1.362941 -0.345327 -1.7596159 -0.773998 0.44821605 0.5920174 0.09508787
-0.34050423 0.42822 -0.39052433 0.16814229 2.0150478 -0.65847915 0.17402212 -1.2093112
0.7814602 0.47108766 -1.2338394 -1.6641041 -0.53213435 0.95595175 0.026344636 0.24312928
-1.0329497 0.30652317 -1.2429507 0.96891606 0.3501789 0.57941395 1.9642149 -0.12088367
0.069764405 -0.19322653 0.21064281 1.1995977 1.0014017 0.5146702 -1.2327616 1.7836196
1.1642461 0.30142942 0.21279007 0.071554005 1.4904083 -0.9402457 0.50288546 -0.6475998
1.7870322 -0.09783801 1.562559 0.7129567 -1.0355633 -0.857242 -0.084852606 -1.1916949
-0.76492816 -0.8452146 1.1050205 0.08970543 -0.7823029 0.21181507 -0.02611685 -0.3364279
-0.21980484 0.1895119 0.45728496 -1.3286707 0.19165821 1.0516433 -0.38918474 0.9405904
-0.92935526 -1.4696542 0.28585598 -1.1185535 -0.04234141 -1.6731428 0.11351762 -1.5323567
-0.7267485 0.034513254 0.23089659 1.0889657 -0.6599846 1.2065514 0.11607655 -0.4308321
00000000: 4d34 47bf 03f9 b13e 4aad 763e 3f79 923f
00000010: 5e35 ecbf 285e 7e3f 9b64 bb3e 6f08 c93f
00000020: 9a9d e5bd a9ad e9be b628 c93e e4ed 26bf
00000030: cc34 78be e2cb c2bd 0879 403f 997b f93e
00000040: 1bfb 00bf 40fa 0a40 91ab 0b40 4477 b2bf
00000050: a20f 3d3f b353 0ebe bdef 2fbf 0fa9 9ebf
00000060: 92f0 953e c9e0 86bf 362f 483d 59a2 61bf
00000070: 38c0 c83d a790 8c3e a38d 283f fb64 873e
00000080: 9e62 1c3d 05be 153f 7705 8f3d 0f86 cb3e
00000090: 6f16 943f 742f 9f3f 105b 733f 9896 23c0
000000a0: e548 9abf c161 3c3f d46b a4be a0a2 8f3e
000000b0: b589 ecbe d7ed b5be 8dfb fbbe cdd7 ba3f
000000c0: 3351 3bbf 5358 7abe 4120 0cbf 85ed 50bf
000000d0: 93f3 58bf 1b23 ab3f bdb0 25bf 9009 ce3e
000000e0: d2bc c6bf e61f aa3a 48dd 88bf 8b7d 8bbf
000000f0: ba44 87bf e072 fcbf 9405 0340 c6da 0240
00000100: 3f89 1ec0 7486 a43f f8ec 28bf 1c89 0a40
00000110: 808a babf f61a ae3e 736f 25bd 2474 533f
00000120: 9fa3 543f 6f1f 03be 8218 4ebe e664 da3f
00000130: ae6a 88be 1eae 4a3f 587a 503f d19a d63e
00000140: faaa 263d 4556 9b3f 2857 93bf 7c3d 7ebf
00000150: 1a83 903f c121 21bf b7c5 0b3f 8d59 aebf
00000160: 7f77 17c0 d400 3c3f 2c8d 793f 949a 8cbe
00000170: d1c4 38be 6f11 883f bcb1 23bd 5d46 663f
00000180: fb88 763e fd31 413e be83 debe 843d 30bf
00000190: 7783 93be c617 31bf 44f7 cebf 502d ae3e
000001a0: 09a4 7b3e f96c bfbf 08f2 de3f 4fdc a43f
000001b0: d87c b73f fad5 88bf 5dfd bfbe 181e 2b3f
000001c0: 8752 2b3f 4349 fcbe f94f 823f 348f 133f
000001d0: 96c9 abbe af41 c4bf 9497 48bd 5079 0140
000001e0: e7a0 0940 0856 413f f89e 013e 8f32 843f
000001f0: f33e e63f e800 49bf 10aa 313f 984d 3b3f
00000200: 5ebf 23be 6ba9 2cbf 7fc1 e2be 17bc b13f
00000210: e07e 663f af1b 45bf 8c43 973e 0b25 babd
00000220: 6bab 883f 7629 d63f 120f e3be d862 4cbf
00000230: 8f3a ecbe 40e7 033e 953c 633f 53bd 753c
00000240: bab5 763e aade 8a3e 890a 183f e3a2 373f
00000250: 459f da3f 2c48 12bd 3e88 d83f 791d 70be
00000260: 54fc 4bbe 9d2c aa3e 2775 00bf e18d f8bf
00000270: 38f2 97bf 9bb7 d63e 10e7 c7bf 3420 0cc0
00000280: 8030 383f f840 b33f 76c4 913f 7408 c0bf
00000290: 71e7 a03e 48dd 02c0 b82e 0b3f 0c1e bfbf
000002a0: dbe4 32bd da74 aebf b3ce b0be 183b e1bf
000002b0: bc24 46bf 937c e53e 748e 173f 6ebd c23d
000002c0: 9256 aebe a73f db3e cef2 c7be 7e2d 2c3e
000002d0: 8bf6 0040 1792 28bf db32 323e b6ca 9abf
000002e0: c70d 483f 6732 f13e 73ee 9dbf 5d01 d5bf
000002f0: f539 08bf 41b9 743f b5d0 d73c e2f6 783e
00000300: b237 84bf 9bf0 9c3e 0219 9fbf e20a 783f
00000310: a64a b33e 7954 143f 656b fb3f dc91 f7bd
00000320: a4e0 8e3d 2ddd 45be c0b2 573e 6b8c 993f
00000330: ee2d 803f 6dc1 033f 22cb 9dbf a64d e43f
00000340: 0406 953f f554 9a3e a4e5 593e e88a 923d
00000350: b3c5 be3f f1b3 70bf 1abd 003f 1ac9 25bf
00000360: 79bd e43f 4b5f c8bd ef01 c83f 5584 363f
00000370: 578d 84bf 3674 5bbf 34c7 adbd 7589 98bf
00000380: 55d2 43bf fc5f 58bf 5071 8d3f 7bb7 b73d
00000390: 0145 48bf 0de6 583e 01f3 d5bc 4740 acbe
000003a0: 8514 61be 680f 423e 4121 ea3e e211 aabf
000003b0: 0d42 443e 3f9c 863f 3943 c7be 88ca 703f
000003c0: 3aea 6dbf a11d bcbf b75b 923e c32c 8fbf
000003d0: 306e 2dbd 8b29 d6bf ed7b e83d 4424 c4bf
000003e0: 310c 3abf c55d 0d3d 2870 6c3e 3a63 8b3f
000003f0: c0f4 28bf 4770 9a3f 8bb9 ed3d 0696 dcbe

gru.weight_ih_l0 f4 [300, 100]
-0.006588173 0.034372296 0.09365737 0.025305403 -0.015396178 0.004894936 -0.023151373 -0.05254475
-0.059350766 -0.044279624 0.055076804 0.07379352 -0.034402408 -0.027173651 0.08900811 -0.027817464
0.024380302 0.073547915 0.012104511 -0.07575162 0.008555591 0.026011825 -0.031200409 -0.02319094
-0.083408594 0.09004916 -0.0746904 -0.09033155 -0.006551874 0.059962023 -0.09746386 -0.080241956
0.046356965 -0.06489481 -0.011366988 -0.08493898 0.04240464 -0.04374956 -0.07722338 -0.033209145
0.015720893 0.07463696 -0.003351915 0.051676583 0.04290655 -0.07419284 -0.019371117 0.021810198
0.0229836 0.02479731 0.079507165 0.021507217 -0.070621386 -0.013689816 -0.013380277 0.099281006
-0.09829807 -0.007637167 0.008918929 -0.02352128 0.025220264 -0.02080487 -0.03396226 -0.092199616
-0.06012956 0.07880451 -0.048366737 0.07806504 -0.04894737 0.04990263 -0.08259801 0.059392095
-0.07461732 0.022549247 0.03601358 -0.03475485 -0.048748113 0.042668354 -0.04813241 -0.02142911
-0.04438273 0.03157393 -0.041801464 0.0866326 -0.014984953 0.045542683 0.09232805 0.019909346
0.09569968 -0.01964041 -0.085760795 -0.0037474276 0.072045974 0.0015081167 0.0317958 0.037947904
-0.06251911 0.016347064 -0.061914753 -0.0965665 -0.069469094 0.087149374 0.05020795 -0.013442087
0.098276965 0.09277904 -0.051873423 0.045486417 -0.056353867 0.093234055 -0.034155108 -0.0749131
-0.027123129 -0.061176192 0.096351504 0.007839942 -0.016613746 -0.021134198 -0.038369764 0.036164057
0.060791053 -0.010705054 0.036869287 0.034823727 0.008887136 0.07351971 -0.067903124 0.09933183
0.037235428 -0.063055694 -0.08200089 -0.009112549 0.093657434 0.099572174 -0.05808833 -0.06573403
0.030294752 0.06599201 0.042015027 -0.07726121 0.0051722764 -0.032127965 0.012410796 -0.082884364
0.052339327 -0.04871099 -0.09199741 0.060084056 0.09863833 0.0066584945 0.041197717 0.070382394
-0.022264266 -0.03167304 0.015601623 0.0060496093 0.095863655 -0.0030345083 -0.02394743 -0.011593747
-0.0033919096 0.042672183 -0.03175446 0.01608087 -0.05678996 -0.053824496 -0.030580675 -0.0115320925
0.025905801 0.06557182 0.055738594 -0.05968503 -0.09369405 0.024615873 0.095006645 -0.08906671
-0.0946778 0.0681105 -0.077468894 0.05888578 -0.07941135 0.009431625 -0.08660312 0.023246897
0.06422757 0.020555472 0.05014801 0.057210576 -0.08794113 -0.04174446 -0.0038421273 -0.08069923
0.051167108 -0.019652272 0.055819154 0.0946268 0.07038509 0.00017350912 -0.084358834 0.02283374
0.04931983 0.05626608 0.036080923 0.09967934 -0.06101073 0.08087909 -0.09841714 0.0025793195
-0.04679073 -0.07225906 0.044024933 0.07531996 0.07192325 -0.07260885 -0.06924947 0.09463187
-0.010697055 0.028372884 -0.047074307 0.004705906 0.03204719 0.054160465 -0.09964652 -0.0890296
-0.030418515 0.0057802917 -0.06983385 0.09526577 -0.09397459 -0.08869722 0.0704638 0.033423603
0.03357618 -0.06982727 0.08505708 0.013182056 0.09062077 -0.026567841 0.009427929 -0.0886871
0.040795088 -0.09102521 -0.0007877946 -0.04491209 -0.029954983 -0.019768465 0.095383525 -0.06509737
0.09322395 0.029248869 -0.08239167 -0.065089546 0.026917875 0.026891792 -0.06373008 -0.09463187
00000000: 9ae1 d7bb f7c9 0c3d 6fcf bf3d 474d cf3c
00000010: 4040 7cbc b365 a03b f3a7 bdbc 2a39 57bd
00000020: ca19 73bd 8d5e 35bd 3798 613d 0f21 973d
00000030: 8ae9 0cbd 479b debc e249 b63d 73e1 e3bc
00000040: 33b9 c73c 4aa0 963d 0052 463c aa23 9bbd
00000050: c02c 0c3c c016 d53c 0098 ffbc edfa bdbc
00000060: 20d2 aabd b26b b83d 48f7 98bd bfff b8bd
00000070: 1ab1 d6bb bd9a 753d 229b c7bd e555 a4bd
00000080: cde0 3d3d 92e7 84bd 9a3c 3abc 7df4 adbd
00000090: 7db0 2d3d bd32 33bd 4b27 9ebd 5006 08bd
000000a0: 1ac9 803c 43db 983d cdab 5bbb d3aa 533d
000000b0: c7be 2f3d 6af2 97bd 2db0 9ebc 4dab b23c
000000c0: 1a48 bc3c ba23 cb3c a7d4 a23d e72f b03c
000000d0: f2a1 90bd 404b 60bc f338 5bbc d753 cb3d
000000e0: 8050 c9bd 3341 fabb b320 123c b3af c0bc
000000f0: ba9a ce3c fa6e aabc 031c 0bbd 27d3 bcbd
00000100: 6a4a 76bd 4264 a13d 331c 46bd 90e0 9f3d
00000110: 0a7d 48bd b366 4c3d 2529 a9bd 2045 733d
00000120: f7d0 98bd 33b9 b83c fa82 133d 1a5b 0ebd
00000130: 1aac 47bd 03c5 2e3d 7d26 45bd 1a8c afbc
00000140: aaca 35bd aa53 013d 0338 2bbd 6f6c b13d
00000150: 7383 75bc f78a 3a3d 7d16 bd3d ed18 a33c
00000160: 32fe c33d ede4 a0bc 5ba3 afbd 6797 75bb
00000170: d78c 933d 00ac c53a 503c 023d 436f 1b3d
00000180: 050a 80bd 47ea 853c 539a 7dbd a8c4 c5bd
00000190: d045 8ebd 5f7b b23d daa6 4d3d 333c 5cbc
000001a0: 6f45 c93d f002 be3d 3a79 54bd f74f 3a3d
000001b0: 50d3 66bd 7ff1 be3d 3ae6 0bbd 0a6c 99bd
000001c0: 5331 debc e393 7abd f053 c53d 1a73 003c
000001d0: 8d19 88bc a021 adbc 9d29 1dbd c320 143d
000001e0: 0a00 793d 4064 2fbc 4004 173d 53a3 0e3d
000001f0: 5a9b 113c 8091 963d cb10 8bbd 7d6e cb3d
00000200: 2d84 183d 5823 81bd 15f0 a7bd cd4c 15bc
00000210: 78cf bf3d 7fec cb3d 07ee 6dbd 909f 86bd
00000220: b32c f83c d226 873d f317 2c3d 203b 9ebd
00000230: 337c a93b 9d98 03bd a756 4b3c 47bf a9bd
00000240: c361 563d 2d85 47bd 2369 bcbd b31a 763d
00000250: e502 ca3d 802f da3b f0be 283d a524 903d
00000260: 8d63 b6bc 97bb 01bd f39d 7f3c cd3b c63b
00000270: 2a54 c43d 9ade 46bb 672d c4bc b3f3 3dbc
00000280: cd4a 5ebb 07c9 2e3d f710 02bd 07bc 833c
00000290: 979c 68bd 1377 5cbd 5384 fabc 1af1 3cbc
000002a0: 6738 d43c 854a 863d 274e 643d 4a78 74bd
000002b0: abe2 bfbd 3aa7 c93c d892 c23d 9b68 b6bd
000002c0: 6fe6 c1bd 857d 8b3d 03a8 9ebd 3732 713d
000002d0: 6ba2 a2bd 1a87 1a3c fa5c b1bd 4770 be3c
000002e0: bf89 833d f363 a83c 0068 4d3d a355 6a3d
000002f0: 7b1a b4bd 3dfc 2abd 33cc 7bbb a345 a5bd
00000300: 9a94 513d cdfd a0bc a0a2 643d b2cb c13d
00000310: 0f26 903d 00f0 3539 53c4 acbd d30d bb3c
00000320: 9703 4a3d 4377 663d 97c9 133d af24 cc3d
00000330: 63e6 79bd f0a3 a53d ed8e c9bd cd09 293b
00000340: a3a7 3fbd 8ffc 93bd 7d53 343d 5a41 9a3d
00000350: 7f4c 933d f3b3 94bd abd2 8dbd 5bce c13d
00000360: b342 2fbc 406e e83c fdd0 40bd 0034 9a3b
00000370: ea43 033d 5dd7 5d3d 7a13 ccbd 2755 b6bd
00000380: 4030 f9bc 9a68 bd3b 0d05 8fbd b31a c33d
00000390: c075 c0bd e3a6 b5bd 534f 903d 30e7 083d
000003a0: 2d87 093d 9a01 8fbd 6832 ae3d 8df9 573c
000003b0: 6297 b93d cda4 d9bc 9a77 1a3c 95a1 b5bd
000003c0: c018 273d 6d6b babd 0084 4eba bdf5 37bd
000003d0: 2764 f5bc 7af1 a1bc 7058 c33d c551 85bd
000003e0: 33ec be3d 539b ef3c f7bc a8bd ab4d 85bd
000003f0: e082 dc3c 2d4c dc3c eb84 82bd 5bce c1bd

gru.weight_hh_l0 f4 [300, 100]
0.061375584 0.08558648 0.019663548 -0.019981742 0.06382034 0.08235607 -0.021224165 -0.06469399
0.07476138 -0.06309157 -0.092511475 -0.064535156 0.026994659 0.075876616 0.06782623 0.054999508
0.06927427 0.052948058 -0.01019795 -0.03851185 0.09173633 -0.07501393 -0.03882718 -0.057688832
0.06534697 0.0005123615 0.029958952 0.083820894 0.0038799525 -0.09807738 0.07635897 0.06937245
-0.018871857 0.042334627 -0.059503745 -0.028596818 -0.06837416 0.08822614 0.04747821 0.031193888
0.0658772 0.036355484 0.03769777 0.09440333 -0.05243943 0.06386142 0.016458904 0.0327153
0.06594223 -0.010800458 -0.012965 0.0828733 -0.023680925 0.047415316 0.046794593 0.037787296
0.09581945 -0.022301352 -0.06188413 -0.066859476 0.030741394 0.081209116 0.043527413 -0.081348315
0.015429365 0.081447996 -0.09131681 -0.01775136 0.08010703 0.054291166 -0.049400188 0.0022408962
-0.0975029 0.07312375 0.09530288 0.047448277 0.05982349 0.060481228 5.877018e-06 0.04345267
0.058335092 -0.07314726 -0.07835964 -0.01706847 -0.031582702 -0.05216844 0.023345543 -0.049838867
0.078717254 -0.059998263 -0.04150163 0.018249858 -0.07179508 -0.086005025 -0.07955257 -0.03929018
-0.019918812 -0.004756689 -0.066353075 -0.05314925 -0.085711084 -0.042231645 0.07758689 -0.079284325
0.07194865 -0.04600916 -0.010190273 -0.055757023 -0.07128274 0.07199836 -0.04132538 -0.00032527448
-0.08901097 -0.09030489 -0.09528911 -0.017728472 0.06622149 -0.0361205 0.060133517 -0.06735182
-0.07241551 0.067458354 -0.02664782 0.088214874 0.066948056 0.0010316015 -0.09598114 0.046715904
-0.054523148 -0.045067813 0.091210164 0.040980864 0.059737552 -0.097263984 -0.058519866 -0.07781346
-0.008133912 0.05778637 0.057173442 -0.077096045 -0.020306481 -0.059278466 -0.09145316 0.05356511
-0.06905564 -0.03138418 0.06162131 0.046351135 0.062031724 -0.089995764 0.09649588 -0.07475666
0.08220853 -0.0887747 -0.09523673 0.0808289 0.07399223 0.008035958 -0.052831974 0.019824957
-0.0047994736 0.022545636 -0.08093726 -0.019695247 -0.08791138 -0.00439626 -0.08039283 -0.04933063
0.042824008 0.06959142 0.0049069882 0.03130242 0.016900456 0.07835811 0.031767394 -0.05761056
-0.04218651 -0.07899417 0.016284049 -0.0022939087 -0.01634934 0.091969825 -0.017988397 0.01916088
-0.056084182 -0.024863005 -0.014730299 -0.020668222 0.04684745 -0.066680446 0.099629834 0.07463759
0.040143754 -0.071319714 -0.009515166 0.06913189 0.05803467 -0.0899274 -0.09453249 0.032725167
0.09189297 -0.032059718 -0.03864926 0.03534435 -0.037040126 -0.04979061 -0.027292538 -0.07470502
-0.07107245 -0.0124425655 -0.00697875 -0.0039013983 0.035168983 -0.09882694 0.09920855 -0.020299507
0.05620538 0.06051792 -0.020028388 -0.083203755 -0.06819975 -0.031772185 0.07617193 0.09535431
-0.028082633 -0.05047791 0.047398914 0.03204117 0.009034241 -0.095573924 -0.030682063 -0.048631873
0.061963584 -0.023621356 0.09560167 0.035433292 -0.014546442 -0.033635367 0.07301489 0.01357652
0.048950102 -0.07675499 0.04838674 -0.0786406 0.030779291 -0.021458495 0.045684148 0.004525721
0.0250862 0.013916421 0.013311744 -0.05196133 -0.039834823 0.02070917 0.030644191 -0.06107353
00000000: f764 7b3d f747 af3d 7315 a13c c0b0 a3bc
00000010: 3db4 823d 4daa a83d 4dde adbc 487e 84bd
00000020: 7f1c 993d 2736 81bd a876 bdbd 022b 84bd
00000030: e723 dd3c 3365 9b3d 7ae8 8a3d 2a47 613d
00000040: abdf 8d3d 10e0 583d 4d15 27bc 9abe 1dbd
00000050: 42e0 bb3d e7a0 99bd 4009 1fbd 204b 6cbd
00000060: a2d4 853d 0050 063a 7a6c f53c 4aaa ab3d
00000070: cd46 7e3b cbdc c8bd 1762 9c3d 2513 8e3d
00000080: 2799 9abc 1367 2d3d 33ba 73bd e043 eabc
00000090: c007 8cbd e8af b43d 8378 423d 538a ff3c
000000a0: a0ea 863d 7de9 143d fa68 1a3d 8856 c13d
000000b0: baca 56bd c7c9 823d d3d4 863c 7a00 063d
000000c0: b80c 873d 67f4 30bc 276b 54bc 7ab9 a93d
000000d0: 80fe c1bc 9036 423d b0ab 3f3d dac6 1a3d
000000e0: fd3c c43d 53b1 b6bc 377a 7dbd 9fed 88bd
000000f0: 60d5 fb3c f750 a63d cd49 323d f299 a6bd
00000100: 73cb 7c3c 35ce a63d 4f04 bbbd 4d6b 91bc
00000110: 280f a43d 6a60 5e3d da57 4abd 00dc 123b
00000120: 9aaf c7bd e8c1 953d 282e c33d 2059 423d
00000130: 7a09 753d 2abb 773d 3333 c536 6dfb 313d
00000140: c7f0 6e3d 3bce 95bd 057b a0bd 2dd3 8bbc
00000150: dd5c 01bd 93ae 55bd 273f bf3c d723 4cbd
00000160: 8336 a13d bdc0 75bd 9dfd 29bd ba80 953c
00000170: 4d09 93bd 6723 b0bd 75ec a2bd bdee 20bd
00000180: c72c a3bc 00de 9bbb 1fe4 87bd 07b3 59bd
00000190: 4b89 afbd 17fb 2cbd e0e5 9e3d d25f a2bd
000001a0: d059 933d 1a74 3cbd 1af5 26bc 7a61 64bd
000001b0: affc 91bd e073 933d cd44 29bd 9a89 aab9
000001c0: 624b b6bd c5f1 b8bd f026 c3bd 4d3b 91bc
000001d0: 229f 873d 17f3 13bd 904e 763d c0ef 89bd
000001e0: 954e 94bd 9b27 8a3d 874c dabc 00aa b43d
000001f0: 101c 893d cd36 873a c391 c4bd 2d59 3f3d
00000200: aa53 5fbd 0799 38bd 65cc ba3d 8ddb 273d
00000210: 5daf 743d 5732 c7bd 87b2 6fbd aa5c 9fbd
00000220: 1a44 05bc 67b1 6c3d b32e 6a3d 88e4 9dbd
00000230: c759 a6bc facd 72bd cb4b bbbd 1767 5b3d
00000240: 0b6d 8dbd b38c 00bd a066 7c3d b0da 3d3d
00000250: fa14 7e3d b34f b8bd a29f c53d 051a 99bd
00000260: f25c a83d 83cf b5bd 7a0b c3bd 9f89 a53d
00000270: 3d89 973d 40a9 033c 5766 58bd f367 a23c
00000280: e744 9dbb a0b1 b83c 6fc2 a5bd ed57 a1bc
00000290: e20a b4bd 800e 90bb ffa4 a4bd ea0e 4abd
000002a0: 3a68 2f3d f285 8e3d cdca a03b f736 003d
000002b0: d372 8a3c 377a a03d 871e 023d 0df9 6bbd
000002c0: c3cb 2cbd b2c7 a1bd 2066 853c 6755 16bb
000002d0: 0def 85bc ad5a bc3d 675c 93bc 47f7 9c3c
000002e0: 87b8 65bd 80ad cbbc 5a57 71bc 6750 a9bc
000002f0: 1de3 3f3d c28f 88bd ba0a cc3d 98db 983d
00000300: c76d 243d 1210 92bd 80e5 1bbc 0595 8d3d
00000310: c3b5 6d3d db2b b8bd 409a c1bd d30a 063d
00000320: 6232 bc3d 0d51 03bd b04e 1ebd 3dc5 103d
00000330: 63b7 17bd 3df1 4bbd 9a94 dfbc f2fe 98bd
00000340: 6f8e 91bd e7db 4bbc 00ae e4bb 9aae 7fbb
00000350: 5a0d 103d c765 cabd da2d cb3d 274b a6bc
00000360: 9d37 663d a3e1 773d 9312 a4bc bb66 aabd
00000370: 4fac 8bbd 8d23 02bd 0700 9c3d 1f49 c33d
00000380: 8d0d e6bc edc1 4ebd 5d25 423d 9a3d 033d
00000390: 5a04 143c 43bc c3bd f358 fbbc 3732 47bd
000003a0: 87cd 7d3d 9381 c1bc cfca c33d 8022 113d
000003b0: 3354 6ebc 3dc5 09bd d588 953d 0d70 5e3c
000003c0: e77f 483d b831 9dbd 2d31 463d 530e a1bd
000003d0: da24 fc3c bac9 afbc 4d1f 3b3d 804c 943b
000003e0: 9381 cd3c b301 643c 8019 5a3c 67d5 54bd
000003f0: d729 23bd 47a6 a93c 8709 fb3c 3d28 7abd

gru.bias_ih_l0 f4 [300]
0.054834437 -0.047104765 -0.071424976 0.014664829 -0.03187442 -0.053756177 0.07219116 0.08254608
0.007622397 -0.01345967 -0.066223 -0.044346 0.074753605 0.0683165 -0.04075401 0.02222011
0.029731512 -0.061015725 0.07426127 0.034787904 0.040212847 0.015337515 -0.03342657 -0.0291376
0.055735078 0.0646248 0.030800784 -0.055701125 -0.015435613 -0.07892778 0.07494237 -0.0038784742
-0.023099208 -0.0705631 0.098721676 0.06257142 -0.015949512 0.042676996 0.09393834 0.007180333
0.09616869 -0.052648854 0.04149891 0.059485327 0.021864308 -0.07469469 -0.06575992 -0.08729036
-0.05623622 -0.040192712 0.04466429 0.039564993 -0.08342873 0.082154825 -0.08780425 0.03658923
0.07491449 0.09462809 0.0021285892 -0.017770946 -0.025614679 -0.041992377 0.066023424 -9.667873e-06
-0.049577236 0.09295511 -0.079082884 0.054850366 -0.037798 -0.092822805 0.09801797 0.06564994
-0.0034939647 0.07766291 0.07669908 -0.009209967 0.02308451 -0.021456456 -0.0042394637 -0.063016914
-0.0539081 -0.029225493 0.007119596 -0.060744703 -0.026481165 0.043775775 -0.08126314 0.048241414
-0.016588677 -0.047963846 0.04439458 -0.00012594461 0.04172522 0.0892486 -0.07632971 -0.030010188
0.04383209 -0.057816494 -0.09184148 0.045399915 0.048612464 -0.050537884 0.070379615 0.09587318
0.019818509 0.022637153 0.079062365 -0.03457258 -0.09778192 -0.014783752 -0.009215379 0.057154693
-0.06618035 -0.033691883 0.026691437 -0.048358597 0.084776 0.04670508 0.047027864 0.010293341
0.022484565 0.07433633 0.07073649 -0.0928257 -0.08789463 -0.082063295 0.085662626 0.019629573
0.09629083 -0.001157868 0.013968932 -0.06498032 0.08119984 0.060834467 -0.043737687 -0.063629106
-0.098336875 0.012413359 -0.08653171 0.01092577 0.021974921 -0.021928072 0.053521503 -0.031185402
0.090179406 -0.052659154 0.006528652 0.03618865 -0.04375583 0.09555527 -0.024086703 0.088741615
-0.0117057925 0.053720664 0.0611961 -0.04875326 -0.039506007 -0.0051794886 -0.053512443 -0.017604088
-0.040946376 -0.08632932 -0.07982915 -0.09936988 0.07740017 0.039610256 -0.0080815675 0.018110443
0.037106335 0.019452048 0.077045284 0.015855445 0.082460605 0.016925454 -0.0908334 0.09616627
-0.0027320744 0.0353567 0.0370785 -0.019327939 0.07449844 -0.05535666 -0.0351323 -0.07765104
0.0020945312 -0.07200827 0.0325357 0.083010495 -0.03299135 0.059820533 -0.012096072 -0.09861316
-0.07414534 -0.09995347 -0.08128792 -0.08410492 -0.018184686 -0.028055716 -0.043733645 0.07664341
-0.02818333 0.04748037 -0.016377747 -0.03708483 -0.031766642 -0.05742624 -0.07066643 0.029998077
-0.0413314 -0.008184767 -0.058598544 -0.09636607 0.02651087 -0.07874139 0.029108012 0.07445347
0.074302495 -0.029365873 -0.008196235 0.021350695 -0.03457507 0.021923924 0.011314511 0.0072164177
0.014518308 -0.028571224 -0.057595458 -0.05689737 -0.07561147 -0.0182948 -0.04172119 0.041460562
0.07246365 -0.0049208165 -0.0045180083 0.049887776 -0.017343296 0.092327416 -0.0868119 0.013324154
-0.009101689 -0.08324231 -0.015191293 0.044214915 -0.00191859 -0.061896242 0.0141733885 0.07841319
-0.008030022 -0.09030455 0.021930099 -0.0074952724 -0.069226824 0.010630155 0.058490194 0.016267573
00000000: 139a 603d edf0 40bd 4247 92bd c044 703c
00000010: c08e 02bd 702f 5cbd f5d8 933d eb0d a93d
00000020: 4dc5 f93b f385 5cbc ed9f 87bd 27a4 35bd
00000030: 6b18 993d 85e9 8b3d aded 26bd f306 b63c
00000040: 808f f33c a0eb 79bd 4b16 983d c37d 0e3d
00000050: 3ab6 243d 334a 7b3c 4dea 08bd fab1 eebc
00000060: 774a 643d 025a 843d ed51 fc3c dd26 64bd
00000070: a7e5 7cbc e3a4 a1bd 637b 993d 002e 7ebb
00000080: 8d3a bdbc 6383 90bd 972e ca3d 7225 803d
00000090: 8da8 82bc 13ce 2e3d bf62 c03d 0049 eb3b
000000a0: 17f4 c43d 53a6 57bd c3fa 293d e3a6 733d
000000b0: c71c b33c 88f9 98bd 23ad 86bd 4ac5 b2bd
000000c0: f357 66bd 1da1 24bd e7f1 363d e70e 223d
000000d0: afdc aabd ca40 a83d b7d2 b3bd 97de 153d
000000e0: c56c 993d 5fcc c13d cd7f 0b3b 6094 91bc
000000f0: e0d5 d1bc 3300 2cbd 4a37 873d 3333 22b7
00000100: 8011 4bbd 405f be3d 35f6 a1bd c7aa 603d
00000110: 13d2 1abd e219 bebd a5bd c83d 7a73 863d
00000120: 00fb 64bb bb0d 9f3d 6814 9d3d 67e5 16bc
00000130: ba1b bd3c 73c5 afbc 33eb 8abb 030f 81bd
00000140: bdce 5cbd 4d6a efbc 804b e93b 70cf 78bd
00000150: 07ef d8bc 3a4e 333d 4a6d a6bd ca98 453d
00000160: fae4 87bc bd75 44bd 17d7 353d 0010 04b9
00000170: 10e8 2a3d f8c7 b63d c052 9cbd edd7 f5bc
00000180: 4789 333d fdd0 6cbd 6317 bcbd 43f5 393d
00000190: dd1d 473d d000 4fbd 3023 903d 2859 c43d
000001a0: 6d5a a23c 8d71 b93c 73eb a13d fa9b 0dbd
000001b0: e341 c8bd 8d37 72bc 1afc 16bc 0a1b 6a3d
000001c0: 9089 87bd 8000 0abd 00a8 da3c aa13 46bd
000001d0: 0a9f ad3d d34d 3f3d 4aa0 403d 67a5 283c
000001e0: 8d31 b83c a53d 983d 4bde 903d 671b bebd
000001f0: 1a02 b4bd cd10 a8bd e36f af3d 33ce a03c
00000200: 2034 c53d 9ac3 97ba f3dd 643c 6714 85bd
00000210: 1a4c a63d 902d 793d 4a26 33bd fa4f 82bd
00000220: d864 c9bd 6761 4b3c 8a37 b1bd 0002 333c
00000230: c004 b43c 80a2 b3bc 5d39 5b3d 8778 ffbc
00000240: fbaf b83d 20b1 57bd 4dee d53b 8d3a 143d
00000250: 5039 33bd 7bb2 c33d 7a51 c5bc 2abe b53d
00000260: a7c9 3fbc 330a 5c3d c3a8 7a3d 80b1 47bd
00000270: 0dd1 21bd b3b8 a9bb dd2f 5bbd 7336 90bc
00000280: 63b7 27bd 6dcd b0bd 777d a3bd 7082 cbbd
00000290: fb83 9e3d 5d3e 223d 8d68 04bc 5a5c 943c
000002a0: d0fc 173d e759 9f3c ebc9 9d3d 47e3 813c
000002b0: 1be1 a83d 40a7 8a3c dd06 babd d2f2 c43d
000002c0: 9a0c 33bb 30d2 103d a0df 173d a055 9ebc
000002d0: a392 983d aabd 62bd e3e6 0fbd 8207 9fbd
000002e0: 6744 093b 1279 93bd 2744 053d 6801 aa3d
000002f0: f021 07bd 6006 753d 9a2e 46bc b2f5 c9bd
00000300: 83d9 97bd 68b4 ccbd 487a a6bd 333f acbd
00000310: 0df8 94bc 1ad5 e5bc 0d22 33bd 38f7 9c3d
00000320: bae0 e6bc c77a 423d a02a 86bc 43e6 17bd
00000330: bd1d 02bd c737 6bbd 90b9 90bd 87be f53c
00000340: 1d4b 29bd 6719 06bc 0705 70bd 935b c5bd
00000350: 532d d93c 2a43 a1bd ed73 ee3c 107b 983d
00000360: e82b 983d b390 f0bc 8049 06bc a7e7 ae3c
00000370: 979e 0dbd cd99 b33c 8060 393c b377 ec3b
00000380: 33de 6d3c 330e eabc 37e9 6bbd 370d 69bd
00000390: 30da 9abd fade 95bc d7e3 2abd 8dd2 293d
000003a0: d267 943d cd3e a1bb cd0b 94bb 2057 4c3d
000003b0: 8713 8ebc 2816 bd3d 70ca b1bd 8d4d 5a3c
000003c0: 401f 15bc f27a aabd e7e4 78bc b31a 353d
000003d0: 3379 fbba ea86 7dbd 8037 683c 1897 a03d
000003e0: 5a90 03bc 98f1 b8bd c0a6 b33c e79a f5bb
000003f0: cbc6 8dbd 1a2a 2e3c 6a93 6f3d 9343 853c

gru.bias_hh_l0 f4 [300]
-0.008363235 -0.012085211 0.096023515 -0.092860185 0.09698945 0.03575554 0.063707545 0.03718989
-0.08856981 -0.000956583 -0.020888304 0.06760603 -0.031046987 -0.0019929768 0.07555795 -0.08815508
0.0396505 0.09567999 -0.08794039 0.06479724 -0.07974416 0.056079518 -0.011629629 -0.021891082
0.0059581995 0.0848903 0.07728334 -0.089392446 0.035510816 0.051960777 0.054363 -0.09127617
0.0580192 0.042814136 -0.06382989 0.087715946 0.033684373 0.03761847 0.052601673 0.07377859
0.068620406 0.015815377 -0.0016495347 -0.07948478 0.049654018 0.024993276 -0.047136452 0.08893006
0.045069586 -0.086687766 0.042464115 -0.09193744 0.08409015 0.022055615 -0.06605605 0.06273755
-0.059074473 0.0060646175 -0.0911833 0.05809858 -0.017865276 -0.09509691 0.026875615 0.023485934
-0.042323437 0.065053724 0.03288826 -0.0034406781 -0.00093796256 -0.088908814 -0.08855944 0.045941997
0.0368202 -0.09939008 0.044143856 -0.087445855 -0.07071208 0.052881923 -0.07176905 0.08839548
0.01845019 0.08673338 -0.048280574 0.088933066 -0.08323792 0.08841528 -0.052318502 -0.052727677
0.08965651 -0.09667782 0.08465061 -0.037712216 0.05171944 -0.007724583 0.001289022 -0.04921441
0.06626929 -0.0063238977 0.07673748 0.010282588 -0.046212614 -0.011092866 0.054071426 0.031171894
0.020324945 -0.048004042 0.028265 0.020158172 -0.006251335 0.032733012 0.055023838 -0.053779185
-0.040508676 -0.09741767 0.040187348 -0.08460951 0.020058215 0.023723304 0.018306244 0.06806331
0.01928742 -0.09201806 -0.04244342 0.08243781 0.07160529 -0.07798884 -0.098586395 0.08831785
0.094970405 0.0009922028 -0.06238365 0.051186394 0.07508818 -0.037511922 -0.062624395 -0.09677794
-0.02243247 -0.08284012 -0.06633271 -0.08207077 -0.08099877 -0.025163699 0.029021168 -0.092213035
-0.074212186 -0.0266868 0.06155615 0.0925312 0.0063122152 0.02981863 0.04856832 0.046741523
-0.038974144 0.043229487 0.002780998 -0.014134789 0.09506901 0.05461968 -0.03404478 -0.08911642
-0.070908025 0.030851496 0.0589237 -0.0007892728 0.06136433 0.086841635 -0.008770871 -0.03849814
-0.060787152 0.06296704 0.074163735 -0.057865288 -0.05851568 0.09403497 -0.07721168 0.055519164
0.027568365 -0.08495992 0.027036859 0.08505616 0.06795907 0.00024386645 0.004097438 0.029172694
0.013805116 0.08773943 -0.08919603 0.07900367 0.011631429 0.053382337 0.060715713 -0.06559559
-0.029873943 -0.05761248 0.087033115 0.0077511193 0.004447687 -0.098782115 -0.048889127 -0.0731784
-0.06191064 0.03063016 -0.047685172 0.052286386 0.041623186 0.09268649 0.063076936 0.09388747
0.041362178 -0.09434809 -0.07770776 0.06838858 -0.014661717 -0.060832765 0.021649206 -0.087771855
-0.046515096 -0.097600736 -0.043772817 -0.06512107 0.05530677 -0.08704473 -0.065803885 -0.018086685
0.040389445 -0.08452542 -0.09475904 -0.07641824 0.057165574 -0.06217424 -0.07691135 0.061657466
0.088029124 -0.03924941 -0.058357324 0.092595994 -0.058169197 0.018082691 0.028749263 -0.041963317
0.013715625 -0.025415873 -0.047635306 -0.09200554 0.08415063 -0.04860232 0.01727376 -0.0053692344
0.052206792 0.09029353 -0.059159387 -0.09362668 -0.07336416 0.092750035 -0.089156464 0.025421394
00000000: f305 09bc 0d01 46bc faa7 c43d 7b2d bebd
00000010: 68a2 c63d 6774 123d 1a79 823d 6d54 183d
00000020: 1764 b5bd 33c3 7aba f31d abbc 0875 8a3d
00000030: 4056 febc 9a9c 02bb 20be 9a3d a78a b4bd
00000040: 9068 223d dff3 c33d 171a b4bd 6ab4 843d
00000050: e850 a3bd a3b3 653d 338a 3ebc ed54 b3bc
00000060: 003d c33b f7da ad3d ba46 9e3d 6313 b7bd
00000070: ca73 113d d3d4 543d bdab 5e3d 00ef babd
00000080: 8aa5 6d3d e05d 2f3d 3fb9 82bd 6ba4 b33d
00000090: a0f8 093d d315 1a3d da74 573d 3b19 973d
000000a0: db88 8c3d 408f 813c 3335 d8ba ebc8 a2bd
000000b0: 0362 4b3d b3be cc3c 2712 41bd f720 b63d
000000c0: e39a 383d 5b89 b1bd daee 2d3d b249 bcbd
000000d0: 7537 ac3d faad b43c 6548 87bd 8b7c 803d
000000e0: 13f8 71bd b3b9 c63b 4fbe babd c7f8 6d3d
000000f0: 335a 92bc 2bc2 c2bd 402a dc3c 9365 c03c
00000100: 575b 2dbd e33a 853d d7b5 063d 007d 61bb
00000110: 9ae1 75ba d315 b6bd a75e b5bd ad2d 3c3d
00000120: c7d0 163d 078d cbbd 30d0 343d d016 b3bd
00000130: 7fd1 90bd b79a 583d a7fb 92bd b008 b53d
00000140: da24 973c 45a1 b13d dac1 45bd 8a22 b63d
00000150: a578 aabd 1213 b53d ed4b 56bd faf8 57bd
00000160: d59d b73d 05ff c5bd 4d5d ad3d 2078 1abd
00000170: c3d7 533d 801e fdbb 67f4 a83a 0d95 49bd
00000180: 32b8 873d b338 cfbb 8a28 9d3d 4d78 283c
00000190: 7049 3dbd dabe 35bc 007a 5d3d 335c ff3c
000001a0: 8080 a63c e39f 44bd 008c e73c c022 a53c
000001b0: 00d8 ccbb 0d13 063d ad60 613d 9047 5cbd
000001c0: 6dec 25bd ea82 c7bd 7d9b 243d c047 adbd
000001d0: 2051 a43c 6057 c23c faf6 953c c764 8b3d
000001e0: a700 9e3c f773 bcbd 27d9 2dbd 28d5 a83d
000001f0: cba5 923d 9db8 9fbd aae7 c9bd fddf b43d
00000200: d87f c23d cd0c 823a 0086 7fbd d3a8 513d
00000210: d5c7 993d 1aa6 19bd 3841 80bd 8333 c6bd
00000220: 4dc4 b7bc 15a8 a9bd 72d9 87bd b814 a8bd
00000230: afe2 a5bd 1a24 cebc cdbd ed3c 30da bcbd
00000240: 8ffc 97bd 479e dabc 4d22 7c3d ff80 bd3d
00000250: b3d6 ce3b 3346 f43c 93ef 463d 0a74 3f3d
00000260: 5aa3 1fbd 6711 313d 6741 363b 9a95 67bc
00000270: 8bb3 c23d e3b8 5f3d 8a72 0bbd ab82 b6bd
00000280: 3a38 91bd 47bc fc3c fa59 713d 33e7 4eba
00000290: 2a59 7b3d 07da b13d b3b3 0fbc 3ab0 1dbd
000002a0: f3fb 78bd ddf4 803d 28e3 973d 2704 6dbd
000002b0: 23ae 6fbd 6895 c03d 2821 9ebd 1068 633d
000002c0: 0dd7 e13c 77ff adbd 677c dd3c ed31 ae3d
000002d0: 202e 8b3d 67b6 7f39 cd43 863b 93fb ee3c
000002e0: da2e 623c bbb0 b33d 68ac b6bd adcc a13d
000002f0: c091 3e3c 70a7 5a3d 0ab1 783d fb56 86bd
00000300: 33ba f4bc 10fb 6bbd 6b3e b23d 1afd fd3b
00000310: e7bd 913b 474e cabd f73f 48bd 8fde 95bd
00000320: 0396 7dbd 1aec fa3c 8751 43bd 402a 563d
00000330: 137d 2a3d 6ad2 bd3d 7b2e 813d 1348 c03d
00000340: 636b 293d 9239 c1bd 3f25 9fbd 500f 8c3d
00000350: b337 70bc c72b 79bd ad59 b13c bbc1 b3bd
00000360: 9d86 3ebd e5e2 c7bd 204b 33bd 325e 85bd
00000370: 5a89 623d 8244 b2bd 30c4 86bd 872a 94bc
00000380: 676f 253d aa1b adbd 0711 c2bd 2b81 9cbd
00000390: 7326 6a3d 6aaa 7ebd b383 9dbd 8a8c 7c3d
000003a0: 9d48 b43d fdc3 20bd 1708 6fbd f8a2 bd3d
000003b0: d342 6ebd 2722 943c 9383 eb3c bae1 2bbd
000003c0: 80b7 603c f334 d0bc 3d1d 43bd 676d bcbd
000003d0: 2a57 ac3d 3a13 47bd b381 8d3c 67f0 afbb
000003e0: cad6 553d d0eb b83d 1d51 72bd 58bf bfbd
000003f0: f33f 96bd bbf3 bd3d aa97 b6bd 8740 d03c

decoder.weight f4 [97, 100]
-0.026809966 0.08150225 -0.034327317 0.084402256 0.091505066 -0.08900192 0.0030120134 -0.043790925
0.0069290637 -0.08541351 0.099113606 -0.0896287 -0.055587973 0.06427983 0.09544529 0.06341132
-0.08277669 0.044169523 0.08472103 -0.009963012 -0.06347169 0.075801365 -0.054335464 0.09937161
-0.07927847 0.030618954 0.018789649 0.08989592 -0.07992605 -0.006032658 0.0775108 -0.055029787
0.0027936937 -0.014784336 -0.086616926 0.019305324 -0.09017154 -0.022138847 -0.03371724 -0.08627355
-0.033002257 -0.024356663 0.034771204 0.0067964434 -0.030921042 0.041551497 -0.07579589 0.08883575
0.0737405 0.017691135 -0.014560759 -0.045954954 -0.08265374 0.06103765 0.08128952 0.04154544
0.0970776 0.08187999 0.08151102 0.05742215 -0.033812393 -0.047146965 0.05979271 -0.089726664
0.02825873 0.07044854 -0.04551903 -0.0032530904 0.03308612 0.04593867 0.08660164 -0.017992867
0.05738281 0.08793799 0.040697254 0.06431302 -0.036035072 0.008468116 0.09555521 0.047934044
0.07076541 -0.051815715 -0.08657024 -0.053388417 0.010271228 0.068600476 0.08944873 -0.090074316
0.08846593 0.09825542 -0.016295195 -0.039937783 -0.001917553 -0.053381156 0.029045308 -0.04613197
0.0123855835 0.029941011 -0.056158137 -0.081390716 -0.06678768 -0.014984262 0.068442285 -0.034128357
0.099769555 -0.020479966 0.095319085 0.099663235 0.06960165 0.06535578 0.0749736 -0.022463454
0.098183215 -0.01687237 0.08253819 -0.022193087 -0.03243537 0.015917718 -0.074800454 0.010882104
-0.08594861 0.07326343 0.032156836 0.038662937 0.0018331051 -0.09874194 0.03618554 -0.056808125
0.06182616 0.045203317 0.009531927 -0.0045073032 -0.09530403 0.019857395 0.027517928 -0.09812579
0.020097507 0.09975954 -0.063616075 0.029793859 0.08201859 0.07992526 0.048434176 0.009141075
-0.02286433 -0.055265095 0.0624241 -0.08794471 -0.075661 -0.03561299 0.06494858 -0.063696645
-0.088326775 -0.058181 -0.03923458 -0.087936305 0.02946316 0.08781451 -0.056895506 0.0890727
-0.025592113 0.075807594 -0.007880509 0.07950523 0.00030012132 -0.028268456 -0.019765353 0.08132563
-0.009781206 0.048589945 -0.08250594 -0.09920346 -0.031984963 0.029940212 0.099408045 -0.081097126
-0.08276651 0.03738841 0.0052876235 0.096556865 -0.074270606 -0.089903295 0.025525069 0.027062882
-0.08337332 0.03843993 0.02759484 0.0021035194 -0.066133715 0.035733152 0.07924793 -0.037274387
0.073139705 -0.09578079 0.09634855 0.06962045 0.03414712 -0.015736235 0.07118324 -0.058484495
0.017075002 0.055757176 0.03926263 0.05584073 -0.066642635 -0.0124717355 -0.0050343038 0.08406635
0.08666219 0.020682503 -0.0038324357 0.008898926 0.06855235 0.0814515 -0.07698579 0.067461096
-0.030009603 0.07675258 -0.02944361 -0.06744144 -0.0080026155 0.08410861 -0.09279909 -0.0037104131
0.060052898 0.04581393 0.020930445 0.08473688 0.041010477 0.03157827 -0.05312648 0.068793975
-0.060239114 -0.048469987 -0.007366264 0.09329611 0.03516954 -0.071119964 -0.010747529 0.0014703155
-0.06768513 0.012181676 -0.084057465 -0.078636885 -0.07512925 -0.078545265 -0.015178466 0.095073126
0.0109586 0.09161264 -0.05197555 -0.07367138 0.08965718 0.066967905 0.015735913 -0.004211724
00000000: 93a0 dbbc a7ea a63d cd9a 0cbd 17db ac3d
00000010: 0267 bb3d a346 b6bd 3365 453b 1d5e 33bd
00000020: 330d e33b 47ed aebd 13fc ca3d 408f b7bd
00000030: 37b0 63bd 25a5 833d d278 c33d cbdd 813d
00000040: d386 a9bd 1aeb 343d 3882 ad3d e73b 23bc
00000050: 72fd 81bd bf3d 9b3d dd8e 5ebd 5883 cb3d
00000060: c05c a2bd 9ad4 fa3c c0ec 993c 5a1b b83d
00000070: 45b0 a3bd 9aad c5bb fbbd 9e3d ea66 61bd
00000080: 6716 373b 003a 72bc 3764 b1bd 3326 9e3c
00000090: dbab b8bd 875c b5bc 171b 0abd 30b0 b0bd
000000a0: 602d 07bd a087 c7bc 406c 0e3d b3b4 de3b
000000b0: 204e fdbc e731 2a3d e03a 9bbd 85ef b53d
000000c0: 4205 973d 00ed 903c 4090 6ebc 433b 3cbd
000000d0: 5d46 a9bd 9d02 7a3d 1f7b a63d 8d2b 2a3d
000000e0: 9fd0 c63d b2b0 a73d 40ef a63d 7d33 6b3d
000000f0: dd7e 0abd 2d1d 41bd 33e9 743d 9dc2 b7bd
00000100: da7e e73c 5347 903d 2a72 3abd cd31 55bb
00000110: 5085 073d 302a 3c3d 335c b13d c765 93bc
00000120: 3d0a 6b3d d518 b43d 2ab2 263d 8bb6 833d
00000130: 8399 13bd dabd 0a3c 73b2 c33d 7d56 443d
00000140: 75ed 903d b73c 54bd bd4b b1bd d0ad 5abd
00000150: a748 283c 687e 8c3d e530 b73d e278 b8bd
00000160: a02d b53d 233a c93d 807d 85bc cd95 23bd
00000170: 6756 fbba 33a6 5abd 6df0 ed3c e0f4 3cbd
00000180: e7ec 4a3c da46 f53c 1306 66bd 2db0 a6bd
00000190: fbc7 88bd 8d80 75bc 782b 8c3d 2dca 0bbd
000001a0: fb53 cc3d 9ac5 a7bc a736 c33d 3d1c cc3d
000001b0: 4f8b 8e3d 40d9 853d c28b 993d 4705 b8bc
000001c0: 4814 c93d ed37 8abc c809 a93d 47ce b5bc
000001d0: f3da 04bd e065 823c fb30 99bd da4a 323c
000001e0: d305 b0bd 230b 963d e3b6 033d 075d 1e3d
000001f0: cd44 f03a 3739 cabd 4a37 143d a3af 68bd
00000200: 6d3d 7d3d 1d27 393d cd2b 1c3c 00b2 93bb
00000210: c22e c3bd faab a23c 476d e13c 2df6 c8bd
00000220: 87a3 a43c bb4e cc3d 2549 82bd 4012 f43c
00000230: 5df9 a73d dbaf a33d ea62 463d 73c4 153c
00000240: fa4d bbbc a75d 62bd 6ab0 7f3d 5b1c b4bd
00000250: 28f4 9abd edde 11bd c303 853d 6373 82bd
00000260: abe4 b4bd 334f 6ebd 70b4 20bd f317 b4bd
00000270: ba5c f13c 18d8 b33d 430b 69bd bf6b b63d
00000280: 8da6 d1bc 0341 9b3d 401d 01bc a3d3 a23d
00000290: 9a59 9d39 4093 e7bc f3ea a1bc 0d8e a63d
000002a0: 5a41 20bc 4006 473d e0f8 a8bd 2f2b cbbd
000002b0: aa02 03bd 2d45 f53c 7296 cb3d 4016 a6bd
000002c0: 7d81 a9bd 9724 193d cd43 ad3b 9bbf c53d
000002d0: 301b 98bd 381f b8bd f319 d13c fab2 dd3c
000002e0: a2bf aabd 3073 1d3d 930e e23c 33db 093b
000002f0: 1d71 87bd ed5c 123d bd4c a23d 07ad 18bd
00000300: 45ca 953d b828 c4bd 6352 c53d 2b95 8e3d
00000310: dadd 0b3d 47e9 80bc 85c8 913d 708d 6fbd
00000320: e0e0 8b3c a361 643d dad1 203d 40b9 643d
00000330: ef7b 88bd 4056 4cbc cdf6 a4bb fa2a ac3d
00000340: f27b b13d 5a6e a93c 9a29 7bbb cdcc 113c
00000350: 2d65 8c3d 0bd0 a63d baaa 9dbd 0b29 8a3d
00000360: b3d6 f5bc 7530 9d3d ba33 f1bc bd1e 8abd
00000370: 671d 03bc 2341 ac3d 730d bebd 672a 73bb
00000380: 07fa 753d 63a7 3b3d 5376 ab3c 888a ad3d
00000390: 9afa 273d 3758 013d 279b 59bd dbe3 8c3d
000003a0: 4abd 76bd 7788 46bd b360 f1bb 0812 bf3d
000003b0: f00d 103d 58a7 91bd 6716 30bc 9ab7 c03a
000003c0: 809e 8abd a795 473c 5226 acbd 600c a1bd
000003d0: 5ddd 99bd 57dc a0bd 1aaf 78bc b3b5 c23d
000003e0: b38b 333c 689f bb3d 50e4 54bd 05e1 96bd
000003f0: 2f9e b73d 7826 893d 9ae8 803c 8002 8abb

decoder.bias f4 [97]
0.0005250216 0.08735354 -0.06699436 0.042627063 -0.09280145 0.023758197 -0.06377386 0.06674494
-0.08760022 0.056746352 0.0056033256 0.08769307 0.05973915 0.04951612 -0.00012968779 0.0997014
-0.052735534 -0.026576256 -0.051994454 0.0863713 0.04081848 -0.091147676 -0.0255322 0.060103633
-0.08923874 0.05151508 -0.05073383 -0.09108019 0.07498904 0.06917246 -0.07115785 -0.0056520225
0.019017255 -0.0017998934 -0.06443969 -0.07563225 0.0051332596 -0.025187528 0.04256935 0.020035863
-0.024415994 -0.04261787 0.048797358 0.0557176 -0.09943712 -0.02476238 0.05720961 0.040812194
0.056936752 -0.011301458 -0.07967996 -0.08796932 -0.04780178 -0.009126461 -0.027823223 0.07455387
-0.057774067 0.00843587 0.040567245 0.09499692 0.004666388 -0.039325904 0.033554625 0.06228578
-0.09395484 0.017592324 -0.03078717 -0.04591736 -0.0024124742 -0.0004569173 -0.014746237 -0.05818496
-0.017960012 0.0359918 -0.024273157 -0.006713748 -0.036980964 -0.08611089 0.05926993 -0.07913553
0.06187724 0.09304456 -0.052162208 0.06105112 -0.017067278 0.05221803 0.092824295 0.08488714
-0.080823004 0.01096071 -0.09818625 -0.071737684 -0.05437093 0.060615253 0.07929825 0.064422525
0.097438775
00000000: 9aa1 093a 6ae6 b23d 5734 89bd b799 2e3d
00000010: b00e bebd 8da0 c23c df9b 82bd 92b1 883d
00000020: bf67 b3bd dd6e 683d 1a9c b73b 6d98 b33d
00000030: 0ab1 743d 6ad1 4a3d cdfc 07b9 3f30 cc3d
00000040: 3701 58bd 73b6 d9bc 23f8 54bd 70e3 b03d
00000050: 4731 273d a2ab babd e728 d1bc 3a2f 763d
00000060: cdc2 b6bd 7a01 533d 47ce 4fbd 4088 babd
00000070: db93 993d 4aaa 8d3d 35bb 91bd 9a34 b9bb
00000080: 13ca 9b3c 67ea ebba f5f8 83bd 15e5 9abd
00000090: e734 a83b 1356 cebc 335d 2e3d 4022 a43c
000000a0: 0d04 c8bc 1390 2ebd bddf 473d 2338 643d
000000b0: b0a5 cbbd 7ada cabc a054 6a3d b02a 273d
000000c0: 8336 693d c029 39bc 3f2f a3bd 4229 b4bd
000000d0: cdcb 43bd 2787 15bc 87ed e3bc b3af 983d
000000e0: 80a4 6cbd 9a36 0a3c d729 263d bf8d c23d
000000f0: 80e8 983b 3314 21bd 9370 093d 601f 7f3d
00000100: 656b c0bd c71d 903c 6035 fcbc d713 3cbd
00000110: 9a1a 1ebb 678e efb9 339a 71bc 5a53 6ebd
00000120: e020 93bc 236c 133d 80d8 c6bc 00ff dbbb
00000130: 5a79 17bd e85a b0bd 07c5 723d cf11 a2bd
00000140: fd72 7d3d 258e be3d 0aa8 55bd bd10 7a3d
00000150: add0 8bbc 93e2 553d aa1a be3d 4fd9 ad3d
00000160: 8886 a5bd 8d94 333c df15 c9bd 35eb 92bd
00000170: 0db4 5ebd b347 783d 1f67 a23d f5ef 833d
00000180: fb8d c73d
