models/net_2_layers_hidden_100.ckpt (torch, 565087 bytes, 11 tensors)

encoder.weight f4 [97, 100]
00000000: 942b 383f 7742 84be d099 4bbf 1361 09bf
00000010: dbab 2e3e d55b d4be c036 113f f784 7b3f
00000020: 9540 343e 03d5 f4bf 9dd3 1abf 92d2 c0be
00000030: 5b28 e43d d2fa ffbf 193c 59bd f858 493f
00000040: 3bbc 193f c37f 16bf 89e5 a53b caeb 1fbf
00000050: 7350 7bbf e55c 263e 973b 54bd ff09 2dc0
00000060: 24a0 1b3f 92b4 eebe 8040 7f3f 86af fdbe
00000070: 73bf 183f e440 033e 1cfe 633f 9470 9fbf
00000080: 2265 98bd b0c3 643e a7fc 29bf 9639 71bf
00000090: 9dee 9ebe db32 e03f 3477 14c0 cfb1 49be
000000a0: dea8 18bf d21a bcbd 4970 14bf fd2b 0ac0
000000b0: 36d9 563f 4537 90be 31f0 bd3f df05 15bf
000000c0: a824 13bf f4cc fb3e cae2 83be 3192 a1bf
000000d0: 4509 c7be 9b04 7bbe 1758 82bf 8e4e 783f
000000e0: 938e d93f 8386 15bd 086f 5c3e 2ed8 11bf
000000f0: 6e4f 953e c724 0e3f 5517 a8bf 6c6c a4be
00000100: 3085 913f b2fa d23e 52f8 c63f 7c3e 703f
00000110: 73ac 86be 8344 903f 7b64 98bf edae 8ebf
00000120: 6c2f 77be 3ce2 ffbf 85a3 7f3e ebe9 073f
00000130: 9d33 50bf 1c83 b13e 13a0 333f 0d4d db3e
00000140: 0df8 a7bf 2edc 573f fef0 e63e 9e90 ab3f
00000150: 3bf6 99bf 6527 163f 4c9c 6f3d 144a 673e
00000160: 8538 5c40 55f1 493f 656f df3f abcd 0cbd
00000170: 7499 a4bf 8e45 64bf aee2 b7bf 4f91 34bf
00000180: 9c3a b5bf 47dc 7abf bbf3 333f e932 81bf
00000190: 3813 a73e 6b4f 373e 4968 10c0 a8fd fcbf
000001a0: f6ca 62bf 8c42 9fbf d562 873f 2399 413f
000001b0: 13eb 423f ca01 91bf 8f21 bb3d de51 313f
000001c0: 6372 60bf 8347 04be 2d14 e4bf c4ec a93f
000001d0: b940 b13f 9995 543e 2d4b aa3f 88fd 90bf
000001e0: f16e 3a3d 2868 acbf c7a4 47be f040 a8be
000001f0: 0739 cbbe 257f 8f3f cec3 31bf d93f 31bf
00000200: d060 99be 0bdb f53e 2935 62bf 1c2d 883f
00000210: 6606 a7be 533d ac3f 1540 663f caf0 af3f
00000220: 729b 183b d91e dfbe 4d43 e63e 7e16 7f3f
00000230: b9ad e33f 8548 aa3f 79d6 5e3e 023c 493f
00000240: 54ce 1e3f 14d2 ff3e 8080 5f3c 8a9c d03f
00000250: 09e0 513e 7875 563f 4db5 0dbe f654 ae3f
00000260: 747a b6be 4de9 dd3f 5004 99bf 1d15 04c0
00000270: f592 6b3f 5d15 07bf 973f bebf f11e 883f
00000280: 9530 60bf ffdd 8a3f 1552 843f 9324 3e3f
00000290: 221e 0bc0 4162 3d3f fce9 bbbf 3548 853f
000002a0: cb57 7d3a 973f ca3e 8636 d73e 1e77 d43d
000002b0: 4cc6 083f 7830 adbd 60a9 d0bd 5956 1140
000002c0: 6c3e d23f 0459 fabe ebbd 67bd ed62 483f
000002d0: 462e 383f d3f2 3ebe d39e 953f 17d2 7cbe
000002e0: f65a 2e3f b415 7b3e 1cfe 95bf f49c 8a3d
000002f0: 2c4c cabf e11d b2bf 53a4 9d3e 0072 643f
00000300: 5aad 183f 13f0 1e3f 54aa df3f 2dab f3bf
00000310: 9d71 683f 9b7e e2bf b4ca 8a3f 79e5 dcbf
00000320: c1a4 913e 126b 31c0 340b 9dbe 1cca 873f
00000330: 8805 92bf 6cd3 83bf 391d b5bf 0f54 023f
00000340: 2aae e23e 9e0d 9b3f a0f8 473e 4ddd 923f
00000350: 709f 0240 5929 e7be e95e 0ebf 0ffb cfbe
00000360: c5e6 d1bf 8c58 8cbf bcc7 efbe b93f c33f
00000370: 00e9 5dbf ee10 0abf c713 33bf 0f53 1bbf
00000380: 6d85 1540 42d9 3dbf 0e8d e73e de6d 933f
00000390: 65f3 31bf 1285 97bf 3bc7 393f f6db cc3f
000003a0: fd31 063f 658c c6be fa55 71be 7b73 96be
000003b0: 4d82 65bd 92cf 49bf 2450 c23e d4a4 ab3e
000003c0: 3de9 ef3f 2465 a7bf eab8 72bf 122c 10c0
000003d0: 62f9 0340 8ee9 383f 5ed0 2ebd 1899 fd3f
000003e0: 7959 33bf 3fa0 29c0 887f 26bf 9b0e 5cbf
000003f0: c978 e33e 1461 abbf 49c2 3ebf 5860 153e
0.71941495 -0.2583196 -0.79531574 -0.5366375 0.17057745 -0.41476312 0.56724167 0.98249763
0.17602761 -1.9127506 -0.60479146 -0.37660652 0.1114051 -1.9998419 -0.05303583 0.7865138
0.6005284 -0.587887 0.005062763 -0.6246916 -0.9816963 0.16246374 -0.05181464 -2.703735
0.6079123 -0.4662214 0.99707794 -0.49547976 0.5966713 0.12817723 0.89059615 -1.2456231
-0.074411646 0.22340274 -0.6640114 -0.94228494 -0.31041422 1.751552 -2.3197756 -0.19696735
-0.5963267 -0.09184803 -0.57983834 -2.1589348 0.8392519 -0.28167167 1.4838926 -0.58212084
-0.5747781 0.49179804 -0.25758964 -1.2622739 -0.3887426 -0.24513476 -1.0183133 0.96994865
1.6996635 -0.036505233 0.2152673 -0.5697049 0.29162163 0.5552487 -1.313212 -0.3211397
1.1368771 0.4120689 1.5544531 0.93845344 -0.26303443 1.1270908 -1.1905664 -1.1147133
-0.24139184 -1.9990916 0.24964722 0.53091305 -0.81328756 0.3467034 0.7016613 0.42832223
-1.3122574 0.8432034 0.45105737 1.3403509 -1.2028269 0.5865386 0.058498666 0.22586852
3.4409497 0.7888387 1.745587 -0.034375828 -1.285933 -0.8916863 -1.4366052 -0.70534223
-1.4158511 -0.97992367 0.7029378 -1.0093662 0.3263185 0.1790139 -2.256365 -1.976491
-0.88590944 -1.2442183 1.0577036 0.75624293 0.76139945 -1.1328671 0.0913726 0.69265544
-0.8767454 -0.12917905 -1.7818657 1.327538 1.3847877 0.20760192 1.3304192 -1.1327372
0.04551596 -1.3469286 -0.19496451 -0.32862043 -0.39691946 1.1210676 -0.694394 -0.6923805
-0.29956675 0.4801868 -0.88362366 1.0638766 -0.3262207 1.3456215 0.8994153 1.3745358
0.0023286012 -0.43578222 0.4497322 0.99643695 1.7787391 1.3303381 0.21761502 0.7860719
0.6203358 0.49964964 0.013641477 1.6297772 0.20495619 0.83772993 -0.13838692 1.3619678
-0.356403 1.7336823 -1.1954441 -2.0637887 0.92021114 -0.5276697 -1.4863156 1.0634443
-0.8757413 1.0848998 1.033755 0.7427456 -2.1737142 0.7397805 -1.4680781 1.0412661
0.0009664266 0.3950164 0.42033786 0.10374282 0.53427577 -0.0845651 -0.10188556 2.2708952
1.64253 -0.4889604 -0.056577604 0.7827595 0.7194561 -0.18647318 1.1689094 -0.24689518
0.68107545 0.24519998 -1.1718173 0.06768218 -1.5804496 -1.3915368 0.30789432 0.8923645
0.59639513 0.62085074 1.7473855 -1.9036614 0.9079836 -1.7694887 1.084311 -1.725753
0.2844601 -2.77216 -0.3067261 1.0608554 -1.1407938 -1.0298896 -1.4149543 0.50909513
0.44273502 1.2113531 0.19528437 1.1473786 2.0409813 -0.45148733 -0.5561357 -0.4062123
-1.639855 -1.0964522 -0.46832073 1.5253822 -0.86683655 -0.5393208 -0.6995205 -0.6067361
2.3362687 -0.74159634 0.45224804 1.1517904 -0.69512016 -1.1837485 0.72569627 1.6004627
0.52420026 -0.38778988 -0.23567954 -0.2938498 -0.056032468 -0.7883235 0.37951767 0.3352419
1.8743054 -1.3077741 -0.94813406 -2.2526898 2.062096 0.72231376 -0.042679183 1.9812346
-0.700584 -2.6504056 -0.6503835 -0.85959786 0.4442809 -1.3389001 -0.74515206 0.14587533

gru.weight_ih_l0 f4 [300, 100]
00000000: 2aad 573d 53ad 57bd c534 9dbd 404a abbc
00000010: a071 cb3d adb7 653d 3b0e 843d 4a6b 71bd
00000020: 6053 c1bd 9a2b 26bb ad3d 243d d541 bb3d
00000030: d297 aabd 3b45 85bd 0307 c43d ba68 1d3d
00000040: 274c 65bd 3363 bdba 4294 c9bd 8db8 f83c
00000050: 80bb 473d cd95 f93c 1afb 723d 670f 613c
00000060: 7012 153d 5a09 7e3d 07b3 8abd ef7d c4bd
00000070: f50c 8dbd 1d61 8abd 9ab9 5d3d 92b0 95bd
00000080: 90b6 49bd 8062 673d 406b 72bc 008a 76bd
00000090: 40d4 42bd 1db3 44bd 076f 883c c388 19bd
000000a0: 8fb2 bc3d 82f5 adbd 5afb a93d c071 fbbc
000000b0: 6701 79bc 609a 3cbd 332c 60bd 7ab2 733d
000000c0: b042 3cbd dddf 24bd 6d59 533d a3ed a33d
000000d0: 9af5 2f3a 5837 9b3d cd8a c03b a395 583d
000000e0: 97b7 973d 9acb a2ba 9b9d 9f3d 477f ac3d
000000f0: 174d ac3d baaf abbd 908e 183d 60af cfbc
00000100: 7710 923d 8014 9dbb f088 ccbd 755b a3bd
00000110: cf43 843d da17 953c a074 76bd 33c1 5d3b
00000120: 4ff7 c6bd f344 45bc 6d1f b4bd 404b eb3c
00000130: 403c b2bc c380 c73d c881 b3bd b000 3f3d
00000140: 7da9 a0bd 00bf c4bc e7e4 f0bb 0542 ad3d
00000150: e3ba 343d 1df9 113d c71a 063d 37b6 41bd
00000160: 0736 f63c 13d0 9cbc 6065 8a3d 2274 b9bd
00000170: 17d7 39bd e7c0 23bc 95af 9dbd 3843 b23d
00000180: 4dec b03c a77f 53bc f050 93bd 9721 b6bd
00000190: 63c4 29bd efed a03d dac2 92bc 8d83 eabc
000001a0: e306 753d 1aaf 44bd bd4f 1cbd fb93 ac3d
000001b0: aa89 8c3d efd8 82bd c5b3 95bd bbdc 82bd
000001c0: e043 f3bc 1f2d 863d da95 833c 6dd0 103d
000001d0: 0dac 213c b7f9 a43d 9f97 c1bd c07e 963c
000001e0: 009a 42bc 6736 4dbd 67c0 9a3a bb49 a2bd
000001f0: a0a6 c23c a394 4d3d 255e 88bd 674f a43b
00000200: 7daf afbd c079 033d 8d9f 45bd 0017 b53c
00000210: 1f3c c5bd 8aae 84bd 80ca ccbd f2c4 a7bd
00000220: 772a 1b3d 1a3d c63c 8747 473d 7aaf 7dbd
00000230: 7575 c43d 378e 4e3d 2d35 bbbc 8d61 db3c
00000240: da54 fb3c 4d28 b0bb a3c8 023d f7c0 193d
00000250: b309 7ebc b012 4b3d 07e5 babc fa07 13bd
00000260: b8ad b7bd a033 aa3c ca84 673d fd56 c53d
00000270: 9d4e 923d ef83 81bd e7b9 d93c 322b cc3d
00000280: 6dd8 d0bc cdf7 f4bc 608b 42bd 02c2 c2bd
00000290: 9349 103d a599 bc3d 6777 273d ada4 d8bc
000002a0: 8fb1 b2bd 731b 0cbd 6d49 663d 5dfc 4ebd
000002b0: aa15 8f3d 0333 7bbd cd78 1bbb 47a7 8dbd
000002c0: 8041 27bd 9316 98bc 40f3 dc3c e2f4 b63d
000002d0: 47d1 c93c 002f 93bd 6770 f83c f338 f03c
000002e0: 4717 a7bc 8a1f a7bd 57a1 17bd 677a 7bbb
000002f0: cd93 aabb 476c f03c 43c4 763d c712 c1bc
00000300: 20ed 8f3c 032f 8fbd 8f9a 8c3d 53ac 463d
00000310: a350 a33d 7552 b6bd fdb3 0bbd 7a2e 6abd
00000320: c073 7a3d 6a51 4bbd 6789 8c3d 5aa9 82bd
00000330: 0db8 4ebd 4a0f 353d fa5f cdbc b85c 9bbd
00000340: 08ae aa3d 8dce 8e3c 431c 1d3d bd38 183d
00000350: dace 2bbd ba30 3b3d 3fa9 843d 52ca 8cbd
00000360: 1881 b1bd 3030 9dbd 43ae 3bbd cd35 68bc
00000370: 07d2 aa3d e7fb 2b3c 9a28 063d f340 08bc
00000380: 875f babd da9b 4b3d 0d7e 353c 0f4e a13d
00000390: 73dd b1bc 421a a13d e0b3 1cbd bd74 70bd
000003a0: 4d75 9f3d 806a b0bc 40f5 77bd cd3a 3c3c
000003b0: 0057 6bbd c79b 1dbd 0a69 90bd 2da3 85bd
000003c0: cdec cc39 3373 5038 b3be b4bd 4099 5ebd
000003d0: 1853 9e3d 2725 643d 8a74 c73d 407a 51bc
000003e0: 12b6 8fbd 9a0b 803c 12b9 983d 4a46 a23d
000003f0: 7db2 a3bd 9a5b 113c 9afa 913d 1f27 9b3d
0.052655376 -0.05265553 -0.076760806 -0.020909429 0.099337816 0.05608337 0.06448027 -0.05894021
-0.09439731 -0.0025355578 0.04009788 0.09143416 -0.08329739 -0.06507345 0.0957165 0.038429953
-0.055980828 -0.0014449119 -0.09842731 0.030361438 0.0487628 0.030466938 0.0593215 0.013736582
0.036394536 0.062020637 -0.06772428 -0.095943324 -0.06887237 -0.06756804 0.05413208 -0.07309069
-0.04924637 0.05649042 -0.014796078 -0.0601902 -0.0475657 -0.04802238 0.016654504 -0.03748394
0.09213745 -0.084940925 0.08299895 -0.030693889 -0.015198088 -0.04604566 -0.05472965 0.05949638
-0.045962036 -0.040252555 0.051598955 0.0800431 0.00067123177 0.07578915 0.0058759213 0.05287708
0.07408064 -0.0012420297 0.07793733 0.08422714 0.08413141 -0.083831266 0.037245333 -0.02535218
0.07132047 -0.0047937036 -0.09987056 -0.079764284 0.06458246 0.01819985 -0.060169816 0.003383708
-0.09715139 -0.012040365 -0.087950565 0.028722405 -0.021757245 0.09741356 -0.08764988 0.046631515
-0.07844827 -0.024016857 -0.007351506 0.08459858 0.04412354 0.035637964 0.03274038 -0.047292914
0.03005506 -0.019142186 0.06757617 -0.09055354 -0.04537114 -0.009994722 -0.07699505 0.08704227
0.021597052 -0.012908853 -0.07193172 -0.088931255 -0.041447055 0.07857882 -0.017915178 -0.028627181
0.05982102 -0.048018552 -0.03816198 0.084266625 0.06862195 -0.06389033 -0.07309679 -0.06389757
-0.029695451 0.06551575 0.016062666 0.03535502 0.00986768 0.08055442 -0.094527476 0.018370986
-0.011877537 -0.05010071 0.0011806608 -0.07924219 0.023761094 0.05019058 -0.06658582 0.0050143483
-0.085783936 0.03209853 -0.048247863 0.022105694 -0.09630608 -0.06478603 -0.09999561 -0.08191861
0.037882295 0.024199057 0.0486522 -0.061934926 0.09592716 0.050428595 -0.022852505 0.026779914
0.030680109 -0.005375898 0.031929623 0.03753754 -0.015505242 0.04957837 -0.022814287 -0.03589628
-0.08968681 0.02077657 0.056523122 0.09635732 0.071439005 -0.063239925 0.026577903 0.09969176
-0.025493825 -0.029903317 -0.0474962 -0.0950966 0.035226416 0.09208993 0.040885355 -0.026445711
-0.08725273 -0.034205865 0.056222368 -0.05053364 0.06986554 -0.061327945 -0.0023723126 -0.06916671
-0.04083395 -0.018565452 0.02697146 0.089334264 0.024635924 -0.07186699 0.030327035 0.02932403
-0.020396842 -0.081603125 -0.0370191 -0.0038372518 -0.0052056075 0.029348506 0.060245764 -0.023568524
0.017569125 -0.06991389 0.06865417 0.048504185 0.079743646 -0.08902446 -0.034107197 -0.05717323
0.061145544 -0.04963819 0.06862145 -0.063799575 -0.050468493 0.044204034 -0.02507018 -0.07586044
0.08333975 0.017432475 0.03835703 0.037163485 -0.041945316 0.045700766 0.06477594 -0.06874527
-0.08667201 -0.07675207 -0.045820486 -0.014172983 0.08340841 0.01049707 0.032753564 -0.008316266
-0.09100252 0.04970918 0.011077416 0.078762166 -0.02171204 0.078663364 -0.03825748 -0.05870508
0.07786045 -0.021535158 -0.060536623 0.011488629 -0.057456017 -0.03847864 -0.070512846 -0.06525264
0.00039086342 4.9698352e-05 -0.088254355 -0.05434537 0.077306926 0.055699494 0.09739025 -0.012785494
-0.07017149 0.015630532 0.07457174 0.07923563 -0.07993028 0.008871937 0.071278766 0.07575821

gru.weight_hh_l0 f4 [300, 100]
00000000: 0782 7bbd 8d51 6b3c 0066 c2bd 507b 84bd
00000010: a840 83bd 07b2 063d cf4c 8c3d 635f 5c3d
00000020: f0bc bd3d dd5e a6bd 9aa0 da3b 2f89 cb3d
00000030: 13e1 ae3c d0ea c1bd 40af 813d 353e b6bd
00000040: 4d3f b33c 274b b73d dbe0 9bbd cd35 d5bb
00000050: 077f 65bd e75b 96bd b341 46bd 7376 df3c
00000060: 40f5 db3c 4a8f 2e3d 9040 863d c3c7 5d3d
00000070: e069 af3c e38d 043d 8a56 28bd d739 74bd
00000080: cd88 be3a 00db a53b b304 9fbc 9301 91bd
00000090: 1da5 8cbd ab87 80bd e72f a13d 57b1 6d3d
000000a0: a74f 92bc 9790 af3d 1a8a b7bc 43c6 873d
000000b0: bff8 bc3d 3d5e 2ebd 8036 b9bb 7dee b3bd
000000c0: c0b1 1abc d3fe 983c 00ac a6bb 8dc9 ba3d
000000d0: 63f8 c13d 4864 9b3d 5bc9 94bd 8de0 bbbc
000000e0: 1d08 8b3d adbd 083d 639f 61bd f7e1 2bbd
000000f0: 9add 193c 9d5e aebd e001 9b3c b363 bebd
00000100: fa83 c6bc 3343 a5ba 937d d0bc d0e0 603d
00000110: 07ff 04bd 6d18 dabc d33c a63c 5d9c 713d
00000120: 8a34 52bd d095 6abd e041 9abd 805b 6d3c
00000130: 6340 61bd 1a76 13bc 75ff bf3d 5a8a f53c
00000140: b7df 8c3d a7b7 b7bd 0a7f 5b3d 6d6b 70bd
00000150: b002 443d e80b 99bd 9aa8 543c 0559 a93d
00000160: 2d87 b8bc e3fe 233d 379c 6bbd 6dac 863c
00000170: 3276 bbbd f303 40bc 30c6 74bd 281c 9abd
00000180: 65ec 9dbd 13b7 473d a8ff c53d a7eb 8a3d
00000190: dad8 73bc c8b1 9abd 4dfc ccbb 9ace 2dbb
000001a0: 8a58 a8bd b363 87bb e3e2 523d e000 85bd
000001b0: e7f9 20bc 1a51 f3bc db0c c83d 2d64 883c
000001c0: d3ad 8c3c 3b8c cabd 80cd 7fbd d39b 1ebd
000001d0: 5067 133d 10b2 8dbd 3274 83bd fa57 c2bd
000001e0: f016 6abd 671e 06bd 9a80 34bd 8d37 053c
000001f0: 9731 723d 2d76 8b3d 0d7c 333d 57a5 a7bd
00000200: da01 18bd da6a 463c da49 58bc c77f 9a3c
00000210: 037d c6bd 4349 2fbd 5770 9c3d 77ac b4bd
00000220: a73a 393c a08a 8e3c 75cc 80bd e0ca 493d
00000230: 804c 703c 8da4 a73d 7a29 273d 0075 2d3d
00000240: 5028 82bd 475c 1bbd 40ba 01bc b753 0c3d
00000250: 57d7 2c3d f7de 8ebd 4d1b c0bc 0361 b83d
00000260: 87c4 8f3d 3375 57bd b2f9 98bd 7316 983d
00000270: 4315 003d 6746 9539 bf3c c9bd 007c 333c
00000280: 0d9c 413d b7ed 65bd 556b c63d 1791 0b3d
00000290: 9b3f bdbd 9293 a63d a7a2 fc3c ef10 9ebd
000002a0: ca19 40bd 13bf cfbc cad1 183d 7dd6 a93d
000002b0: da33 b53d b7d2 98bd 2081 303d d227 91bd
000002c0: 27c7 ccbc 53a3 8d3c 00bb bf3d 40e6 79bc
000002d0: 3751 9bbd f58c b13d f76f 813d c080 0f3d
000002e0: 3329 ce3a 9a42 593c e054 4b3d b38f a23d
000002f0: b386 ddbb 339a 793d 33f9 91bc e001 d03c
00000300: ba94 f7bc 75c4 8ebd 4f64 923d 2dc1 5b3d
00000310: cfa6 963d 07e3 f53c 4bbe 83bd 8083 b13d
00000320: 0a71 10bd e73a 50bd 9398 4c3d 80d6 d1bc
00000330: e035 30bd c74e c03c 5a0f cb3d 4beb b6bd
00000340: 3333 883b 9a01 623b 60f8 c93c cf4e 85bd
00000350: 78d5 a7bd 9083 12bd dd52 77bd ca9e 64bd
00000360: 356c 933d a3c9 17bd 80cc a3bc fab3 56bd
00000370: 1362 1c3d b502 91bd 5dd5 4abd 1b61 c33d
00000380: f822 a1bd a718 f33c 1025 8bbd 1fff 97bd
00000390: e0f9 cb3d d388 45bd 079c a33c 8009 bdbd
000003a0: 3ddb 943d 2ad6 923d a741 993c 85bd ccbd
000003b0: 7dff 03bd d09a a83d fa2e bfbc 403e 1fbc
000003c0: d7f6 8ebd 906d 0d3d 47eb 873d b09b 8abd
000003d0: a7a2 3dbc 6591 a3bd 6898 87bd eb6b be3d
000003e0: 1266 bbbd c365 9e3d ba90 14bd 0079 dcbc
000003f0: b37c 33bc a72a 893c e0bd fd3c 73d9 e93c
-0.0614033 0.014362705 -0.09492111 -0.064688325 -0.064088166 0.032884624 0.068505876 0.053801905
0.092645526 -0.081235625 0.006671977 0.09938275 0.021347558 -0.09468615 0.063322544 -0.08898584
0.02188077 0.08949881 -0.07611247 -0.0065066577 -0.056029346 -0.07341748 -0.0484025 0.02727816
0.026850343 0.04261712 0.06555283 0.054145586 0.02141279 0.032361876 -0.041098155 -0.059625473
0.001453662 0.005061507 -0.01941142 -0.070803784 -0.0686743 -0.062758766 0.07870465 0.058030453
-0.017860247 0.085725 -0.02240472 0.06629612 0.09227132 -0.04257034 -0.005652249 -0.087857224
-0.009441793 0.018676197 -0.005086422 0.09120474 0.09471204 0.075874865 -0.07264968 -0.022934223
0.06788657 0.033384014 -0.055083644 -0.041963544 0.009391213 -0.0851414 0.018921793 -0.0929636
-0.024232853 -0.0012608528 -0.025450503 0.054901898 -0.032469776 -0.026622975 0.020292675 0.05898701
-0.051319636 -0.05727178 -0.07532096 0.014487147 -0.054993045 -0.009000326 0.093748964 0.029973198
0.06878608 -0.08970576 0.05358795 -0.0586962 0.047854125 -0.07472974 0.012979651 0.08268932
-0.022525394 0.040038 -0.057522025 0.01643964 -0.09153403 -0.011719692 -0.05975932 -0.07524902
-0.07711104 0.048758578 0.09667903 0.06783228 -0.014883244 -0.0755344 -0.0062556625 -0.002652085
-0.082200125 -0.004131758 0.051485907 -0.064943075 -0.009825206 -0.029701758 0.09768077 0.01664933
0.01717273 -0.09890028 -0.06245184 -0.038722824 0.0359872 -0.06918728 -0.06418647 -0.094894364
-0.05715078 -0.032743838 -0.044067957 0.00813092 0.059129324 0.068096496 0.043819476 -0.08185833
-0.03711114 0.012110436 -0.013201201 0.018859757 -0.09691813 -0.042794477 0.076386146 -0.088219576
0.011305488 0.017400086 -0.06288997 0.049265742 0.0146666765 0.081856824 0.04081104 0.042347908
-0.06355345 -0.0379298 -0.007917941 0.034259524 0.04219755 -0.06976121 -0.023450518 0.090028785
0.070199065 -0.052602004 -0.074695006 0.07426157 0.031270277 0.00028471948 -0.098260395 0.010954857
0.047267962 -0.056134906 0.09688441 0.034073915 -0.092406474 0.081336156 0.030839277 -0.077180736
-0.046899594 -0.025359666 0.037309445 0.082928635 0.088477805 -0.07462066 0.043091893 -0.07087673
-0.024997307 0.017289793 0.09361839 -0.01525265 -0.0758385 0.086694635 0.06320184 0.035034895
0.0015728831 0.013260508 0.04964149 0.07937565 -0.006760442 0.06093807 -0.017819023 0.02539152
-0.030222286 -0.06971065 0.071480386 0.053651024 0.07356035 0.030015482 -0.0643278 0.0866766
-0.035264052 -0.050837424 0.049950194 -0.025614977 -0.04302013 0.023475064 0.099150375 -0.08931597
0.004156494 0.0034485818 0.024654567 -0.06509172 -0.08195013 -0.03577 -0.06038176 -0.055815496
0.07198373 -0.03705753 -0.019994974 -0.052417733 0.03817947 -0.070805945 -0.049519885 0.09540006
-0.07867998 0.029674841 -0.067941785 -0.07421707 0.09959769 -0.04822619 0.01997186 -0.092303276
0.07268379 0.07169755 0.018708063 -0.099970855 -0.032226074 0.08232653 -0.02333783 -0.009719431
-0.06980675 0.034528315 0.066366725 -0.06767976 -0.011574424 -0.07986716 -0.06620866 0.092979275
-0.09150328 0.07734253 -0.036270835 -0.026913166 -0.010955024 0.016743971 0.030974329 0.02854607

gru.bias_ih_l0 f4 [300]
00000000: bd30 96bd ca9a 35bd fa49 893d 23d5 04bd
00000010: da20 d5bc 3583 b9bd 17d9 133d 40f6 9e3d
00000020: 8a96 78bd 775e c8bd f3d2 ae3c 77cb 203d
00000030: b3ca 853d 23cf 613d 00b6 45bd e7e2 993d
00000040: 33e2 c8bc e0e7 94bc ba79 bdbc 1a36 c2bb
00000050: c093 623c 375a 423d 0715 64bd 9a5a 7dbc
00000060: fafb 76bd 30b9 173d 7fb0 a43d 7a8f bf3c
00000070: 5d6e 73bd cf70 c13d 1a44 0bbc 9356 0e3d
00000080: 8d85 ff3c b8f8 c3bd 17d0 9fbd 2d79 353d
00000090: 801e bb3b 0a8a 663d 6bd8 a1bd 6036 4ebd
000000a0: 133d ff3c a346 1a3d 67ed 44bb f83d 8e3d
000000b0: c86a c33d d3b8 c03c 9a5a febb 6756 41b9
000000c0: f3ff 3b3d 6744 9d3c fa4c c7bd 835a 833d
000000d0: 18e4 b23d 5716 3bbd 1d39 403d 18e3 cb3d
000000e0: 9afc 753c df96 a0bd cdde d43b 2dc3 143d
000000f0: f3b9 30bd 327e 883d ad9e 0abd 5771 a2bd
00000100: 60e3 20bd 9d37 9ebd 9f9e 8cbd 00dd e4bc
00000110: 02ea 91bd e777 e93c 98e1 c4bd 68c4 aebd
00000120: 0d07 f7bc a06e 15bd 3dc5 bdbd d3b6 4abd
00000130: 0fa6 bbbd cdd8 fd3b f38d 2fbc 0a2f 993d
00000140: 0322 ab3d 83e0 223d 9b90 a8bd f384 d8bc
00000150: f7d4 a2bd b282 93bd 87f2 963d ed9f 92bd
00000160: 6798 f9ba 7d8d 31bd fbc5 cc3d 63d8 40bd
00000170: 67f3 78bc 3f66 a33d cd32 4a3b 2ac3 093d
00000180: d8be 963d 7a75 8a3c da6d c03c 33a6 a1bd
00000190: 37f5 67bd 6d41 a63d 90c1 1cbd 9b3f c7bd
000001a0: eab3 86bd fdcc 693d d79c 723d cfa3 acbd
000001b0: 0896 b93d 1895 aebd ad95 f33c 2b69 8bbd
000001c0: a7b1 62bc a772 363c 2fad 91bd 1bff bd3d
000001d0: 9a37 e3ba 53dc 6f3d 5835 be3d fa79 0e3d
000001e0: 402a 84bd ca81 b8bd 002c abbc 3dc3 7fbd
000001f0: 2dc0 8d3c a0ba b7bc c04b 1a3d 8d24 31bd
00000200: cdf9 b8bd b320 5fbc cd90 823d 97f4 52bd
00000210: caa2 373d 4b87 9f3d 332f 003c 02fc c7bd
00000220: 5a57 7cbc ea89 a43d 30ca 5cbd dbda cabd
00000230: 9db5 22bd b366 2b3d ad05 69bd 5a7e dc3c
00000240: 60c8 8abd 0d68 ad3c 581f cabd 2886 cabd
00000250: 2088 a33d 8782 ccbd 5a88 c9bc 3a87 febc
00000260: b8e0 b63d bda0 5c3d 531a 333d d04b 29bd
00000270: 13e6 6fbd 4dd2 47bc bb9f c73d 33e7 283b
00000280: 156f 87bd f03b 013d f337 2f3d c305 933d
00000290: 0008 d13b 5ac5 a9bc 3a46 0bbd 33b3 61bc
000002a0: 83cf 25bd e330 513d 609e 54bd 33b1 e23a
000002b0: a35c 7cbd 3771 423d 800c a63c 7361 39bc
000002c0: 9a31 533b 4d41 7e3c 7839 af3d 9a7a bd3b
000002d0: e7ea 113c 602b 1fbd 9a7a f03b 1d7a 293d
000002e0: dde6 423d e05c 65bd caf2 833d 88e6 a93d
000002f0: 9ad8 d0bb 7a06 713d 9a6e d7bc a3e4 3dbd
00000300: 8f74 99bd a88d a2bd b37f 51bd d783 7abd
00000310: 7085 b1bd fb88 9fbd 104d 993d 907a 0f3d
00000320: 333c c5bb 6224 8ebd c7a8 ed3c 3007 8cbd
00000330: 7aaf debc 3a5e 0abd 6d7d 5a3d 2dd6 4f3d
00000340: ba4a 9bbc 63a2 b73d 809e 473d 00a2 a1bc
00000350: ad27 8f3c c0f2 e4bc e7e7 443c 8235 b63d
00000360: 6363 87bd 2b2c a33d 8fb7 a3bd c0ff 53bd
00000370: 50fd 8a3d a056 b73d da56 463d add1 963c
00000380: 9a51 513a 8d8a fb3c 1a71 163d ad36 56bd
00000390: 87b4 a5bd bfc1 8ebd 836f 9f3d 7359 c53c
000003a0: 3546 a2bd 0018 febb ada0 95bd 2f61 88bd
000003b0: 6761 c93c e7fb d0bc 1af1 193d 5ae4 abbd
000003c0: 88e5 cb3d 5387 74bd 3a13 97bc 9d2d 0fbd
000003d0: 9d1c 01bd 5367 8f3d 4373 0bbd dd05 a5bd
000003e0: fb2b 993d 3d82 963d 2774 08bc 00b1 f8bc
000003f0: fd4e b93d 6d71 cc3c 156f 9e3d 1a23 8c3d
-0.07333515 -0.04433707 0.06703563 -0.032429826 -0.026016641 -0.09058229 0.036095705 0.07761812
-0.06069044 -0.09783643 0.021340823 0.03925654 0.065328024 0.05512918 -0.04826927 0.07513981
-0.024521923 -0.018176973 -0.023129333 -0.0059268596 0.013829172 0.047449317 -0.055684116 -0.015463496
-0.060298897 0.037041843 0.080414765 0.023383845 -0.059431423 0.09445345 -0.008500123 0.034750532
0.031191612 -0.09568924 -0.07803362 0.044305015 0.005710423 0.056283988 -0.079026066 -0.050344825
0.031157052 0.03766502 -0.003004873 0.06945413 0.09541851 0.023525631 -0.0077622654 -0.00018438102
0.04589839 0.019197656 -0.09731479 0.06413748 0.08734912 -0.0456756 0.046929467 0.09955424
0.015013838 -0.078412764 0.0064962865 0.036318947 -0.043146085 0.06664695 -0.03384273 -0.07931774
-0.03927934 -0.07725451 -0.06866192 -0.027937412 -0.071247116 0.028499557 -0.09613341 -0.08533555
-0.03015473 -0.036482453 -0.09266136 -0.04949076 -0.091625325 0.007746792 -0.010714996 0.07479675
0.083560966 0.039764892 -0.08230706 -0.026430583 -0.07950776 -0.072026625 0.07370477 -0.0715941
-0.0019042612 -0.043347824 0.09998699 -0.047081362 -0.01519475 0.07978486 0.0030853034 0.03363339
0.07360619 0.01690172 0.023489881 -0.07893028 -0.05663034 0.08117948 -0.038270533 -0.09728929
-0.06577285 0.057080258 0.059231605 -0.084296815 0.09061819 -0.08524531 0.029734457 -0.068071686
-0.013836301 0.011135734 -0.0711311 0.09277173 -0.0017335296 0.058559727 0.09287518 0.034784295
-0.06453371 -0.0900913 -0.020895004 -0.062442053 0.01730355 -0.022427857 0.037669897 -0.04324775
-0.09032021 -0.013618636 0.06375275 -0.05150279 0.044832982 0.07789477 0.007823753 -0.097648636
-0.015401686 0.080341175 -0.05390376 -0.099050246 -0.03972398 0.04184599 -0.05689018 0.026915718
-0.067765 0.02116778 -0.098692596 -0.098888695 0.07984948 -0.099858336 -0.02460115 -0.03107034
0.089295805 0.05386423 0.043726277 -0.041332066 -0.058569025 -0.012196136 0.09747263 0.002577257
-0.06612984 0.0315513 0.042777967 0.07178833 0.0063791275 -0.020723987 -0.03400252 -0.013775635
-0.0404811 0.051072013 -0.05190885 0.0017295241 -0.061611783 0.04747125 0.020269632 -0.011314738
0.003222561 0.015518499 0.08555883 0.0057824375 0.008906103 -0.038859725 0.007338834 0.041376222
0.04758345 -0.055996776 0.06442793 0.082959235 -0.006373477 0.058844067 -0.026297856 -0.046360623
-0.07492935 -0.07937175 -0.051147174 -0.06116089 -0.08668029 -0.07789799 0.07485402 0.035028994
-0.006019139 -0.06940533 0.029011143 -0.068373084 -0.027183283 -0.033781268 0.05334227 0.050741363
-0.01895653 0.0896652 0.04873514 -0.019730568 0.017474974 -0.027947783 0.01201818 0.088969246
-0.066107534 0.07967409 -0.079939954 -0.051757574 0.06786597 0.08952069 0.04842267 0.018410528
0.0007984877 0.030705715 0.036728956 -0.052298237 -0.080910735 -0.06970548 0.07784941 0.024090504
-0.07923547 -0.007754326 -0.07306037 -0.06659161 0.024582578 -0.025510741 0.037583448 -0.08393164
0.09955889 -0.059699368 -0.018441785 -0.03495561 -0.03152143 0.070021294 -0.03404547 -0.08057759
0.07479092 0.0734906 -0.008328474 -0.030357838 0.09048269 0.02495643 0.07736031 0.068426326

gru.bias_hh_l0 f4 [300]
00000000: b0d3 9abd 80c4 f43c 4d0b e7bc e064 143d
00000010: d005 21bd a289 ca3d f535 c43d cd0e 8b3b
00000020: cd61 bdbc c0dc 0ebc dab3 f93c d80f 863d
00000030: 7280 c4bd 27fe c23d 4025 82bc 9073 3fbd
00000040: 4006 c73c 7347 84bd 373f 743d 9a11 febb
00000050: 7718 2b3d 6a7e bbbd 90c8 bf3d b359 2d3c
00000060: 33c2 fbbc 9360 fd3c 95d1 bc3d 106f 7cbd
00000070: 62e6 9f3d 20b6 56bd cdad dabc e81f 8fbd
00000080: fabe 08bd 5ddc c1bd 1d9d 09bd 4575 ac3d
00000090: 4db4 2c3c 803a ff3c 8388 a0bd f823 95bd
000000a0: 47b5 343d 6a9b abbd 3b07 893d fa67 723d
000000b0: 1711 b6bd da78 393c c507 babd abc9 c6bd
000000c0: 330b e03a f252 c6bd cd4a 9d3a 524e a9bd
000000d0: a79d f23c 305a b93d 80b9 c83b a779 b0bd
000000e0: 83d9 433d 6d83 933c 87c9 34bd 4ab8 61bd
000000f0: f2bf a2bd 5a84 51bc e35d a7bd 8a8b b33d
00000100: 8d14 3d3d 337b 04bc d36a bd3c 2710 3a3c
00000110: 6097 fe3c 9a45 f6bc 4538 b43d 87ba fabc
00000120: 0257 a93d 42fb a83d 806f b2bc 7a9a 21bd
00000130: 8775 dabc 50d4 223d 7d71 a7bd a76c c2bc
00000140: f718 8abd cb8d 9dbd 6bc0 9b3d 57c2 1a3d
00000150: 27df b3bd c0e9 373d bb2a 8ebd 4b29 b23d
00000160: 63da 8e3d e24d c1bd 07d4 8c3d 5a25 b93d
00000170: 8838 b2bd 8dff e9bc 0fb4 c9bd e337 313d
00000180: 3fb4 94bd 4d02 a0bd ef0b c63d f3f1 293c
00000190: 37cc 863d cd41 82bb 8750 353d c0f4 383d
000001a0: 02dc cabd fac0 503d 1064 613d e099 fa3c
000001b0: bdde 53bd 2b70 bc3d da70 273c cd4d ba3b
000001c0: 2d6e cd3c 47be fb3c e015 aabc 5372 e13c
000001d0: a3cb 453d 4ddd e93c 671c f23c 8bf5 c03d
000001e0: 672e 2fbc babc abbd 4a6a c93d f399 903c
000001f0: d25b 8dbd da52 583d 8d2e 4d3c 80a5 37bd
00000200: c3b4 3f3d 087f 893d bd63 b0bd 33fa 853c
00000210: 2ace 7d3d 73b7 a93d 67c1 6b3c b076 5ebd
00000220: aa70 6e3d a710 1cbc 0d03 4fbc e38d a2bd
00000230: 13c6 cb3c 73c2 b7bc 9273 9c3d 058e 983d
00000240: c7ac 603d 08f6 c83d e0b5 693d cddd 053c
00000250: da18 cbbd 5d22 1d3d 9ab4 c5bc baec 443d
00000260: 38ff 8c3d 67e6 aa37 0385 5abd 437e 413d
00000270: 005e ec3b 4d0d 54bd 450e bcbd 3338 c9bc
00000280: 33d0 c6bb 8349 aa3d 27ba b6bc ed02 80bc
00000290: 181a a63d 33ef 4fba 180f c03d 802f 733c
000002a0: 47d6 563d 9a51 b23a 834e b43d 2714 a73c
000002b0: e7ec d8bc 558b c43d e8af bbbd 3087 74bd
000002c0: 6781 5a3b 0f3e 9e3d 37d7 8cbd bb49 8f3d
000002d0: 0d22 83bd b301 8f3b 0720 8f3d 2ba3 a3bd
000002e0: 4aa3 753d 57b8 46bd ba12 043d b839 b93d
000002f0: 3317 41bd 47b6 6fbd cddc 6239 f71b 2bbd
00000300: 0d5f 2c3d d7de a13d 9a3f d0ba 4a12 ba3d
00000310: 4319 48bd d7ff 403d 62bc 8e3d c599 88bd
00000320: 9746 393d 7d49 a8bd b328 733d 4f73 ac3d
00000330: 80dc 603c 48f7 b9bd e09e 21bd bf8d b53d
00000340: 8fd9 8f3d 8fa1 ab3d 6a7e 763d b31a 7c3d
00000350: cd22 443d b3d9 87bc cd73 863d f3bc d63c
00000360: 73e7 f63c 1aed 8abc 1dc1 ac3d 4a81 14bd
00000370: 33eb cabc fd21 1c3d cd38 bbbc e36b a6bd
00000380: 07a7 713d 6050 85bd 9f98 cb3d 2777 a5bc
00000390: cac0 4a3d 4261 aebd cb3b babd d091 91bd
000003a0: 3aad 7bbd 9ac8 b4bb 409d 98bc 7024 813d
000003b0: 4785 873d 656a bdbd 8fc2 973d d3b9 0bbd
000003c0: 437b 903d 0040 f138 00e8 b7bc 33b2 723b
000003d0: 5dcb 743d 2388 30bd f3e5 c6bd e7d7 603c
000003e0: e7f6 a03b 9727 08bd 60a4 b2bc 63dd 833d
000003f0: 15e8 b93d 6b3b bf3d 8a3a 75bd 27e5 51bc
-0.075599074 0.029878855 -0.02820363 0.036229014 -0.039312184 0.098895326 0.09580604 0.0042437077
-0.023117924 -0.008719623 0.030481268 0.06545991 -0.095948115 0.09521132 -0.015886903 -0.04674107
0.024294972 -0.0645894 0.0596306 -0.007753563 0.04177138 -0.09154971 0.09364426 0.010580468
-0.03073225 0.03092984 0.09219662 -0.061629355 0.07807614 -0.05241978 -0.026694203 -0.069885075
-0.033385254 -0.09465859 -0.0335971 0.08420805 0.010541034 0.031155825 -0.078385375 -0.07282251
0.044118192 -0.08379252 0.06690832 0.05918119 -0.088899784 0.011320317 -0.09083513 -0.09706434
0.0017093181 -0.09683789 0.0012000442 -0.082668915 0.02961619 0.09050405 0.006125629 -0.08616953
0.047814857 0.018007005 -0.044137504 -0.055107392 -0.07946767 -0.012787903 -0.08172204 0.08766849
0.046162177 -0.008086014 0.023122227 0.01135639 0.03107804 -0.030062485 0.08799795 -0.030606521
0.082685485 0.082510486 -0.021781683 -0.03945396 -0.02666737 0.03975326 -0.08175943 -0.02373345
-0.06743043 -0.076930605 0.0760506 0.037782993 -0.08782797 0.044900656 -0.06941744 0.08699282
0.06975248 -0.09438683 0.068763785 0.09040327 -0.08702189 -0.028564239 -0.098487966 0.04326619
-0.07260942 -0.07812939 0.09670245 0.010372627 0.0658192 -0.003975129 0.04426625 0.045155287
-0.099052444 0.050965287 0.055027068 0.030590951 -0.05172609 0.09201082 0.010219777 0.005685544
0.02507695 0.03073038 -0.020762384 0.027520334 0.048289906 0.028547907 0.029554559 0.094218336
-0.0106922155 -0.08385606 0.09834726 0.017651534 -0.06902279 0.05281339 0.012523306 -0.044835567
0.046803247 0.067136824 -0.086127736 0.016354656 0.06196419 0.08286943 0.014389372 -0.054312408
0.058212914 -0.009525455 -0.012635005 -0.07937219 0.024874723 -0.022431588 0.07639231 0.07448963
0.054852273 0.09812552 0.057058215 0.008170557 -0.099168494 0.03836285 -0.02413397 0.048077323
0.068846166 2.0372869e-05 -0.053349506 0.047239553 0.007213354 -0.051770497 -0.09182409 -0.02456293
-0.0060672997 0.083148025 -0.022305561 -0.015626395 0.08110446 -0.0007932067 0.09377879 0.014842868
0.052450445 0.0013604641 0.088040374 0.020395352 -0.026480151 0.09596888 -0.09164411 -0.059699237
0.003334129 0.077266805 -0.068769865 0.06996485 -0.06402979 0.0043642162 0.069885306 -0.07990106
0.059970178 -0.048515644 0.03224442 0.09044212 -0.047141265 -0.058523443 0.00021635294 -0.041774716
0.042082835 0.079038315 -0.0015888095 0.090855196 -0.048852216 0.047118988 0.06969525 -0.06669954
0.045233335 -0.08217142 0.059364986 0.08420431 0.013724446 -0.09080368 -0.039458156 0.088649265
0.07023918 0.08380424 0.06017915 0.0615489 0.04788475 -0.0165833 0.06565056 0.026213145
0.03013966 -0.016958762 0.08435271 -0.036256112 -0.024770355 0.03811835 -0.022854233 -0.081260465
0.05899718 -0.06509471 0.099412195 -0.020198418 0.049500264 -0.08514644 -0.09093436 -0.0710789
-0.0614445 -0.0055170776 -0.01862967 0.06305778 0.066172175 -0.09248809 0.07410156 -0.034112763
0.0705476 0.000115036964 -0.022449493 0.0037032485 0.059764255 -0.04309858 -0.09711828 0.01372335
0.0049122456 -0.03324088 -0.021806896 0.064387105 0.09077469 0.09337505 -0.05987028 -0.012810982

gru.weight_ih_l1 f4 [300, 100]
00000000: fa50 8bbc ba08 ebbc 3ab4 c4bc 9a4b 583b
00000010: a7d7 a1bc 5a14 4cbd ca82 63bd 8ab2 6b3d
00000020: 0027 183d 7a3d cabd 9af9 163b 87f6 7b3d
00000030: 2a70 74bd 5a68 32bc 7a31 40bd 236a 1b3d
00000040: 671c 063b 0347 45bd a3f1 6b3d 1a58 803d
00000050: e0d6 973d 6762 79bc 67c6 2ebc cdbd 31bc
00000060: c878 b0bd 8282 c7bd a0ff c8bd 0a1a 573d
00000070: c712 ad3d add3 cb3d e2d3 963d bd2a c7bd
00000080: e7cf 6fbd badb f23c 00a7 f0bc f091 773d
00000090: 30cd ba3d dac0 d93c 9a91 913d 6714 4d3b
000000a0: 6d40 a33d aa0f bdbd 4fad afbd 80e7 7d3c
000000b0: 7dc1 193d 0a59 6cbd 0d2b 403d b215 8cbd
000000c0: da42 ad3d f0ac 893d 07c5 92bc 4002 b23d
000000d0: 704b 643d 3ac1 b7bc 3026 273d 3ae0 d03c
000000e0: 4d15 f9bb 3302 dc3b b3b9 afbc 7da9 b1bd
000000f0: 6db6 a2bd 17b2 04bd 8dbe c53c 6d5b 37bd
00000100: 2794 0fbc c72c b23c 6f0a 983d a024 873c
00000110: c73d a23d e053 84bd 0b3d c1bd e015 89bc
00000120: 2773 0abd 9df0 bc3d 1a8e cb3b 30ee b83d
00000130: b30b af3c 4a2f 32bd 7a86 6b3d 6a64 9dbd
00000140: 0767 a33d da3f 4fbd aaec 27bd 1502 9a3d
00000150: 1f5d a5bd a0c9 dfbc 3a4a c4bc db05 a43d
00000160: 6775 87bb 27cc 4c3c 97c9 5cbd e787 e53b
00000170: c048 93bd 8d9a 4abc 1a1d 903d 9a39 9fbb
00000180: 67e8 e5bb 4d50 1abd 2f34 ab3d 7ad7 26bd
00000190: 0d69 a6bc ed89 2e3d 8272 833d dd2f 36bd
000001a0: 8384 69bd e78c 683d 17bf b23d efe3 c4bd
000001b0: daea be3c 30ec 823d 0034 0e3a 9ffd a43d
000001c0: 3ac2 b0bd 3dd0 babd 6a79 b93d 9754 c5bd
000001d0: c37f 9ebd 8a83 56bd ed0c 4d3d 2399 943d
000001e0: 404d 02bd 330e 7c3c 6793 d23b 95e1 c4bd
000001f0: 40ca aa3d ba76 abbc f08b 05bd f399 bebd
00000200: 9743 c43d 33da 123d 6340 66bd ca31 25bd
00000210: cd43 123d 8fa3 b53d d096 273d 8093 833d
00000220: 674d 3fbc 9ab1 4b3a e762 1e3d b38f 33bc
00000230: d0b1 003d 2516 c43d 272a ddbc 8b84 823d
00000240: 759f c23d e772 84bb 9afd b33d 3dfc 743d
00000250: e7fb 9abc 405c 8ebd 33c3 16bd 00e8 c93b
00000260: 9f66 a3bd 6035 bbbd 209e d63c 6262 b33d
00000270: 37d0 65bd 80d8 103d 00e2 4fbb e86c 9d3d
00000280: d33f f4bc 809b 873b f318 aa3c 5287 b53d
00000290: 338b b0bc 2a4e 53bd e7c6 5f3d a00b 7fbd
000002a0: b3e6 f0bb 4df0 b3bc 9af0 0bbc 62ea bcbd
000002b0: 271c 1cbc e3d7 13bd 4280 c9bd 80db a53c
000002c0: 9a43 3cbd 8716 babc 504a cb3d 0b48 86bd
000002d0: 2793 b63c ada5 9d3c 7321 553c b767 4abd
000002e0: da2b 16bd 23ed 033d ed20 a5bd 7b63 aabd
000002f0: 95f7 b13d 7acd 8b3c 9ab6 cc3b 9a43 dd3a
00000300: ca1d 39bd e8cc b5bd 6084 293d 107a 823d
00000310: 40c1 953c 55fb 893d 0551 b5bd 8d38 d03c
00000320: b308 3a3d 5a37 c3bc 6afb 7abd b3e6 ec3b
00000330: 33ec 0dbd 400e 083c 3d22 4d3d 9b3a 9fbd
00000340: 40c6 d13c da06 cabd d3a5 c43c 272f 0ebd
00000350: 37ce 55bd 0dcc 3a3c ea84 113d 33fb 0a3c
00000360: a840 95bd 1aa4 73bd e08a dabc 07eb 293d
00000370: faa5 29bd 5ddd 4a3d 3079 3f3d dfb8 bf3d
00000380: 5a73 c53d 9dfc c7bd cdec c5ba 62ea c1bd
00000390: cdb4 e939 b338 3fbc d302 c2bd c396 4a3d
000003a0: db65 b53d 084d 9bbd ed0d d1bc e39f b9bd
000003b0: 6de9 a13c 4ae4 a23d c00f ef3c 5788 93bd
000003c0: 9ad8 83bb 6faf c83d ba7c c33d 07ae 873c
000003d0: a7fa bebd ad98 c7bc dd31 08bd c3f2 29bd
000003e0: d78c 39bd edf4 e3bc 13d0 fcbc 0a2c 5f3d
000003f0: 3a1e a93c a073 e43c c05a 223c fa9c 44bd
-0.017006386 -0.028690685 -0.02401172 0.0033004046 -0.019756151 -0.049824096 -0.055544652 0.057543315
0.03714657 -0.09875007 0.0023036958 0.061514404 -0.05967728 -0.010889137 -0.046922185 0.037943017
0.0020463706 -0.048163425 0.05760349 0.06266804 0.07414031 -0.015221215 -0.01066742 -0.010848475
-0.08616787 -0.09741689 -0.098143816 0.052515067 0.08450847 0.09952483 0.07364632 -0.097249486
-0.05854788 0.02964579 -0.029376507 0.06044191 0.09121168 0.026581217 0.071078494 0.0031292678
0.079712726 -0.09231503 -0.08577978 0.015497088 0.03753804 -0.0577021 0.046916056 -0.068400756
0.084600165 0.06722438 -0.017916216 0.086918354 0.055736005 -0.022431005 0.040807903 0.025497545
-0.007601416 0.0067141294 -0.021450853 -0.086749054 -0.07944951 -0.032396402 0.024138713 -0.044764925
-0.00876335 0.021749867 0.07423865 0.016496956 0.07921939 -0.064613104 -0.09435471 -0.016734064
-0.033801224 0.09225581 0.006212008 0.09029806 0.021367883 -0.04350213 0.057501294 -0.07685168
0.07978635 -0.050598003 -0.040997185 0.07519928 -0.08074402 -0.027317822 -0.023961175 0.08008929
-0.0041338685 0.012499846 -0.05390319 0.007004726 -0.0719161 -0.012365949 0.07036801 -0.0048591616
-0.00701623 -0.037674237 0.083595626 -0.04073284 -0.020313764 0.042612005 0.06418325 -0.04447924
-0.05701114 0.056775 0.08727854 -0.096137874 0.023305345 0.063927054 0.0005424619 0.08056187
-0.08630796 -0.091217496 0.09056361 -0.09635275 -0.07739212 -0.05237154 0.050061155 0.07255771
-0.031811953 0.015384245 0.006426263 -0.09613339 0.083393574 -0.020930637 -0.032604158 -0.09306707
0.09583204 0.035852622 -0.056213748 -0.040330686 0.03570919 0.08869087 0.04091531 0.06424618
-0.011676169 0.00077703 0.03866854 -0.0109595535 0.031419575 0.09574536 -0.026997639 0.06372937
0.0950307 -0.0040420177 0.08788605 0.059810866 -0.018918945 -0.06951189 -0.03680725 0.0061616898
-0.07978558 -0.0914104 0.026198447 0.087589994 -0.056106772 0.03536272 -0.00317204 0.07686788
-0.02981559 0.00413841 0.02076385 0.08863701 -0.02155075 -0.051588215 0.054633047 -0.062266946
-0.0073517202 -0.02196517 -0.008541251 -0.092243925 -0.009528196 -0.036094557 -0.09838916 0.020246267
-0.045962907 -0.02271582 0.09926283 -0.0655671 0.022286965 0.01924404 0.013008463 -0.049415316
-0.036662914 0.032208573 -0.08062921 -0.08319756 0.08689801 0.017065752 0.0062473537 0.0016881109
-0.045194425 -0.088769734 0.04138601 0.06370938 0.018280625 0.06737391 -0.08853344 0.02541759
0.045418452 -0.023830105 -0.061274923 0.00722965 -0.034649085 0.008304179 0.05008148 -0.0777485
0.025607228 -0.09864588 0.024004852 -0.034712937 -0.052198615 0.011401189 0.035527147 0.008482742
-0.07287723 -0.05948267 -0.026677549 0.041483905 -0.041418053 0.049527515 0.046746433 0.09361433
0.09641142 -0.09764979 -0.0015100479 -0.09468533 0.0004457593 -0.011671233 -0.09473195 0.049460184
0.08857318 -0.07583052 -0.025519336 -0.09063699 0.019764626 0.07953699 0.029182315 -0.07203739
-0.0040236237 0.09799086 0.09545274 0.016562475 -0.09325152 -0.024364794 -0.03325068 -0.04149128
-0.04530033 -0.02782675 -0.030860936 0.05448536 0.020644296 0.027887166 0.009909332 -0.048001267

gru.weight_hh_l1 f4 [300, 100]
00000000: 80be 1dbc 2053 8abc a21a ca3d 7d54 c23d
00000010: 9ad8 adbd c865 a7bd 436b a4bd 67c9 e53c
00000020: 67b6 56b9 3a10 6f3d b3b8 323d a7af 84bc
00000030: 003d e33b 67cd 2bbc 7afc 0cbd 9083 5f3d
00000040: a263 89bd 9af0 b93b 00ca f0ba 735c 73bd
00000050: 8b76 c8bd 0db5 12bc a7a9 8cbc 4d8f 8d3d
00000060: a009 9ebd a387 0c3d 27c6 f6bc 101a 35bd
00000070: a731 1abc 573c 483d 330b 153b f700 5d3d
00000080: 178e 8e3d 9a80 e2bc 5d13 093d 9bed a63d
00000090: c8e6 87bd d7fe b33d c55f a2bd 80eb e63b
000000a0: 8a60 573d f357 833c b85f b9bd 6550 b3bd
000000b0: 606a 793d 0ba4 a43d 70b9 13bd 9ae5 d53a
000000c0: b009 913d fab7 233d 88c4 b3bd 3ac2 41bd
000000d0: a52c b7bd dd6b 2dbd c79b 473d 4d16 6dbc
000000e0: 1d05 27bd 572c 2c3d 00f7 153d c3cf c93d
000000f0: c395 a23d 3712 3cbd 550f ccbd 9aeb 013b
00000100: 9382 09bd 9b8f b03d dabe bfbd 370a 20bd
00000110: c55e 933d 67a2 053a 27ce 053d e39f 98bd
00000120: a0fb c0bc da34 65bd b376 adbc 230d 743d
00000130: a743 e0bc 5ab9 7fbc c366 93bd 33c6 eb3c
00000140: 0d2e 6ebd 03dd 993d 32b8 8f3d 372f 0a3d
00000150: 9be6 993d cd76 92bc 109e 433d 0544 85bd
00000160: 9350 e1bc 2fba b33d 0f1d c13d ed79 f5bc
00000170: 5deb 7abd 3ba2 983d 4d85 aabd 1dfa 803d
00000180: a02c fb3c 0fcf 9e3d 43f9 073d f369 b0bc
00000190: df1a ccbd f320 bcbd 7d7f 41bd 7a97 66bd
000001a0: e7f4 d2bb 00af 5abc 9314 abbc ead8 1ebd
000001b0: 32cc 8ebd 53ff 5d3d f0de c43d 8255 cbbd
000001c0: 4d29 46bc 809e 1cbc 7286 833d 4774 c93d
000001d0: aaaf 523d ad38 3f3d b2f1 b6bd 839a cc3d
000001e0: 8dce e13c c33c 7b3d c7b2 15bd 4afb af3d
000001f0: 5a3e 55bc a74d 2dbc fad8 84bd cd7b 48bd
00000200: 33d3 05ba e7c6 1fbd a7e8 133d 3a74 36bd
00000210: 3d0f 683d 130f 883d 7a46 503d 88fb 9b3d
00000220: daf5 25bd 778c babd d047 583d 276e 2f3d
00000230: e77b 803d fd53 c73d 7b63 9a3d ca7f 673d
00000240: 4d65 ebbb dacb 37bd 2d9f c4bd f570 b73d
00000250: a8de c8bd 030c 153d c512 a8bd a717 503d
00000260: d090 aa3d d71e 4bbd 87e0 79bd 5a09 1dbc
00000270: 3a73 bc3c 7787 653d cd70 df3b 73da 2a3d
00000280: 5577 a13d cdae 7b3d c3d1 5a3d 6a94 6d3d
00000290: 6754 f6ba e7df 573d 0089 37bb 0ad9 783d
000002a0: b3ff 87bb f0d7 a1bd 9d9e b6bd e5fe a43d
000002b0: b005 c6bd 9d2f 173d a2d0 a53d 5003 6e3d
000002c0: aa8f c1bd 03ea aabd 2ae9 ac3d 132c 91bd
000002d0: cdb7 a13b 3d16 a33d e789 56bd dd14 03bd
000002e0: 4d97 fd3b 00ad 223c 03c2 97bd 45d9 ac3d
000002f0: b355 ee3b c005 9c3c 2d5a b7bd d8d9 b1bd
00000300: 672f 98bd 67c7 5dbb 0737 0fbd 1ab0 5f3d
00000310: 5fd9 b63d 3d2a 82bd 1abb 8b3c fa02 aebc
00000320: 9878 993d 1ae0 f6bc 0df2 483c 1a5c 193d
00000330: 4de4 03bd c777 0ebd 8384 573d 93b9 9b3c
00000340: 8fa6 ac3d 0dae 6f3c c59c 95bd 0714 9abd
00000350: 503a 4cbd bd4a a93d 90b3 9e3d 3af6 c0bd
00000360: cd31 b4bb 05d0 b23d 2a15 713d b0c9 693d
00000370: bd7c 90bd a77d 913d 672a 3ebb 17e9 02bd
00000380: 937d d1bc a876 8fbd 93f5 3f3d 0053 ed3b
00000390: a000 bebd b0e0 a53d b075 c73d 6d8b b9bc
000003a0: e783 183c 47aa 8d3d 074f 8abc 6f72 8a3d
000003b0: b35d cdbb e773 7abd 1a83 823d c544 98bd
000003c0: 8056 c0bd d314 653d 7d4a 443d 05ea bfbd
000003d0: cfb0 823d dffc cabd 0068 a9bc 03cb 603d
000003e0: 3a2a 9e3d 6596 cbbd 207b 9fbc 87d9 9dbd
000003f0: d02c 2e3d f348 473c fd4b 973d 3f81 b0bd
-0.009627938 -0.01688534 0.09868361 0.09488771 -0.08488579 -0.0817371 -0.08028271 0.028050138
-0.0002047658 0.058365084 0.043633174 -0.016197039 0.006934762 -0.010485983 -0.034420468 0.054568827
-0.067084566 0.005674434 -0.0018370748 -0.05941434 -0.09788235 -0.008954299 -0.01717074 0.06912098
-0.077166796 0.03430904 -0.030123783 -0.04421431 -0.009411252 0.04888567 0.002274227 0.053956
0.06960695 -0.027649213 0.033465732 0.081507884 -0.06635815 0.08788841 -0.07928423 0.0070471168
0.0525823 0.016033148 -0.0905146 -0.087555684 0.060892463 0.08039101 -0.03606552 0.0016319037
0.07081926 0.039970376 -0.0877772 -0.04730437 -0.08944062 -0.042339195 0.048732545 -0.014470649
-0.04077636 0.042034473 0.03661251 0.098540805 0.07938721 -0.04591581 -0.09963862 0.0019824267
-0.03357179 0.086211406 -0.09362574 -0.03907224 0.0719581 0.0005097747 0.032667305 -0.07452371
-0.023557484 -0.055958606 -0.021174764 0.05958284 -0.02737601 -0.015608156 -0.071973346 0.028781032
-0.058149386 0.07512858 0.07017554 0.033736434 0.07514688 -0.017878914 0.047758162 -0.06507114
-0.027504241 0.08775746 0.094293706 -0.029965365 -0.061259616 0.07452818 -0.08326206 0.06297705
0.030660927 0.07754337 0.0331967 -0.021534896 -0.09966063 -0.09185972 -0.047240723 -0.056296803
-0.006437886 -0.013347387 -0.020883834 -0.038781084 -0.06972541 0.054198574 0.096128345 -0.09928419
-0.012094808 -0.009559274 0.06422128 0.09836631 0.051437058 0.04668491 -0.089328185 0.09990408
0.027564311 0.061337244 -0.03654745 0.085928515 -0.013015354 -0.010577596 -0.064866975 -0.04894619
-0.00051050185 -0.039008047 0.036110546 -0.044544436 0.056655157 0.066435 0.05084846 0.07616335
-0.040517665 -0.09108823 0.05280286 0.04282966 0.062736325 0.09732816 0.07538506 0.056518354
-0.007183707 -0.044872142 -0.09600673 0.08957092 -0.09808093 0.03638841 -0.08206705 0.050803807
0.08328402 -0.049589958 -0.06100514 -0.009584749 0.023004163 0.056037392 0.006818867 0.041712236
0.07884089 0.061446 0.0534227 0.058002867 -0.0018793464 0.052703764 -0.0028005242 0.06075386
-0.004150355 -0.07902515 -0.08916972 0.0805643 -0.096690536 0.036910642 0.08096434 0.058108628
-0.0945123 -0.083454154 0.0844291 -0.070884846 0.004935241 0.07963226 -0.052377608 -0.03200232
0.0077389837 0.009928942 -0.07410052 0.084398784 0.0072733997 0.01904571 -0.089527465 -0.086841285
-0.07430916 -0.0033840777 -0.034964588 0.054611303 0.08928179 -0.063557126 0.01705699 -0.021241654
0.074937046 -0.030136157 0.012264741 0.03744135 -0.032200146 -0.034782197 0.052616607 0.019009387
0.08430206 0.014628899 -0.07305292 -0.07523351 -0.0498603 0.08266208 0.077490926 -0.09421964
-0.005499101 0.08731083 0.058858074 0.05707711 -0.07055042 0.071040444 -0.0029016973 -0.031960573
-0.025572574 -0.07005054 0.046865057 0.0072425604 -0.09277463 0.08099496 0.09739244 -0.022649491
0.009308792 0.069172435 -0.016883386 0.06760108 -0.0062672733 -0.06114569 0.06372662 -0.07434992
-0.093914986 0.055928063 0.0479226 -0.093708076 0.0638138 -0.099115126 -0.020679474 0.054881107
0.07722898 -0.09940795 -0.01946789 -0.07707506 0.042523205 0.012163389 0.073875405 -0.08618402
