models/net_3_layers_hidden_100.ckpt (torch, 807839 bytes, 15 tensors)

encoder.weight f4 [97, 100]
0	0x3dd51763	0.10404851
1	0xbe94f379	-0.29092005
2	0xbdd903f4	-0.10596457
3	0xbf3fbe57	-0.7489981
4	0x3f822198	1.0166502
5	0xbfcb3934	-1.5876832
6	0xbea1bf62	-0.31591326
7	0xbfda9050	-1.7075291
8	0xbfaeaa87	-1.3645791
9	0x3ef86ca5	0.4852039
10	0xbfd131e2	-1.6343348
11	0xbf4b1f2c	-0.7934444
12	0x3fa05a95	1.2527643
13	0x3defddd8	0.11712235
14	0x3dc4746d	0.09592519
15	0x3f6e19ea	0.9300829
16	0xbe0180a5	-0.1264673
17	0xbf475024	-0.7785666
18	0xbe2ee6ba	-0.17080203
19	0xbf87be29	-1.0604907
20	0xbe1be6c2	-0.15224746
21	0xbef53370	-0.47890806
22	0x3f51173c	0.8167608
23	0x3fb866cd	1.4406372
24	0x3f8e420f	1.111391
25	0xbf43c94a	-0.7647902
26	0x3f2f22c0	0.684124
27	0x3f563ab0	0.836833
28	0x3f048d9f	0.51778597
29	0x3e1181d8	0.14209688
30	0xbe9e2873	-0.30890235
31	0xc03c1b4a	-2.9391656
32	0xbf4baa03	-0.7955629
33	0xbf8f7d1a	-1.1210053
34	0x3fb694d6	1.4264171
35	0xbf82e911	-1.0227376
36	0xbdaf9bab	-0.08574613
37	0x3fa7a5fa	1.3097527
38	0x3e2f36c4	0.17110735
39	0xbdcb71a9	-0.09933788
40	0xbf604ff8	-0.8762202
41	0xbf08f198	-0.5349364
42	0x3f2ab83f	0.6668739
43	0x3fc29e1c	1.5204501
44	0x3f21f51b	0.63264626
45	0x3e94f0f5	0.29090086
46	0xbe0faf9d	-0.14031835
47	0x3f481696	0.78159463
48	0xbd181bcc	-0.037135884
49	0xbe096cd6	-0.13420424
50	0xbfc967a5	-1.5734755
51	0xbf375f96	-0.7163023
52	0x3f3535a5	0.7078498
53	0x3f3bf26c	0.7341678
54	0x403de701	2.9672244
55	0x3f7f5d9c	0.9975221
56	0xc01f5d03	-2.490052
57	0xbe1c5a4c	-0.1526882
58	0x402e4567	2.722986
59	0x3ecc702f	0.3992934
60	0xbec176f1	-0.37786058
61	0xbf404b43	-0.7511484
62	0xbf4a5138	-0.7903018
63	0x3eaee410	0.34158373
64	0xbc2f9ef4	-0.01071905
65	0xbf7a453d	-0.977619
66	0xbf3d3cb5	-0.73920757
67	0xbd88ca6a	-0.066792324
68	0xbfa27503	-1.2691959
69	0x3f53d0c0	0.827404
70	0x3f96a2e9	1.1768466
71	0x3fadbfd6	1.3574169
72	0xbe6dc5f3	-0.23220043
73	0x3f85406d	1.0410286
74	0xbfa521d9	-1.2900954
75	0xbf4dcc34	-0.80389714
76	0xbeda6a3e	-0.4265918
77	0x3f22c2f2	0.6357871
78	0xbfe2dff2	-1.7724593
79	0x3f7c4a23	0.98550624
80	0xbeb540cd	-0.35401002
81	0xbeac2e99	-0.336293
82	0xbf082e8d	-0.5319603
83	0x3ed47569	0.41495827
84	0xbe7dc996	-0.2478393
85	0xbfb11a6b	-1.3836187
86	0x3f07e9e1	0.53091246
87	0xbfdc966c	-1.7233405
88	0xbef318ad	-0.47479764
89	0xbd6cc90f	-0.057808932
90	0xbfd68c10	-1.6761494
91	0xbf79a45d	-0.97516423
92	0x3f056a54	0.5211537
93	0x40071c5c	2.111106
94	0x3f3d693f	0.7398872
95	0xbf97389a	-1.1814148
96	0xbf356ac8	-0.7086606
97	0x3fef7473	1.8707412
98	0xbfcc580f	-1.5964373
99	0xbf45616c	-0.7710178
100	0xc01ae98f	-2.4205053
101	0xbf02ed1a	-0.5114304
102	0x3d8f5e7b	0.070004426
103	0xbf8091a6	-1.0044448
104	0x3e88f880	0.2675209
105	0x3f2b9af8	0.6703334
106	0xbe2cd24b	-0.16877095
107	0xbe0394d4	-0.12849742
108	0xbd0def18	-0.034651846
109	0xbf1235c4	-0.5711329
110	0xbe182d8e	-0.14861128
111	0xbe08adb1	-0.13347508
112	0xbf792cde	-0.97334087
113	0xbc13ef14	-0.009029169
114	0xbe32a193	-0.17444448
115	0x3f5978a1	0.8494969
116	0x3f630034	0.88672185
117	0xbf882944	-1.0637593
118	0x3f487183	0.78298205
119	0x3f9e9bd2	1.2391303
120	0xbf1edfaa	-0.62060034
121	0xbeb706f9	-0.35747507
122	0xbea20f65	-0.3165237
123	0xbf6c1142	-0.92213833
124	0x3fb8ba4f	1.4431857
125	0xbfdfd955	-1.74882
126	0x3d733436	0.059375964
127	0xbf7a4f80	-0.9777756
128	0x3d5326fc	0.05155085
129	0xbeef9c46	-0.46798915
130	0xc011a2ce	-2.2755618
131	0xbf910d89	-1.1332256
132	0x3e294cef	0.16533254
133	0xbe3a1177	-0.18170725
134	0xbf1c88ef	-0.61146444
135	0x3f73aa40	0.95181656
136	0x3e109605	0.14119728
137	0x3ea1cc6b	0.3160127
138	0xbf9b1618	-1.2116117
139	0xbf568e1c	-0.8381059
140	0xbf9242bf	-1.1426619
141	0x3d06c3c1	0.03290153
142	0x3fd8d697	1.6940488
143	0x3fabc282	1.3418734
144	0xbfb32c3f	-1.3997878
145	0xbe446161	-0.19177772
146	0xbea7df34	-0.32787478
147	0x3f9ba0b0	1.2158413
148	0xbed84656	-0.42241162
149	0x3e9c8abc	0.30574596
150	0x3e8d2190	0.2756467
151	0xbfcac928	-1.5842638
152	0x3f9909bc	1.1956096
153	0xbdd0a4be	-0.10187672
154	0xbf93a576	-1.153487
155	0xbf5ba416	-0.8579725
156	0x3d95f883	0.073227905
157	0xbf5f8c1d	-0.8732317
158	0xc0142b55	-2.3151448
159	0xc0167125	-2.3506558
160	0x3ee49626	0.44645804
161	0x3eed78eb	0.46381316
162	0xbfa80c6a	-1.3128788
163	0xbec07c77	-0.3759496
164	0x3ee00956	0.43757123
165	0x3d331b7d	0.043727387
166	0xbf852ec3	-1.0404896
167	0x3e822da1	0.25425437
168	0x3e9bae68	0.304065
169	0x3f17fe28	0.59372187
170	0x3f94be1a	1.1620514
171	0xbe8c2ea9	-0.2737935
172	0x3eede4c6	0.46463603
173	0x3fbdcdae	1.4828393
174	0xbfaa958d	-1.3326889
175	0x3f7b3496	0.98127115
176	0xbc8d8e57	-0.017279787
177	0x3fb065b7	1.3781041
178	0xbe0596eb	-0.13045852
179	0x3f2038e7	0.62586826
180	0x3f5dde98	0.86667776
181	0xbde0225e	-0.10944055
182	0xbef58bdc	-0.47958267
183	0x3e1d0eba	0.15337649
184	0x3feb2142	1.8369524
185	0xbf4ae90f	-0.7926187
186	0x3f5a3476	0.852363
187	0x3e5dc57d	0.21657367
188	0xbe634269	-0.22193302
189	0x3e0cf78a	0.13766304
190	0xbec16738	-0.37774062
191	0x3f2f67ad	0.6851757
192	0xbf6aea1e	-0.91763484
193	0x3f244eef	0.64182943
194	0xc002140c	-2.0324736
195	0xbf06689c	-0.5250337
196	0x3bc3a76d	0.0059708864
197	0x3f1d5ad1	0.614667
198	0xbf41bc7f	-0.7567825
199	0x4021fb15	2.5309498
200	0x3f459087	0.77173656
201	0x3dd742d5	0.10510794
202	0x3e9744cf	0.29544684
203	0x3f045880	0.5169754
204	0x3f6cefbb	0.925533
205	0xbf7c18e0	-0.98475456
206	0x3f8fb91c	1.1228366
207	0x3f433fce	0.76269233
208	0xbfde2658	-1.7355452
209	0x3ff66a21	1.9251138
210	0x3eb77446	0.35830897
211	0xbfa14d3b	-1.2601694
212	0xbe96130b	-0.29311404
213	0xbf9d0edc	-1.227016
214	0x4015dceb	2.3416088
215	0xbde5c3a2	-0.112189546
216	0x3fff65a4	1.9952893
217	0x4028e79d	2.6391366
218	0xbea2024a	-0.3164237
219	0x3e8c22bf	0.2737026
220	0x3ea26f24	0.3172542
221	0x3f244aed	0.6417683
222	0x3e495d98	0.1966461
223	0x3e2e10ca	0.16998592
224	0x3f5c0f85	0.8596118
225	0xbf18c4f4	-0.59675527
226	0xbebc48d6	-0.3677432
227	0x3f8f64d4	1.1202645
228	0x3f880fdc	1.062984
229	0x3f72d316	0.9485334
230	0x3f087fbd	0.53319913
231	0x3f6726fe	0.9029387
232	0x3e3997f4	0.18124372
233	0x3ea4c8e3	0.32184514
234	0x3eea61c7	0.45777723
235	0xbf81268a	-1.0089886
236	0x3f380efb	0.7189786
237	0xbfa548bc	-1.2912822
238	0xc008cf53	-2.137654
239	0x3ffa66cc	1.9562621
240	0xbe8a5a55	-0.27022043
241	0xbedc2681	-0.42998126
242	0xbf499fb1	-0.78759295
243	0xbfb1073f	-1.3830336
244	0x3b08faf0	0.0020901524
245	0x40006154	2.0059404
246	0x3f9339c4	1.1502004
247	0xbedaca33	-0.4273239
248	0xbe99e204	-0.3005525
249	0xbfcdc287	-1.607499
250	0x3f3a4b7e	0.7277144
251	0xc04e17c2	-3.2202
252	0x3fe42dc3	1.7826465
253	0xbeafc238	-0.34327865
254	0x3dd31e77	0.10308545
255	0x3e8e18fb	0.27753434

gru.weight_ih_l0 f4 [300, 100]
0	0x3d4ddb8a	0.050258197
1	0x3d9551c3	0.072909854
2	0xbaa53b9a	-0.0012606264
3	0xbdb4c61d	-0.088268496
4	0x3dc37e1f	0.0954554
5	0xbd837b0f	-0.06419956
6	0xbd96c1c8	-0.073611796
7	0xbda38aa7	-0.0798543
8	0xbd783107	-0.06059363
9	0x3db3168f	0.08744537
10	0xbcacf620	-0.021113455
11	0xbd8ce0bd	-0.06878803
12	0xbd1c1e2a	-0.038114704
13	0xbcb6824d	-0.02227893
14	0xbd8c8662	-0.06861569
15	0xbd5ec987	-0.05439141
16	0xbc66b9a7	-0.014082349
17	0x3d76ba8a	0.06023649
18	0xbd6e50a3	-0.05818237
19	0xbcfc6567	-0.030810071
20	0x3d8fd022	0.0702212
21	0xbd97c3c0	-0.07410383
22	0xbdb36b95	-0.08760754
23	0xbd18b93a	-0.03728602
24	0xbd46265d	-0.04837643
25	0x3cb3b94d	0.021938944
26	0xbc5cc45a	-0.013474548
27	0xbb006b67	-0.0019595267
28	0xbdc3dc6b	-0.09563526
29	0xbd68406d	-0.056702066
30	0xbce51747	-0.027965201
31	0xbdc1ada2	-0.09456946
32	0x3dba6270	0.09100807
33	0x3d57109d	0.052506078
34	0xbd59c553	-0.0531667
35	0xbd937e13	-0.07201781
36	0xbdb61877	-0.08891385
37	0x3d8af79a	0.067855075
38	0xbdaaac32	-0.08333625
39	0x3d884fd3	0.0665585
40	0x3d9b7a3b	0.07591673
41	0xbd7111bd	-0.058854807
42	0x3cd0cc27	0.025487972
43	0x3d8f15ab	0.06986555
44	0x3ceab8fa	0.028652657
45	0xbdad8910	-0.08473408
46	0x3d3137aa	0.043265976
47	0x3c560000	0.013061523
48	0x3da9e08b	0.08294781
49	0x3c6bbf00	0.0143888
50	0xbd7badb0	-0.06144494
51	0x3db44667	0.08802491
52	0xbdabc45d	-0.08387063
53	0xbd44278a	-0.04788927
54	0x3ca14813	0.019687688
55	0x3d9cd402	0.07657625
56	0xbd358f07	-0.044325855
57	0xbd057a8d	-0.032587577
58	0xbbaf914d	-0.0053578974
59	0x3dc0894d	0.09401188
60	0xbdb3ac90	-0.08773148
61	0xbdb3cdff	-0.08779525
62	0x3d4cf9e7	0.050043013
63	0xbdaf7585	-0.08567337
64	0x3dafadb0	0.0857805
65	0xbd2f3caa	-0.042782463
66	0x3bd3dd1a	0.0064655663
67	0xbdb497a3	-0.08817985
68	0xbdc15623	-0.094402574
69	0xbc70ef9a	-0.014705563
70	0x3d58b4e7	0.052906897
71	0x3dba6b3b	0.09102484
72	0xbd687393	-0.056750845
73	0xbbabdae7	-0.005244601
74	0x3d733047	0.059372213
75	0x3d942805	0.072341956
76	0xbd907d5d	-0.07055161
77	0xb864599a	-5.4442884e-05
78	0xbdb305fb	-0.08741375
79	0xbd364dc0	-0.044507742
80	0x3d49d56d	0.049275804
81	0xbd80f048	-0.0629583
82	0x3dac59aa	0.084155396
83	0xbd9b9673	-0.07597055
84	0xbd4c87e0	-0.049934268
85	0x3d05ee00	0.032697678
86	0xbdafbb5a	-0.08580656
87	0x3d424a1a	0.04743395
88	0xbd93a30d	-0.07208834
89	0xbd0ca4cd	-0.034336854
90	0xbd7dcf2d	-0.061965156
91	0xbd013fd3	-0.03155501
92	0x3d34fd37	0.044186797
93	0x3cd02f60	0.025413215
94	0x3db8eb8a	0.090293005
95	0xbcb7792d	-0.022396648
96	0xbcc45e1a	-0.023970652
97	0x3cfd8813	0.030948674
98	0x3d717227	0.058946755
99	0xbdadf155	-0.08493296
100	0x3da75c4f	0.08171903
101	0x3d24b897	0.0402151
102	0x3dc72042	0.097229496
103	0xbc8ceed3	-0.017203724
104	0xbc73ed33	-0.014888096
105	0x3be5bd9a	0.0070111277
106	0xbdc6817f	-0.09692668
107	0x3da8a00f	0.08233654
108	0xbd86e18d	-0.06585989
109	0xbd519520	-0.051167607
110	0xbdc2d292	-0.09512819
111	0xbda216d3	-0.079145096
112	0x3da6b658	0.08140248
113	0xbdbaf0e2	-0.09127976
114	0x3d7dc217	0.061952677
115	0x3dbdadf5	0.09261695
116	0x3d2ea567	0.04263821
117	0x3cb3a2da	0.02192824
118	0xbd62dd4d	-0.05538683
119	0xbc843007	-0.016136182
120	0xbd4c780a	-0.049919166
121	0x3d936c00	0.07198334
122	0xbbade233	-0.005306506
123	0x3d5c9d83	0.053861152
124	0xbda00ca0	-0.07814908
125	0xbd893c90	-0.067010045
126	0xbdbb987b	-0.09159943
127	0xbdc96015	-0.09832779
128	0xbd435487	-0.047688033
129	0xbbf3a833	-0.0074358224
130	0xbc087280	-0.00832808
131	0xbbb558b3	-0.0055342554
132	0x3d317c50	0.043331444
133	0xbcb0851a	-0.021547843
134	0x3cc504ad	0.024050081
135	0x3db1a4e7	0.08674031
136	0xbda48060	-0.08032298
137	0x3d80d667	0.06290894
138	0xbd6402c7	-0.05566671
139	0x3d8034aa	0.06260045
140	0x3ca59620	0.020213187
141	0xbd245e80	-0.040129185
142	0x3d20d310	0.039263785
143	0xbc11c8a7	-0.008897937
144	0x3d9907f5	0.07472221
145	0x3daeb085	0.08529762
146	0x3c39145a	0.011296356
147	0xbd01122d	-0.031511474
148	0x3dc9e8ef	0.09858882
149	0xbd57ee63	-0.052717578
150	0x3c5ea69a	0.013589526
151	0xbb5452cd	-0.0032397986
152	0xbd853198	-0.065036
153	0xbd2e7f90	-0.04260212
154	0xbdc1f723	-0.09470966
155	0xbda68ea5	-0.08132676
156	0x3d44dfe0	0.048065066
157	0x3cdaa3d3	0.026689446
158	0x3caecb00	0.021337032
159	0xbd8b396f	-0.06798064
160	0x3d29a69a	0.04141865
161	0x3da4933d	0.08035896
162	0xbd694dba	-0.05695889
163	0x3c4925e7	0.012277103
164	0xbc064767	-0.008195735
165	0x3b83e34d	0.004024899
166	0xbc83f92d	-0.016110027
167	0x3cc3331a	0.023828078
168	0xbd3d43da	-0.046207286
169	0xba3f18cd	-0.00072897674
170	0x3dc76a35	0.09737054
171	0x3c9224ad	0.017839754
172	0x3cc344a0	0.023836434
173	0xbce699ed	-0.02814957
174	0x3da1caf0	0.079000354
175	0xbd34026a	-0.043947615
176	0x3d22e263	0.03976668
177	0x3d453757	0.04814848
178	0x3c6df0c0	0.014522731
179	0xbc395f80	-0.011314273
180	0x3da95e8a	0.08269985
181	0xbd94f0cd	-0.072724916
182	0xbd4f764a	-0.05064992
183	0x3db38f60	0.08767581
184	0x3cedb2d3	0.029015934
185	0x3ca3330d	0.019921804
186	0xbc5fdf8d	-0.0136641385
187	0x3c05ba33	0.008162069
188	0xbd6a08c0	-0.05713725
189	0x3c599967	0.013281203
190	0x3c00f05a	0.007869804
191	0xbd9dbfda	-0.077026084
192	0x3d62ca5a	0.05536876
193	0xbcd2d1cd	-0.025734806
194	0x3db6d6e0	0.08927703
195	0xbdcb0c25	-0.09914426
196	0x3cd21040	0.025642514
197	0xbd99916f	-0.074984424
198	0x3c917a8d	0.017758632
199	0xbd1896a0	-0.037253022
200	0xbdac4f67	-0.08413582
201	0xbba7b567	-0.0051180604
202	0x3d4c6fea	0.049911417
203	0xbcce1b33	-0.025159454
204	0x3b902ecd	0.0044001103
205	0xbd2d0c8a	-0.042248286
206	0xbd34e137	-0.044160094
207	0x3db41683	0.08793356
208	0xbc809c5a	-0.015699554
209	0xbd873678	-0.06602186
210	0xbc6ae2cd	-0.0143363
211	0xbd27f0aa	-0.041001
212	0x3b8b0867	0.004242945
213	0x3d55a627	0.05216041
214	0xbd95232f	-0.07282101
215	0xbd31311a	-0.043259718
216	0xbdc766ca	-0.09736402
217	0xbd81521b	-0.063144885
218	0xbd2006a0	-0.039068818
219	0x3d86a6d3	0.06574788
220	0x3cb466d3	0.022021687
221	0xbd223d30	-0.039609134
222	0xbdbca7fa	-0.092117265
223	0x3c6ea89a	0.014566565
224	0xbd8869ad	-0.06660781
225	0xbda84b65	-0.08217505
226	0x3db03a92	0.086049214
227	0x3d813a3a	0.06309934
228	0xba8c6f33	-0.0010714292
229	0xbc899ce7	-0.01679845
230	0xbda2f782	-0.079573646
231	0xbbfd581a	-0.00773145
232	0xbd0b184d	-0.033958722
233	0x3dbdab97	0.09261244
234	0x3d5a4ea7	0.053297665
235	0xbc9faa27	-0.019490315
236	0x3d98f31b	0.07468244
237	0x3dadaba3	0.08480003
238	0xbd42384d	-0.047416974
239	0xbd93a070	-0.072083354
240	0x3d85eccb	0.06539305
241	0xbd5af7b7	-0.053458896
242	0xbd4fe76d	-0.050757814
243	0x3c9d1aed	0.019177878
244	0x3db5b5d2	0.0887257
245	0xbcdd008d	-0.026977802
246	0xbcd94d6d	-0.026526177
247	0xbdc734df	-0.09726881
248	0x3ceee247	0.029160632
249	0xbc32eae7	-0.010920263
250	0xbdc1c8e7	-0.09462147
251	0x3d73a003	0.05947877
252	0xbd547660	-0.051870704
253	0xbdbee46d	-0.093209125
254	0xbd8c23d3	-0.068427704
255	0xbdc6dc2b	-0.097099625

gru.weight_hh_l0 f4 [300, 100]
0	0x3da94b1b	0.08266278
1	0xbc8629c0	-0.01637733
2	0x3d377b13	0.044795107
3	0xbda18538	-0.078867376
4	0xbdb05d15	-0.08611504
5	0xbd252d9a	-0.040326692
6	0xbd230c3a	-0.039806582
7	0xbd9bab37	-0.07601016
8	0x3d8ec56a	0.069712475
9	0xbdb857e7	-0.09001141
10	0x3c91d213	0.017800367
11	0xbb8b44e7	-0.004250157
12	0xbd2f4b30	-0.042796314
13	0x3cbe40a0	0.023224175
14	0xbcd74000	-0.026275635
15	0x3ac40ecd	0.0014958024
16	0xbc2243cd	-0.00990386
17	0x3c0e5627	0.0086875325
18	0x3b1ecb67	0.0024230124
19	0xbd8565fd	-0.06513593
20	0xbd4f399d	-0.050592054
21	0x3dbde7a0	0.092726946
22	0xbd61615a	-0.055024482
23	0x3db260fb	0.08709904
24	0xbccf24e7	-0.025286151
25	0xbd0eee2a	-0.0348951
26	0xbda2cfaa	-0.07949765
27	0x3d01aa3a	0.03165648
28	0x3d9d5cbd	0.07683704
29	0x3d6e3cdd	0.058163512
30	0x3d8fc917	0.07020777
31	0x3cce73d3	0.025201714
32	0xbd2787d3	-0.040901016
33	0x3dc48477	0.09595578
34	0xbd2526e0	-0.040320277
35	0xbd64f1ba	-0.05589459
36	0x3cdb63ad	0.026780928
37	0xbcc6f39a	-0.02428608
38	0xbd53c4f0	-0.051701486
39	0x3d05a027	0.032623436
40	0x3d9f8c1a	0.07790394
41	0xbdacf6e5	-0.08445529
42	0x3cfa1bd3	0.030530846
43	0xbda59d02	-0.080865875
44	0xbd71454d	-0.05890398
45	0x39886667	0.00026016237
46	0xbc4ac20d	-0.012375367
47	0xbd086be7	-0.03330603
48	0xbda0639b	-0.07831498
49	0x3da3783f	0.079819195
50	0xbcba45c7	-0.02273835
51	0x3dc383d8	0.095466316
52	0x3cbbcf47	0.022925986
53	0x3da29e1d	0.07940314
54	0xbbf04567	-0.007332492
55	0xbd837e40	-0.06420565
56	0xbd2db907	-0.042412784
57	0x3c828c07	0.01593591
58	0x3d7c58d7	0.06160816
59	0xbd39cd0a	-0.045361556
60	0x3c47e64d	0.012200904
61	0x3d4f1fda	0.050567485
62	0xbd469e5d	-0.04849087
63	0xbba0ca33	-0.0049069165
64	0x3d912917	0.070879154
65	0x3d8333e7	0.06406384
66	0xbb0ea100	-0.0021763444
67	0xbd3da3a3	-0.046298634
68	0xbd0b8f2a	-0.03407208
69	0xbd7c4747	-0.061591413
70	0xbc584a9a	-0.01320138
71	0xbdca8317	-0.09888285
72	0xbdbe29cb	-0.09285315
73	0xbc36218d	-0.011116398
74	0xbdacae58	-0.08431691
75	0xbdbe90cd	-0.09304962
76	0xbc47ff1a	-0.012206817
77	0x3c22c3cd	0.009934378
78	0x3dc71a13	0.0972177
79	0xbda68818	-0.081314266
80	0xbdccc47a	-0.099984124
81	0x3da954af	0.08268105
82	0x3cb3e6f3	0.021960711
83	0xbb91dfe7	-0.00445174
84	0x3d0b775d	0.03404938
85	0xbcf8e880	-0.030384302
86	0x3b963900	0.0045844316
87	0x3cf6b29a	0.03011446
88	0x3d98d915	0.0746328
89	0xbccdd0e7	-0.025124026
90	0x3d3207e7	0.043464568
91	0x3d7287b0	0.059211433
92	0xbdac5e0a	-0.08416374
93	0x3da75aed	0.081716396
94	0xbdcbe9ba	-0.09956689
95	0xbd04b520	-0.032399297
96	0x3cf3a860	0.029743373
97	0x3dbb4937	0.09144824
98	0x3da6c180	0.08142376
99	0xbd8c4b48	-0.06850296
100	0xbd917c18	-0.07103747
101	0xbd72932a	-0.059222378
102	0x3bd66e00	0.0065438747
103	0x3d732053	0.059357
104	0x3d8c1c5d	0.06841347
105	0xbc1e5627	-0.009664095
106	0x3d9d66df	0.07685637
107	0x3bcc944d	0.006243265
108	0x3dc83a58	0.09776753
109	0x3d8e1962	0.06938435
110	0xbdb26c80	-0.08712101
111	0x3d333a80	0.04375696
112	0xbd777d53	-0.060422253
113	0xbce5ff20	-0.028075755
114	0xbc5cb8a7	-0.013471759
115	0x3d9f9ef3	0.07793989
116	0xbd5423e7	-0.05179205
117	0x3c1540b3	0.009109664
118	0xbd88cd35	-0.06679765
119	0x3cd200d3	0.025635159
120	0xbd2c25e3	-0.04202832
121	0xbd5fd5c7	-0.054647233
122	0xbd5ba063	-0.053619754
123	0xbda21d73	-0.07915773
124	0xbca5451a	-0.020174552
125	0x3d082970	0.033242643
126	0x3d912288	0.070866644
127	0xbd0d730a	-0.034533538
128	0xbc510a80	-0.012758851
129	0xbce6e620	-0.028185904
130	0x3b549a67	0.0032440664
131	0x3d1b4f30	0.037917316
132	0x3d98efc2	0.07467605
133	0xbdc945d0	-0.09827769
134	0xbcf2901a	-0.029609729
135	0x3d6ca66d	0.057775903
136	0xbdc528dd	-0.09626935
137	0x3c67dee7	0.014152265
138	0x3cba8193	0.022766864
139	0x3c283927	0.010267532
140	0x3c59f71a	0.0133035425
141	0xbcea6540	-0.028612733
142	0x3d837920	0.06419587
143	0x3d7ae62d	0.06125467
144	0x3bc334cd	0.005957222
145	0xbceaf753	-0.028682387
146	0xbdc8ac55	-0.09798495
147	0xbd96f243	-0.073704265
148	0x3d232f6a	0.03984014
149	0xbd09733a	-0.033557154
150	0x3c1ae700	0.009454489
151	0xbd5fd1a7	-0.0546433
152	0xbd871c9a	-0.06597252
153	0x3dbc9a83	0.09209158
154	0x3d48b08a	0.048996486
155	0xbd89d85d	-0.06730721
156	0x3d52685a	0.05136905
157	0xbd1681f0	-0.03674501
158	0xbcca8e87	-0.024726165
159	0x3c91d2ed	0.017800773
160	0xbd8e3b5d	-0.069449164
161	0x3bdff9b3	0.0068351864
162	0xbc09d81a	-0.008413339
163	0x3c0d1a8d	0.008612287
164	0x3d8fa1c5	0.07013277
165	0xbc9e6df3	-0.019339537
166	0x3d7af5e3	0.061269652
167	0xb99be99a	-0.0002973795
168	0xbd898012	-0.067138806
169	0xbc70cc80	-0.014697194
170	0x3d36130a	0.04445175
171	0xbd256783	-0.04038192
172	0x3ca9d7f3	0.020732855
173	0x3c746280	0.014916062
174	0xbdba93e0	-0.09110236
175	0x3d2828f0	0.041054666
176	0xbd83ed5b	-0.06441756
177	0xbd2d83b0	-0.042361915
178	0xbd8634b8	-0.06553024
179	0x3c619bda	0.013770068
180	0xbdb58b30	-0.088644385
181	0xbc902db3	-0.017599916
182	0xbd4addf0	-0.049528062
183	0xbdb96068	-0.09051591
184	0xbd82bd52	-0.06383766
185	0xbcefa693	-0.029254233
186	0xbd8209a8	-0.06349498
187	0x3dad8775	0.08473102
188	0x3d8d5c2a	0.069023445
189	0xbccc7b4d	-0.024961138
190	0xbd32cf0a	-0.04365448
191	0xbc38af4d	-0.011272264
192	0x3dae6f3b	0.08517309
193	0x3da92e30	0.08260763
194	0x3dc8d00a	0.09805305
195	0xbce8d9d3	-0.02842418
196	0xbd84bcd8	-0.064813316
197	0x3d974888	0.07386881
198	0x3d1fa7ea	0.038978495
199	0xbcca8bc0	-0.024724841
200	0x3d820b08	0.0634976
201	0xbc9ef1c7	-0.019402398
202	0x3c61b4da	0.0137760285
203	0x3ce27bc0	0.0276469
204	0xbc839267	-0.016061021
205	0xbdc30b63	-0.09523656
206	0xbd746dd0	-0.059675038
207	0x3d42021a	0.047365285
208	0xbdc4db1a	-0.09612103
209	0xb9799333	-0.00023801326
210	0x3bd5e033	0.006526971
211	0xbdca7d5d	-0.098871924
212	0x3da399e2	0.07988335
213	0x3d44472d	0.04791944
214	0x3db8fb68	0.09032327
215	0xbdb0ac1f	-0.086265795
216	0xbd9cfca2	-0.076653734
217	0xbc2e29f3	-0.010630119
218	0x3c9c9a3a	0.01911651
219	0x3c550c27	0.013003386
220	0xbd06a68d	-0.03287368
221	0xbd8afa0b	-0.06785973
222	0x3c9ee9c7	0.019398583
223	0xbcb71b2d	-0.022351826
224	0xbd73398a	-0.059381045
225	0x3d1fb1aa	0.038987793
226	0x3d20d983	0.039269935
227	0x3d4c0a9d	0.04981481
228	0xbd90c5c0	-0.07068968
229	0xbca4c667	-0.020114137
230	0xbd5bbd1a	-0.05364714
231	0x3b6db500	0.0036271214
232	0x3c984f53	0.018592512
233	0xbd19af7d	-0.037520874
234	0x3d644a8d	0.05573516
235	0x3d8038e0	0.06260848
236	0xbdcbbe28	-0.09948379
237	0x3d5530a7	0.05204835
238	0xbc200b40	-0.009768307
239	0x3d5895b3	0.05287714
240	0x3c813bd3	0.015775597
241	0x3b192933	0.0023370504
242	0xbd8c9292	-0.068638936
243	0xbc728600	-0.014802456
244	0x3c90f673	0.017695641
245	0x3d8f6785	0.07002167
246	0x3aa15933	0.0012309909
247	0x3cdcfb4d	0.026975298
248	0x3c92de7a	0.01792835
249	0x3d222cb7	0.039593425
250	0xbd8f81b0	-0.07007158
251	0xbdb4a972	-0.08821382
252	0x3da765cd	0.08173714
253	0x3dc8845b	0.0979087
254	0x3c4fbb33	0.012678909
255	0xbc53a01a	-0.012916589

gru.bias_ih_l0 f4 [300]
0	0x3d9ab637	0.07554286
1	0x3d1d0257	0.03833231
2	0xbdae2b93	-0.08504405
3	0x3d5d4c57	0.05402788
4	0xbc9c6fd3	-0.01909629
5	0xbbaa2cb3	-0.005193317
6	0xbda20493	-0.07911029
7	0xbdb73df0	-0.089473605
8	0xbdbd5a6d	-0.09245763
9	0x3d9bfcf7	0.076166086
10	0x3dbaabdb	0.0911481
11	0x3ad53a00	0.0016267896
12	0x3d889050	0.066681504
13	0x3c34178d	0.010991943
14	0x39b24e67	0.0003400922
15	0x3d8557b5	0.065108694
16	0xbd4a8210	-0.049440444
17	0xbdc92af0	-0.09822643
18	0xbd85828d	-0.06519041
19	0x3c435c1a	0.011923814
20	0xbdaa48ea	-0.083146885
21	0xbbc85480	-0.006113589
22	0xbd469f23	-0.04849161
23	0xbd8959f8	-0.06706613
24	0x3d2d8b6a	0.042369284
25	0xbdb5e747	-0.08882003
26	0xbd8f0e07	-0.069850974
27	0x3dc5c7cf	0.09657251
28	0x3d61be33	0.05511303
29	0x3c9fda53	0.019513285
30	0xbc9fb81a	-0.019496966
31	0xba088d9a	-0.00052090886
32	0xbd6c2667	-0.05765381
33	0xbd761870	-0.0600819
34	0xbd7b9493	-0.06142099
35	0xbc26ea9a	-0.010187769
36	0x3d82c387	0.0638495
37	0xbd9a4e0d	-0.07534418
38	0x3c82e320	0.015977442
39	0xbda7564b	-0.08170756
40	0x3c9521c0	0.01820457
41	0xbd421ff3	-0.04739375
42	0x3d9e73e8	0.07736951
43	0x3af72b33	0.0018857479
44	0x3d96a6ff	0.07356071
45	0x3c3a0873	0.0113545535
46	0x3bf4649a	0.0074582817
47	0x3d8dee1a	0.0693018
48	0xbd2c302a	-0.04203812
49	0x3da4cdb7	0.080470495
50	0xbccd0a20	-0.025029242
51	0x3d6a4773	0.057197046
52	0xbb923880	-0.0044623017
53	0xbcb881f3	-0.022522902
54	0xbd66bcea	-0.056332506
55	0x3d977acf	0.07396471
56	0xbc035973	-0.008016932
57	0x3c511d5a	0.012763346
58	0x3d19b727	0.037528183
59	0xbdc105b8	-0.09424919
60	0x3d1660c0	0.03671336
61	0x3d7a69cd	0.061136056
62	0xbd9080a5	-0.07055787
63	0xbd0be30d	-0.03415208
64	0xbda0b8c8	-0.07847744
65	0xbc92d8da	-0.017925669
66	0xbd5f2add	-0.054484237
67	0xbc51eccd	-0.012812805
68	0x3db6b772	0.08921708
69	0xbd5af99d	-0.053460706
70	0x3dc249d7	0.0948674
71	0xbda9ebc8	-0.08296925
72	0x3cff189a	0.03113966
73	0x3c5ac3c0	0.0133523345
74	0xbd8517d0	-0.064986825
75	0x3d557660	0.052114844
76	0xbaca2933	-0.0015423655
77	0xbdc3f14a	-0.095675066
78	0xbd685b4a	-0.056727685
79	0xbcb093ed	-0.021554912
80	0x3ca5a09a	0.020218182
81	0x3d49f84a	0.049309053
82	0xbd6a8350	-0.057254136
83	0xbc17178d	-0.009221924
84	0xbcf7d193	-0.0302513
85	0x3dc64f28	0.096830666
86	0x3dc80c12	0.09767927
87	0xbc19c633	-0.009385633
88	0xbd048ba3	-0.03235973
89	0xbcdc6f8d	-0.02690866
90	0xbd87ec5b	-0.06636878
91	0x3da8da80	0.082448006
92	0xbdad1de0	-0.08452964
93	0xbcbd6c27	-0.02312286
94	0x3c7a1dc0	0.015265882
95	0x3d966c3b	0.07344862
96	0xbd8fd62b	-0.07023271
97	0xbd8263b7	-0.06366675
98	0xbd305e2a	-0.04305855
99	0xbd1aeeb7	-0.037825312
100	0xbdaaff4f	-0.083494775
101	0x3d4c1390	0.049823344
102	0x3d20bf20	0.03924477
103	0x3d4f5297	0.050615873
104	0x3c4f2e33	0.012645292
105	0xbd61ef37	-0.055159774
106	0x3d1ad24a	0.037798204
107	0x3db41015	0.0879213
108	0x3cee4fe7	0.029090835
109	0x3da587bb	0.08082529
110	0xbd91d63f	-0.07120942
111	0xbc6e6b40	-0.014551938
112	0xbd31afc0	-0.0433805
113	0x3d9b3558	0.07578534
114	0xbd0edf13	-0.03488071
115	0xbd813a78	-0.0630998
116	0xbdb37978	-0.08763403
117	0xbd21e3ca	-0.039523877
118	0xbcd50f0d	-0.026008153
119	0xbc8d5f8d	-0.017257476
120	0xbd30d3c3	-0.0431707
121	0xbc7092f3	-0.014683473
122	0xbd810523	-0.06299808
123	0xbd9b3dda	-0.075801566
124	0xbdb4c48b	-0.0882655
125	0x3d895e1b	0.06707402
126	0x3d33e7f3	0.043922376
127	0x3d8ae8cd	0.067826845
128	0x3d6fbdc7	0.058530595
129	0x3c01aa80	0.0079141855
130	0x3bcf5b9a	0.0063280584
131	0xbcc27a1a	-0.023739863
132	0xbb8df6cd	-0.0043323995
133	0x3c971eb3	0.018447256
134	0x3dc23327	0.09482413
135	0x3d509570	0.050923765
136	0x3baa44e7	0.005196202
137	0x3cc4a01a	0.024002124
138	0x3c4277a7	0.011869348
139	0xbb56fd00	-0.0032804608
140	0xbda4644f	-0.08026945
141	0x3caa0b33	0.020757293
142	0x3c638a33	0.01388793
143	0xbd992693	-0.074780606
144	0x3dc1d042	0.0946355
145	0x3d1d2bf0	0.03837198
146	0xbd84f6d0	-0.06492388
147	0x3daef790	0.085433125
148	0xbd383ced	-0.04497998
149	0xbbcd5a9a	-0.006266904
150	0xbdb6a282	-0.08917715
151	0xbd5ac793	-0.053412985
152	0x3bbc2c80	0.0057426095
153	0x3c81d700	0.01584959
154	0xbd474d13	-0.048657488
155	0x3d8580c0	0.06518698
156	0xbcb7daed	-0.02244326
157	0xbcd0b287	-0.025475753
158	0x3d4859dd	0.048913825
159	0xbbef874d	-0.0073098303
160	0x3d971a3b	0.0737805
161	0xbb7949cd	-0.0038038373
162	0xbcda5fba	-0.026656974
163	0xbd117463	-0.035511386
164	0xbdc554c0	-0.096353054
165	0x3da444d8	0.080209434
166	0x3dbf238b	0.09332951
167	0xbc0d2fda	-0.008617366
168	0xbd0c8f6d	-0.03431647
169	0x3d60db9a	0.05489693
170	0xbdcc4b98	-0.09975356
171	0xbd1d8737	-0.03845903
172	0x3a379e67	0.00070045
173	0xbd5a40a0	-0.053284287
174	0x3d288d40	0.04115033
175	0xbd5a0f6d	-0.053237367
176	0x3d3762f7	0.044772115
177	0xbbaaec4d	-0.0052161575
178	0xbcb07447	-0.02153982
179	0xbdc05120	-0.09390473
180	0x3d8391bb	0.0642428
181	0xbd3c12d3	-0.04591639
182	0xbd91db82	-0.07121946
183	0x3cad1bad	0.02113136
184	0x3ce3ade7	0.027792884
185	0xbdb31413	-0.08744063
186	0xbc7eae4d	-0.015544486
187	0xbd3eab97	-0.04655036
188	0x3c3bcd5a	0.011462534
189	0x3bd78567	0.006577182
190	0x3dbef997	0.09324949
191	0x3d8ba8c0	0.06819296
192	0x3ceb481a	0.028720904
193	0x3d2bbef3	0.04193015
194	0x3c170840	0.009218276
195	0xbd604133	-0.05474968
196	0xbd269687	-0.040670898
197	0xbd9405d3	-0.072276734
198	0xbcbfa387	-0.023393406
199	0x3cb939e7	0.022610618
200	0xbd8aa6e2	-0.067701116
201	0xbd5b94cd	-0.053608704
202	0xbb3ffe00	-0.0029295683
203	0x3d9b450f	0.07581531
204	0x3c83b253	0.016076243
205	0x3d425c50	0.047451317
206	0x3c955593	0.018229282
207	0xbc76e833	-0.015070009
208	0x3db2c7c3	0.08729508
209	0x3d3148d0	0.04328233
210	0x3d8ff138	0.07028431
211	0xbd9dcc2f	-0.077049606
212	0x3d4813c3	0.04884697
213	0x3ca8e120	0.02061516
214	0xbd14b57d	-0.036305893
215	0xbdc05200	-0.0939064
216	0x3dbb7c52	0.091545716
217	0xbc539667	-0.012914277
218	0xbd856657	-0.065136604
219	0x3daad00d	0.08340464
220	0xbda5a78d	-0.080885984
221	0xbd650f70	-0.055922925
222	0x3da03645	0.07822851
223	0x3dac71e0	0.084201574
224	0xbd9d28ca	-0.076737955
225	0x3d2ca107	0.042145755
226	0x3c9d3a0d	0.01919272
227	0x3ca23980	0.019802809
228	0x3d851f98	0.06500167
229	0xbd04a110	-0.032380164
230	0x3dc5cef0	0.09658611
231	0x3bb61db3	0.0055577396
232	0x3d93562f	0.071941726
233	0xbd3b393d	-0.045708884
234	0xbc9268d3	-0.01787225
235	0x3dba22e7	0.09088688
236	0x3c1036e7	0.008802152
237	0x3d913553	0.07090249
238	0xbcaa6efa	-0.02080487
239	0xbc7afd27	-0.015319145
240	0xbc694e67	-0.014239884
241	0xbc8d39cd	-0.017239476
242	0x3c5f9aa7	0.013647712
243	0x3db2abe0	0.08724189
244	0x3dc5509b	0.09634515
245	0xbdb56fb2	-0.08859195
246	0x3d22fa0d	0.03978925
247	0xbdadea6a	-0.084919766
248	0x3d99bab7	0.07506316
249	0x3daef54f	0.08542883
250	0xbd46a9e0	-0.04850185
251	0xbcebff47	-0.02880825
252	0x3b845500	0.004038453
253	0x3dc0747f	0.0939722
254	0xbdb45548	-0.088053286
255	0xbc951c5a	-0.018201996

gru.bias_hh_l0 f4 [300]
0	0xbd782720	-0.060584188
1	0xbd025660	-0.031820655
2	0xbd738a2a	-0.059457935
3	0x3db55e13	0.08855834
4	0xbcfca460	-0.030840099
5	0x3da10c28	0.07863647
6	0x3d22e44d	0.039768506
7	0xbd693b27	-0.056941178
8	0xbd2d55d3	-0.042318176
9	0x3d9c816f	0.07641875
10	0x3d2d5900	0.042321205
11	0x3d7ffdad	0.062497783
12	0x3d3e6cb3	0.046490382
13	0x3d84b1e3	0.06479242
14	0xbd1b8f57	-0.037978496
15	0x3d552e8a	0.052046336
16	0xbdb8535d	-0.09000275
17	0xbd4320f3	-0.047638845
18	0xbb91a000	-0.0044441223
19	0x3d4cacad	0.049969364
20	0xbdb3e845	-0.08784536
21	0xbd4d04da	-0.050053455
22	0xbcba6d27	-0.022757126
23	0xbd885c6f	-0.06658255
24	0xbc9e386d	-0.019314015
25	0x3dcab7a7	0.0989831
26	0x3d3a3cc3	0.045468103
27	0xbd16883a	-0.03675101
28	0x3d9206db	0.07130214
29	0xbcad06c7	-0.021121396
30	0xbd42a2ba	-0.04751847
31	0x3b149133	0.0022669553
32	0x3d7ca22a	0.06167809
33	0x3c975a53	0.018475687
34	0x3d8bb4e2	0.0682161
35	0x3dcc343f	0.09970903
36	0xbdcb7bd0	-0.09935725
37	0xbd0cc947	-0.03437164
38	0x3dabdb4f	0.08391439
39	0xbbeacc33	-0.0071654557
40	0x3db8041a	0.08985157
41	0xbbca9f00	-0.006183505
42	0x3c65c88d	0.014024866
43	0x3dacb170	0.08432281
44	0xbb20b09a	-0.0024519325
45	0xbce2e26d	-0.027695859
46	0x3c3a47f3	0.011369693
47	0xbdbb0ab5	-0.091329016
48	0x3c7a6acd	0.015284252
49	0xbc8432da	-0.01613753
50	0x3c80cc0d	0.015722299
51	0x3dc781af	0.09741532
52	0x3c85fb5a	0.016355205
53	0x3bce869a	0.006302667
54	0xbd465bd3	-0.048427414
55	0x3d940fcb	0.07229575
56	0x3d8c0b60	0.06838107
57	0xbda325aa	-0.07966168
58	0x3d8d6010	0.06903088
59	0xbd40af03	-0.047041904
60	0xbd91f5ab	-0.071269356
61	0x3d698180	0.057008266
62	0xbcc532cd	-0.024072075
63	0xbb505767	-0.0031790377
64	0xbcd2b487	-0.025720848
65	0xbd9851c8	-0.074374735
66	0xbd207ed7	-0.039183464
67	0x3dbdf9d7	0.09276169
68	0xbcc6d3b3	-0.024270868
69	0xbcda00f3	-0.02661178
70	0xbd82cb5d	-0.06386445
71	0x3d9532f5	0.0728511
72	0x3c634cda	0.013873303
73	0x3cf991c0	0.030465007
74	0xbd5ca5a3	-0.0538689
75	0xbc5394a7	-0.012913859
76	0x3c160f27	0.009158886
77	0x3b9b3833	0.004736924
78	0xbda7f798	-0.08201522
79	0x3d0b9477	0.034077134
80	0xbd66309d	-0.056198705
81	0x3c27fc5a	0.010253036
82	0x3d915647	0.07096534
83	0xbd30c983	-0.043160927
84	0xbdb4c44a	-0.08826502
85	0x3d750de7	0.05982771
86	0x3ce9feba	0.028563846
87	0x3d5e9557	0.05434164
88	0xbd369a77	-0.044580903
89	0xbd44613a	-0.047944285
90	0xbce10653	-0.027468836
91	0xbda4900a	-0.08035286
92	0xbcc81d67	-0.024428083
93	0xbd523d0d	-0.051327754
94	0x3d191880	0.03737688
95	0xbd95ca5a	-0.07313986
96	0xbd3da827	-0.04630294
97	0xbd1d1eea	-0.03835956
98	0x3d014e37	0.031568732
99	0x3c439b27	0.011938847
100	0xbc322dda	-0.01087519
101	0x3dbca8a2	0.09211852
102	0x3dbc91fb	0.09207531
103	0xbd9c7c57	-0.076409034
104	0xbd8174fd	-0.06321142
105	0xbd311c6a	-0.04323999
106	0xbd899777	-0.06718343
107	0x3cbff08d	0.023430133
108	0xbc60d467	-0.013722516
109	0x3d14f620	0.036367536
110	0x3d2eaf57	0.042647686
111	0xbd1c9a77	-0.038233247
112	0x3ca1743a	0.019708741
113	0x3c9a7393	0.018853938
114	0x3cd05760	0.025432289
115	0x3ca72320	0.020402491
116	0x3cd01c80	0.025404215
117	0x3d12995d	0.03579079
118	0x3d54c1d3	0.051942658
119	0x3d56f8f0	0.0524835
120	0x3dcc58f7	0.09977906
121	0xbd9577f7	-0.07298272
122	0xbd67c5da	-0.05658517
123	0x3cbcf4da	0.023065973
124	0xbdbdec2a	-0.0927356
125	0xbc014c33	-0.0078917025
126	0x3d0c94d0	0.034321606
127	0xbd324040	-0.043518305
128	0xbd839462	-0.06424786
129	0xbdc342dd	-0.095342375
130	0x3d8395f3	0.06425085
131	0x3dbfce22	0.093654886
132	0x3c2063a7	0.009789384
133	0xbd28323d	-0.041063536
134	0x3d337767	0.043815043
135	0x3c395a8d	0.011313093
136	0x3dc2d445	0.095131435
137	0xbbbc6fcd	-0.0057506324
138	0x3d649780	0.055808544
139	0x3db8ba62	0.09019925
140	0x3d8d0733	0.06886139
141	0xbd855c4a	-0.06511743
142	0x3daf2b2d	0.08553157
143	0x3c24c027	0.010055578
144	0xbd3ee9e7	-0.046609785
145	0xbd989d85	-0.074519195
146	0x3dc34ba3	0.09535911
147	0xbd3e69d3	-0.04648764
148	0xbd446d0a	-0.04795555
149	0xbd8fc2aa	-0.07019551
150	0x3d8e4b92	0.06948008
151	0xbd272ee0	-0.040816188
152	0x3db8b24f	0.09018385
153	0xbc95555a	-0.018229175
154	0xbd1a2283	-0.03763057
155	0x3ca697a7	0.020335985
156	0xbd263c67	-0.040584948
157	0x3dc74855	0.09730593
158	0x3a07f000	0.0005185604
159	0xbd9f8e3d	-0.07790802
160	0x3c0aff1a	0.0084836725
161	0xbd11da0a	-0.03560833
162	0x3ce477d3	0.027889168
163	0xbc576b9a	-0.013148213
164	0x3dc6acd5	0.09700934
165	0xbd7b68bd	-0.061379183
166	0xbb57d900	-0.0032935739
167	0xbcc6d933	-0.02427349
168	0x3c82f35a	0.01598518
169	0x3d2c15d3	0.042013
170	0x3dbaa738	0.09113926
171	0xbc7dd927	-0.015493668
172	0x3cc0425a	0.023469139
173	0xbd0de03d	-0.03463768
174	0xbcb81ba0	-0.02247411
175	0xbd03c5c7	-0.032171037
176	0x3da4e717	0.080518894
177	0xbcdb60e7	-0.026779605
178	0xbd6966c7	-0.05698278
179	0xbce2e193	-0.027695453
180	0x3dbf6572	0.09345521
181	0x3d544d00	0.051831245
182	0xbd1f2c00	-0.03886032
183	0xbc01da9a	-0.007925654
184	0x3bfb8e9a	0.0076769115
185	0xbd3abe3d	-0.04559158
186	0x3c4cf9cd	0.012510729
187	0xbd56e0ad	-0.05246036
188	0xbd9a1738	-0.0752396
189	0xbca6eeda	-0.020377565
190	0x3dad37b8	0.08457893
191	0xbd6ac85d	-0.057319988
192	0xbcc1c807	-0.02365495
193	0x3da4f6d7	0.080548935
194	0x3dc02408	0.093818724
195	0x3d3affdd	0.045654166
196	0x3cc3e9da	0.02391522
197	0xbc7f78e7	-0.01559279
198	0x3d643ac3	0.055720102
199	0xbc365c67	-0.011130429
200	0xbd4c658a	-0.049901523
201	0xbd50fed3	-0.05102427
202	0x3ce15bb3	0.027509546
203	0xbcf77f9a	-0.030212212
204	0x3cf3a3f3	0.029741263
205	0x3d312940	0.04325223
206	0xbd847a95	-0.06468693
207	0x3db7d0b0	0.08975351
208	0x3d2db017	0.04240426
209	0xbdc15fba	-0.094420865
210	0xbc5a0f5a	-0.013309324
211	0xbd0a8517	-0.03381833
212	0xbd9c588a	-0.07634075
213	0x3d4281e7	0.047487166
214	0x3d89882d	0.067154266
215	0x3d6f74d0	0.05846101
216	0xbd50c54d	-0.05096941
217	0x3cc12a27	0.02357967
218	0x3db0261d	0.086010195
219	0x3c1a57a7	0.009420312
220	0xbda56d3b	-0.08077475
221	0xbdccacbf	-0.09993886
222	0xbcd26f47	-0.025687827
223	0x3cf0dc7a	0.029402006
224	0x3d9db7aa	0.07701047
225	0x3d28315d	0.0410627
226	0x3d931467	0.07181626
227	0xbcc5e940	-0.024159074
228	0x3d9e3270	0.07724464
229	0xbda49088	-0.0803538
230	0xbc128ea7	-0.008945144
231	0x3d980913	0.07423606
232	0xbcc0ddf3	-0.023543334
233	0xbd982705	-0.074293174
234	0xbd5f219d	-0.054475415
235	0xbd3bc92a	-0.045846142
236	0xbd9fee60	-0.07809138
237	0x3db4490f	0.08802997
238	0xbd8161ca	-0.0631748
239	0xbda13413	-0.078712605
240	0x3dc32127	0.09527808
241	0xbdc343d3	-0.09534421
242	0xbb341e9a	-0.002748406
243	0x3bfb964d	0.0076778294
244	0x3d94e280	0.07269764
245	0x3b10aa67	0.0022074224
246	0xbda1b72f	-0.078962676
247	0x3d390be3	0.04517735
248	0xbd17657d	-0.03696202
249	0x3db0a2b7	0.086247854
250	0x3d395f87	0.045257118
251	0xbad48b9a	-0.0016215921
252	0xbd5e1ec0	-0.054228544
253	0x3d43a55d	0.047765125
254	0x3daa4a22	0.08314921
255	0xbceadc9a	-0.028669644

gru.weight_ih_l1 f4 [300, 100]
0	0x3dc78b88	0.0974341
1	0x3d9b17d7	0.075729065
2	0x3a165d9a	0.00057359936
3	0xbda3d39a	-0.07999344
4	0x3dcc24d5	0.09967963
5	0xbd7d3add	-0.061823715
6	0x3d25d330	0.040484607
7	0x3db4cd4a	0.08828218
8	0x3d4dc09a	0.050232507
9	0xbda9a530	-0.0828346
10	0xbc04fe4d	-0.008117271
11	0xbd00b1d7	-0.0314196
12	0x3db21960	0.08696246
13	0xbc1ceda7	-0.009578145
14	0xbcf3eec0	-0.02977693
15	0x3d6cead7	0.05784115
16	0xbd659aad	-0.056055713
17	0xbd2809cd	-0.04102497
18	0x3d15adf7	0.03654286
19	0x3ba70580	0.005097091
20	0x3ce08e0d	0.027411485
21	0xbdbaf457	-0.091286354
22	0xb9beb667	-0.00036375524
23	0x3d7dd56d	0.061971117
24	0x3d6ae85d	0.057350505
25	0xbda01c05	-0.07817844
26	0xbd8d809a	-0.069092944
27	0xbd9f049b	-0.0776455
28	0xbdb96ead	-0.09054313
29	0x3c559440	0.013035834
30	0x3cd04da0	0.02542764
31	0x3dba87ab	0.09107908
32	0xbbd24f33	-0.0064181327
33	0xbcbbb16d	-0.022911752
34	0xbc448d5a	-0.011996591
35	0x3dbfbd15	0.093622364
36	0xbd421cc7	-0.047390725
37	0x3d8badb7	0.06820243
38	0xbdcc71e2	-0.09982659
39	0xbce1ab80	-0.027547598
40	0xbc5a4c1a	-0.013323808
41	0x3dcb20cf	0.09918367
42	0xbd396f77	-0.045272317
43	0x3d9cf41b	0.07663747
44	0xbdbecee3	-0.09316804
45	0xbd346b4a	-0.04404763
46	0xbda4de7b	-0.08050247
47	0x3cd91c7a	0.026502836
48	0xbd179e63	-0.037016284
49	0x3b9ca51a	0.004780424
50	0x3d16da6a	0.03682939
51	0xbaf5c59a	-0.0018750906
52	0xbd45168a	-0.048117198
53	0xbdab8f12	-0.08376898
54	0x3d79eb5a	0.061015464
55	0x3c998447	0.018739833
56	0xbd666030	-0.056244075
57	0x3ccc1a80	0.02491498
58	0x3d6fba07	0.05852702
59	0x3d9ca992	0.076495305
60	0x3cf54b33	0.029943084
61	0xbb60589a	-0.0034232498
62	0x3d095700	0.033530235
63	0x3dc07cc3	0.093987964
64	0x3d6030e3	0.054734122
65	0x3d24c14d	0.04022341
66	0xbd879b52	-0.06621422
67	0x3c433340	0.011914074
68	0xbd8619d0	-0.06547892
69	0xbdab001f	-0.083496325
70	0xbd61700a	-0.05503849
71	0xbcad80fa	-0.021179665
72	0xbd7cbb40	-0.061702013
73	0xb9ee199a	-0.00045413972
74	0xbd14bee7	-0.03631487
75	0x3dc4bd75	0.096064486
76	0xbd07a403	-0.0331154
77	0x3d08143d	0.033222426
78	0x3db5c3b2	0.088752165
79	0xbdca8522	-0.09888674
80	0xbbfe7480	-0.0077653527
81	0x3b9fe6cd	0.0048798085
82	0x3a101b33	0.0005497217
83	0x3d9cb642	0.076519504
84	0xbcc08b20	-0.02350384
85	0xbd6c96b0	-0.057760894
86	0x3939d000	0.00017720461
87	0xbd96e6e8	-0.073682606
88	0x3d8c5897	0.06852835
89	0xbd601557	-0.05470785
90	0xbdbac85f	-0.09120249
91	0x3d7660f7	0.060151067
92	0x3cd22bd3	0.025655663
93	0x3d2fc710	0.04291445
94	0xbd71619d	-0.058930982
95	0x3dc72c48	0.09725243
96	0xbdbd7062	-0.09249951
97	0xbd18cb7d	-0.037303437
98	0xbce4c98d	-0.027928138
99	0x3dbfbc17	0.09362047
100	0xbd818aef	-0.063253276
101	0x3daf6bf0	0.08565509
102	0xbdaadc10	-0.08342755
103	0xbc76e0a7	-0.01506821
104	0xbd730347	-0.059329297
105	0xbd321600	-0.043478012
106	0xbc148067	-0.009063817
107	0x3ce72233	0.02821455
108	0xbcd5811a	-0.026062537
109	0xbd4dffed	-0.050292898
110	0x3db2deb2	0.08733882
111	0xbdbec377	-0.09314626
112	0x3d7fe60d	0.062475253
113	0x3b20fc9a	0.0024564625
114	0xbdb680d7	-0.08911293
115	0xbd89680d	-0.06709299
116	0xbd8a9d45	-0.06768278
117	0x3d842c72	0.0645379
118	0x3c00289a	0.00782218
119	0x3dc5ff4b	0.09667834
120	0x3d979085	0.07400612
121	0x3db9e40a	0.09076698
122	0xbdcb62ff	-0.099309914
123	0x3d8671e2	0.0656469
124	0x3d7e84ca	0.062138356
125	0xbceaf860	-0.028682888
126	0x3dc74387	0.09729677
127	0x3ca37f5a	0.019958187
128	0x3d1f215a	0.038850166
129	0x3bb8019a	0.0056154253
130	0x3d1741dd	0.036928046
131	0x3dc9f545	0.098612346
132	0x3d6e2740	0.0581429
133	0x3c90f6b3	0.01769576
134	0x3da19f0f	0.07891666
135	0xbd48754a	-0.04893998
136	0xbdcb01af	-0.099124305
137	0xbdb31105	-0.087434806
138	0x3d064e67	0.032789614
139	0xbc7374f3	-0.014859426
140	0x3d671473	0.056415986
141	0x3dc7df7d	0.09759424
142	0xbbfdabcd	-0.0077414275
143	0x3d30d2a3	0.04316963
144	0x3dc3e1db	0.09564563
145	0x3da3ed8f	0.08004295
146	0xbd416aa7	-0.047220852
147	0xbcaa6793	-0.020801341
148	0x3dc9fce2	0.09862687
149	0xbcee0c1a	-0.029058505
150	0xbbf5facd	-0.0075067044
151	0x3d3508d3	0.04419787
152	0x3d83c8d5	0.0643479
153	0xbd1b3c1d	-0.037899125
154	0x3dca7f85	0.09887604
155	0x3cdb4b27	0.026769234
156	0xbcc8f72d	-0.024531925
157	0x3d61a5f7	0.055089917
158	0x3dc35748	0.09538132
159	0xbdade11b	-0.08490201
160	0x3cfd4ded	0.030920947
161	0x3ce7e51a	0.028307486
162	0x3db0d335	0.086340345
163	0x3d44066a	0.04785768
164	0x3d6af92a	0.057366528
165	0xbd00ebe7	-0.031474974
166	0xbdb3c8ea	-0.08778556
167	0x3d797c4a	0.060909547
168	0xbdbca913	-0.09211936
169	0xbcb9b2ba	-0.022668231
170	0x3daabd17	0.08336847
171	0x3c5982da	0.013275826
172	0xba859d33	-0.0010193944
173	0xbd9b08e0	-0.07570052
174	0x3c2c2d67	0.010508872
175	0x3d410327	0.047122147
176	0x3b791fcd	0.003801334
177	0xbbe5079a	-0.0069894316
178	0x3d43bb10	0.04778582
179	0x3d9142fa	0.07092853
180	0x3bff4700	0.0077904463
181	0x3dabeaa7	0.08394366
182	0xbd7ff1ea	-0.062486567
183	0x3ba8119a	0.0051290514
184	0x3da493d8	0.080360115
185	0x3c70d51a	0.014699245
186	0x3dac85d3	0.084239624
187	0xbd846763	-0.06465032
188	0x3c570640	0.013124049
189	0xbdaa3cca	-0.08312376
190	0x3dbbcd07	0.09169965
191	0x3d2b9680	0.041891575
192	0x3dc279ef	0.09495913
193	0xbce4fa40	-0.02795136
194	0xbd992ce0	-0.07479262
195	0x3d530a8d	0.051523734
196	0x3c96a533	0.01838932
197	0x3bb81e33	0.0056188344
198	0xbd16b82a	-0.036796726
199	0x3dcb4cf2	0.099267855
200	0x3d59097d	0.052987564
201	0xbdc41368	-0.09574014
202	0x3d357efa	0.044310547
203	0xbda1efa3	-0.07907035
204	0xbdaf4a95	-0.08559147
205	0xbcbf19da	-0.023327757
206	0x3d840568	0.06446344
207	0x3d904b17	0.07045572
208	0x3c2065f3	0.009789932
209	0xbcaaec67	-0.020864679
210	0xbcfd5f67	-0.03092928
211	0xbca22773	-0.019794201
212	0xbcdbdeda	-0.026839662
213	0xbd374a1a	-0.044748403
214	0x3c22b540	0.009930909
215	0xbd9189e7	-0.07106381
216	0xbcc56be7	-0.024099303
217	0xbdcc6965	-0.0998104
218	0xbd9bbe85	-0.07604698
219	0x3cf5c5ad	0.030001486
220	0xbcfc3c7a	-0.030790556
221	0x3da587c3	0.08082535
222	0x3cb2e46d	0.021837438
223	0x3cb5d267	0.022195054
224	0xbcca33c7	-0.024682892
225	0x3d2977b0	0.04137391
226	0xbcc6b41a	-0.024255801
227	0xbd981237	-0.07425349
228	0x3dba051b	0.09083005
229	0x3d1c11c3	0.038102876
230	0xbd421ada	-0.04738889
231	0x3c02cd33	0.007983494
232	0x3db30585	0.08741287
233	0x3da6318f	0.08114921
234	0xbc21588d	-0.009847772
235	0x3d5e3d00	0.054257393
236	0x3cd002a7	0.02539189
237	0x3dc8d50b	0.0980626
238	0xbd13b98a	-0.036065616
239	0xbd2871aa	-0.041124023
240	0xbdbfac6d	-0.093590595
241	0xbadc3533	-0.0016800523
242	0xbd488ae7	-0.048960593
243	0x3db41e57	0.08794849
244	0xbd77b2ed	-0.06047337
245	0x3d2b0457	0.041752186
246	0x3d0c4bfa	0.034252144
247	0x3c3f3c8d	0.011672151
248	0x3b7a2467	0.003816867
249	0x3c0f9800	0.008764267
250	0x3d8cb1c2	0.06869842
251	0xbc726867	-0.014795399
252	0xbbc5214d	-0.0060159327
253	0x3dc045d2	0.09388317
254	0xbd2ac983	-0.041696083
255	0x3c6a7b80	0.014311671

gru.weight_hh_l1 f4 [300, 100]
0	0xbc9b959a	-0.018992234
1	0xbc8e9fba	-0.017410148
2	0x3d595173	0.05305619
3	0xbc8aa340	-0.016923547
4	0x3da46878	0.08027738
5	0x3ca6113a	0.020271886
6	0x3d2e4fed	0.042556692
7	0xbcfd521a	-0.030922938
8	0x3d90a772	0.07063188
9	0x3db85e4a	0.09002359
10	0x3cdb0953	0.026737845
11	0xbd603493	-0.05473764
12	0xbd9001d2	-0.07031597
13	0xbd9e06cf	-0.077161424
14	0x3cc151ba	0.02359854
15	0x3c69054d	0.014222455
16	0x3ce41413	0.027841603
17	0xbd88f223	-0.06686809
18	0xbd8021f2	-0.062564746
19	0x3d54af9d	0.05192529
20	0xbd909593	-0.07059779
21	0x3a60b8cd	0.00085724593
22	0x3d424b00	0.047434807
23	0x3dc371aa	0.09543164
24	0x3bfea21a	0.007770789
25	0xbd852acd	-0.06502304
26	0xbdbd62e3	-0.09247377
27	0xbc2a2880	-0.0103856325
28	0x3db315fd	0.08744428
29	0xbd419b63	-0.04726733
30	0x3cfe700d	0.03105929
31	0xbd8f7717	-0.070051365
32	0x3db36025	0.087585725
33	0xbda7bc07	-0.0819016
34	0x3d27325d	0.040819515
35	0x3b4cd767	0.003125632
36	0x3c26f78d	0.010190857
37	0xbda5b91a	-0.08091946
38	0x3d527913	0.051384997
39	0x3d180ac0	0.037119627
40	0x3da834ba	0.08213182
41	0x3ba4d700	0.005030513
42	0xbdad187a	-0.08451934
43	0xbc3d6e27	-0.011561907
44	0x3c71a127	0.014747894
45	0xbcce00c0	-0.025146842
46	0x3d226a43	0.03965212
47	0xbd7eb180	-0.062180996
48	0x3d477e8a	0.04870466
49	0x3d21694d	0.039407063
50	0xbdc598d3	-0.096482895
51	0x3d6b7d10	0.057492316
52	0x3d744f2d	0.05964582
53	0xbd979eb5	-0.07403318
54	0x3dbe5608	0.09293753
55	0x3d1d266d	0.038366724
56	0xbc5aa6e7	-0.013345457
57	0xbade78cd	-0.0016973257
58	0xbdac0290	-0.08398926
59	0x3c86d960	0.016461074
60	0xbd31a057	-0.043365803
61	0x3d6b4ac0	0.057444334
62	0x3d6b744a	0.05748395
63	0x3d483d57	0.048886623
64	0xbcc3bd5a	-0.023894
65	0xbdb3d812	-0.087814465
66	0xbdc6b08b	-0.09701642
67	0x3d1189ed	0.035531927
68	0x3d26d7f7	0.040733304
69	0x3ca1cb00	0.019750118
70	0x3c943040	0.018089414
71	0xbc92f9fa	-0.017941464
72	0x3dc7916d	0.09744535
73	0x3db8dbba	0.090262845
74	0xbc98dfa0	-0.01866132
75	0x3cbadd4d	0.022810603
76	0x3dca1c77	0.098687105
77	0xbdc7c6fd	-0.09754751
78	0x3d927f88	0.07153231
79	0xbc2bbce7	-0.01048205
80	0xbab28467	-0.0013619781
81	0x3d60a24d	0.054842282
82	0x3d62873a	0.055304743
83	0xbd519bb7	-0.051173892
84	0xbc33515a	-0.010944689
85	0x3d7f46fa	0.062323548
86	0xbb2aab9a	-0.0026042224
87	0x3d9e1863	0.07719495
88	0x3d9000dd	0.07031415
89	0xba0d7d9a	-0.0005397439
90	0xbcdc36a7	-0.026881529
91	0x3d4771b0	0.048692405
92	0x3da53ded	0.08068452
93	0x3c35db27	0.011099613
94	0xbdc04f85	-0.09390167
95	0x3d5f8e4a	0.054579057
96	0xbc3f4b27	-0.011675633
97	0x3d142807	0.036170986
98	0x3d2003b0	0.039066017
99	0xbd5935e0	-0.053029895
100	0x3dbd5023	0.092438005
101	0xbd96d45b	-0.07364722
102	0x3dab7aca	0.083730295
103	0xbbfb631a	-0.007671726
104	0xbdc88bd2	-0.097922936
105	0xbc211c33	-0.009833383
106	0x3d79a37a	0.06094692
107	0x3d9674e7	0.07346516
108	0xbd90e63d	-0.070751645
109	0xbdc9b120	-0.09848237
110	0xbda7876a	-0.08180125
111	0x3cccd400	0.025003433
112	0x3d87667f	0.066113465
113	0xbd1728a0	-0.036903977
114	0xbd47eb4a	-0.048808374
115	0x3c7be827	0.015375174
116	0xbd85092f	-0.06495892
117	0xbc61eb0d	-0.013788951
118	0xbd7df687	-0.062002685
119	0x3d2fd0ca	0.042923726
120	0xbd453b30	-0.04815215
121	0x3cbce5cd	0.023058796
122	0xbd92aaf3	-0.07161512
123	0x3ce37260	0.0277645
124	0xbbf8aae7	-0.0075887325
125	0x3d56649a	0.052342035
126	0xbc3be627	-0.011468447
127	0x3d56c3f7	0.05243298
128	0xbd9ac79d	-0.075576045
129	0xbd9cbb78	-0.07652944
130	0xbd6aa077	-0.057281937
131	0xbd3522b7	-0.04422256
132	0x3d6fe913	0.058571886
133	0xbae89a00	-0.0017746091
134	0x3dc53c5f	0.096306555
135	0xba3ec733	-0.0007277608
136	0x3ca03027	0.01955421
137	0x3c38a49a	0.011269713
138	0x3d8a2122	0.06744601
139	0xbdbc5e20	-0.091976404
140	0xbcfd841a	-0.03094678
141	0xbc75b0b3	-0.014995742
142	0x3d2bfd3a	0.041989543
143	0x3cc65b60	0.024213493
144	0xbcfa4e27	-0.030554844
145	0xbd49d47d	-0.04927491
146	0xbd2642da	-0.0405911
147	0xbd1bdb2d	-0.03805082
148	0xbd346a23	-0.044046532
149	0x3b349c9a	0.0027559162
150	0x3d582fc0	0.052779913
151	0xbcfc2887	-0.030781044
152	0xbc7918e7	-0.015203691
153	0x3d5a11fd	0.05323981
154	0xbcd45cb3	-0.025923109
155	0x3c6db38d	0.01450814
156	0x3d85062f	0.0649532
157	0x3d36818d	0.044557143
158	0xbccae220	-0.024766028
159	0x3d8ab1a0	0.067721605
160	0x3c82a587	0.01594807
161	0xbcc2a633	-0.02376089
162	0x3d70191a	0.05861769
163	0x3c77f573	0.015134203
164	0x3cd187ad	0.02557739
165	0x3dbbe003	0.09173586
166	0x3d32ec27	0.043682244
167	0x3dbf412b	0.09338602
168	0x3cc2ecf3	0.023794627
169	0xbc5cede7	-0.013484455
170	0x3db2c76a	0.087294415
171	0xbd5e9bea	-0.05434791
172	0x3cdcbe13	0.026946103
173	0x3d94a925	0.07258824
174	0xbd6610f7	-0.056168523
175	0x3d4d36c7	0.050101068
176	0xbd7973a3	-0.060901295
177	0xbcf27960	-0.029598892
178	0x3cc5ca60	0.024144351
179	0x3d8d6177	0.069033556
180	0x3d3a5fcd	0.04550152
181	0x3d49ea83	0.049295913
182	0xbcc33780	-0.023830175
183	0x3d851167	0.0649746
184	0x3bfc1100	0.0076924562
185	0x3d92a4cd	0.071603395
186	0xbd8d649b	-0.069039546
187	0x3a48e19a	0.0007663012
188	0xbb929080	-0.004472792
189	0xbc71910d	-0.014744055
190	0xbc8ad4e0	-0.01694721
191	0x3d897d4f	0.06713354
192	0x3d4ee6ca	0.050513066
193	0x3cd42d3a	0.025900472
194	0xbdb5e0f5	-0.08880798
195	0x3d8fac50	0.07015288
196	0x3d9e2883	0.07722571
197	0xbd21cc40	-0.03950143
198	0xbb80d1b3	-0.003931248
199	0xbdb975a3	-0.090556405
200	0xbd70f5a7	-0.058828022
201	0x3d1c70e3	0.038193595
202	0x3da9c80b	0.08290108
203	0xbd211d6d	-0.039334703
204	0x3d5b275d	0.053504337
205	0x3d5b1fe3	0.053497206
206	0x3db61ad3	0.08891835
207	0xb90dc99a	-0.0001352191
208	0x3d746a00	0.059671402
209	0xbc463d67	-0.0120996
210	0x3cb36087	0.021896614
211	0x3d631313	0.055438112
212	0xbd55df87	-0.052215125
213	0x3da9b43d	0.08286331
214	0xbd94bfe7	-0.07263165
215	0xbd49ef9d	-0.04930078
216	0xbccb7920	-0.02483803
217	0x3ca1919a	0.019722749
218	0x3d6674b3	0.056263637
219	0xbd6b66ca	-0.057471074
220	0xbc543a80	-0.012953401
221	0xbca5bde0	-0.020232141
222	0xbd48a95a	-0.04898963
223	0xbd096ad3	-0.03354914
224	0x3c03d40d	0.008046162
225	0xbd68c6ed	-0.056830335
226	0x3d452a17	0.048135843
227	0xbd2b8d43	-0.041882765
228	0xbcc3791a	-0.023861457
229	0x3d3d22a3	0.04617561
230	0xbd883d08	-0.06652266
231	0x3b186333	0.0023252487
232	0x3dc4f210	0.09616482
233	0xbdae98d3	-0.08525243
234	0x3dc03ea2	0.09386946
235	0xbd9e0cbd	-0.077172734
236	0xbdaad450	-0.08341277
237	0xbd2a9fb7	-0.041656222
238	0x3d9d915b	0.0769374
239	0xbc60c40d	-0.013718617
240	0xbccb994d	-0.024853373
241	0xbcb1ba33	-0.021695232
242	0x3dbf128d	0.0932971
243	0x3db8c737	0.09022372
244	0x3dbebb6a	0.0931309
245	0xbb10e033	-0.002210629
246	0x3d7714b7	0.06032249
247	0x3da5efc5	0.08102373
248	0xbd092923	-0.033486497
249	0xbd9eb338	-0.07749027
250	0xbd3d4dad	-0.046216656
251	0xbcfeb6e0	-0.031093061
252	0x3b6fb267	0.0036574842
253	0x3cb965e7	0.022631599
254	0xbd4a503d	-0.049392927
255	0x3d7ab08d	0.06120353
