models/rusnet_3_layers_100_hidden_100kEpochs.ckpt (torch, 864031 bytes, 15 tensors)

encoder.weight f4 [167, 100]
000000 cb 00 41 3c 4b 94 ee 3e c5 f1 5f be 0e ab 8f 3f
       0.011779974 0.46597514 -0.21869572 1.1224077
000010 90 c7 90 3f 39 47 b6 bf dc 76 32 bf 8f 31 98 3f
       1.1310902 -1.4240485 -0.69712615 1.1890124
000020 7a 72 04 3f 69 9b 83 3f 45 0c 0f 3f 7b d2 24 c0
       0.5173718 1.0281802 0.55878097 -2.5753467
000030 5c 1d 3a bf 99 e2 95 3f 61 80 7c 3f 49 cc 55 3f
       -0.7270105 1.1709777 0.9863339 0.8351484
000040 6d c7 af bf 27 cd 70 bf dc 33 7b bf ff 68 42 bf
       -1.3732735 -0.9406304 -0.98126006 -0.7594146
000050 0d d8 7a bf af bb 01 3f 05 97 47 bf b5 4d 51 3f
       -0.9798592 0.5067701 -0.7796481 0.81759197
000060 49 74 57 3f a0 a6 67 bf db ef 6c 3e 01 5d 70 3f
       0.8416181 -0.90488625 0.23138373 0.9389191
000070 15 dc 01 40 ef bf ad 3f 48 79 53 3f 78 d2 f3 be
       2.0290577 1.3574198 0.82606936 -0.47621512
000080 41 78 9c be 98 9c 5e 3f f8 98 19 40 31 2a 47 bd
       -0.30560496 0.86957693 2.3999615 -0.04862422
000090 e8 bd b8 3f 0c 6f e2 bd f5 d5 5b 3f 43 75 60 bf
       1.4432955 -0.11056337 0.8587335 -0.8767893
0000a0 76 98 82 3f b0 d8 9f 3f e6 96 f5 be 9f 56 9b bf
       1.0202777 1.2488003 -0.4796669 -1.213581
0000b0 f5 d0 96 be b7 57 80 bf eb 11 90 3f f0 b1 df 3f
       -0.29456297 -1.0026768 1.1255468 1.7476177
0000c0 69 aa 5c 3e 08 23 24 bf 0b 86 f4 3f 28 37 80 bf
       0.21549381 -0.64115953 1.9103407 -1.0016832
0000d0 96 a7 86 3f ea a8 01 bf 37 7d 49 3f 49 2a 86 be
       1.0519893 -0.5064837 0.7870669 -0.26204136
0000e0 9c 73 49 3f d5 12 dd bd 17 d0 c2 bf 8b 99 83 3f
       0.7869203 -0.107946075 -1.5219754 1.0281233
0000f0 56 80 42 3e 0f f2 59 bf 88 ea be 3e 87 b0 ba 3f
       0.18994269 -0.8513498 0.37288308 1.4585122
000100 54 e3 2c 40 8a 0d a2 3f cf 6b 01 bd e0 6a ac 3f
       2.701375 1.2660382 -0.031596955 1.3470116
000110 7b a6 54 bf 08 eb 82 3e 52 da df 3e bf be 98 be
       -0.8306653 0.2556994 0.43721253 -0.29833028
000120 03 4b 3a bf e3 20 da bf 9c 4f 08 40 df c7 23 40
       -0.7277071 -1.7041286 2.129859 2.5590742
000130 89 72 dd bf aa e7 3f bf 27 7a 05 40 01 37 d2 3f
       -1.7300578 -0.74962866 2.0855806 1.6423036
000140 9d 52 0d 3f b2 29 8b bf d3 cf 81 3f 71 26 b1 3f
       0.5520418 -1.0872099 1.0141548 1.3839856
000150 4b e2 77 be 68 17 93 3f 0a 72 93 3c ac d4 e4 be
       -0.24207418 1.1491518 0.017998714 -0.44693506
000160 1e 40 6e 3d 20 00 c8 3f 00 e5 01 bd f4 59 1f 3f
       0.058166616 1.5625038 -0.031712532 0.6224663
000170 11 52 8b bf ec 88 28 40 94 66 00 bc c3 3e 71 bf
       -1.088442 2.633357 -0.0078369565 -0.9423639
000180 32 ce ca bf 51 7b a8 3f e0 ae 87 bf d6 78 80 bf
       -1.5844176 1.3162633 -1.0600243 -1.0036876
000190 50 57 73 3f 67 2d f0 3f 64 42 d3 be 9c 92 57 3c
       0.95055103 1.8763856 -0.4126159 0.013157513
0001a0 5d ce 66 bf f4 29 09 40 a8 ea 0b 3f fc f8 c8 be
       -0.90158635 2.1431856 0.5465493 -0.3925246
0001b0 ab 34 41 3f f8 33 d8 3d 4d 7a 83 3e 16 52 62 3f
       0.7547099 0.10556787 0.25679246 0.88406503
0001c0 30 6b 65 3f c0 ed 48 3f 21 0b 83 bf e1 19 06 3f
       0.8961668 0.7848778 -1.0237771 0.5238324
0001d0 6b aa a0 3c a8 ca 27 3f 48 6b 0c be 40 d5 61 be
       0.019612512 0.65543604 -0.137128 -0.22054005
0001e0 4b 36 03 40 0c 64 72 be 30 2b 06 3f 84 f7 dc bf
       2.0501888 -0.23670977 0.5240965 -1.7263036
0001f0 e3 75 d2 3f 77 5e 84 bf 56 69 35 3f c1 94 a6 3e
       1.6442226 -1.0341328 0.70863855 0.32535365
000200 7b de e9 3e 3d b1 4a bf 07 37 2f 3f a1 8f ef bf
       0.45677552 -0.79176694 0.6844334 -1.8715707
000210 a8 ca 40 3e 81 4e 1e 3e 97 33 ed be 30 e6 1a 3f
       0.18827307 0.15459634 -0.46328422 0.6050749
000220 59 f8 e3 3e 37 0f e7 3f ed 15 e7 be 0d 0c a3 3f
       0.44525412 1.8051518 -0.45133916 1.2738053
000230 46 b4 37 c0 46 e0 6a 3e 11 f3 b4 bf ff 1e 70 bf
       -2.870378 0.22937116 -1.4136678 -0.93797296
000240 82 4f 0e bf 3d 90 73 3f 4a 11 19 bd d6 e3 d7 bf
       -0.5559007 0.95141965 -0.037370004 -1.6866405
000250 09 d5 d1 be 5f 66 2e 40 fe f4 c6 bf 31 8a 9d bf
       -0.40982845 2.7249982 -1.5543516 -1.2307798
000260 68 27 88 bf 99 7f bd be a1 57 88 3f c5 0c 81 3f
       -1.0637026 -0.37011412 1.0651742 1.0082022
000270 d9 8a d5 bc 0c b4 bd 3f c0 83 a6 bf fb 55 a3 3f
       -0.026067184 1.4820571 -1.3008957 1.2760614
000280 58 fb bd be eb f8 44 3d 1e 23 88 bf af 01 33 3f
       -0.37105823 0.04808895 -1.0635717 0.69924444
000290 86 cd b3 3e f7 90 7d bf dc 55 d9 3e c9 46 bf 3e
       0.3511774 -0.99049324 0.42448318 0.37358692
0002a0 fa 22 b1 be b5 23 58 3f d6 4b 37 bf 8d 50 74 bf
       -0.34596997 0.84429485 -0.7160009 -0.9543541
0002b0 d2 31 67 be b8 18 7b bf 1e 74 2c bf 6e a5 31 bf
       -0.22577599 -0.9808459 -0.6736468 -0.6939305
0002c0 03 00 df bd a1 50 24 3f ab e5 6c bf ef e9 eb be
       -0.10888674 0.6418553 -0.92537946 -0.46076915
0002d0 0e c8 ef 3d fc 1b e8 3f 33 b1 6f bf 55 8c b7 be
       0.11708079 1.813354 -0.9362976 -0.35849252
0002e0 55 00 a0 3f c3 31 7b bf 0c 5d aa 3d 99 23 48 3f
       1.2500101 -0.98122805 0.083185285 0.7817932
0002f0 2b e2 24 bf af 24 3d bf 95 42 cb 3e b1 6c fc 3d
       -0.64407605 -0.738841 0.39699236 0.12325419
000300 7c 83 be 3e 1a 31 8d bf 26 a8 30 3f 0d af e3 be
       0.3720969 -1.103061 0.69006574 -0.4446949
000310 c9 6f dc be 58 cb 52 be a6 4a 13 3f 79 b2 d2 3f
       -0.43054035 -0.20585382 0.5753578 1.6460716
000320 c6 39 9c bf 03 ea bc bf 66 bd 4d bf 9c 5b 25 3f
       -1.2205131 -1.4758915 -0.80367124 0.6459291
000330 03 ae 35 3e 50 85 26 3c 1b e2 7d bf eb b2 d4 bf
       0.17742161 0.01016362 -0.99173135 -1.6617101
000340 e8 93 99 bf 8b 17 0b bf a1 c1 00 bf 0f 3d 6d bf
       -1.1998262 -0.543328 -0.50295454 -0.92671293
000350 af ac 6f 3f 06 a5 e4 be 24 ae ce be 21 c9 00 bf
       0.9362287 -0.44657153 -0.40367234 -0.503069
000360 b6 28 06 bf c4 a9 74 3d c6 b9 62 3f d6 aa 84 3f
       -0.5240587 0.059732214 0.8856472 1.0364635
000370 59 88 04 c0 ff 83 e6 bf 9c 04 88 3f 50 93 05 bf
       -2.070822 -1.8009032 1.0626407 -0.52177906
000380 79 90 e7 3e 48 41 9b 3f 7d f2 0b 3f 24 0a 83 bf
       0.4522741 1.2129297 0.5466688 -1.023747
000390 bb 18 28 bf f1 81 94 bf 95 b3 b6 3f 00 5f 58 be
       -0.65662736 -1.1602155 1.4273554 -0.2112999
0003a0 c9 0f a7 3e b2 8e a3 bf ec e7 4d 3f 6b 6b db bf
       0.3262923 -1.2777922 0.8043201 -1.7142156
0003b0 d6 15 7f 3e 4d 17 85 3e bb 81 d3 3e f7 74 06 bf
       0.24910673 0.2599434 0.41309914 -0.52522224
0003c0 f9 36 83 bf 75 a1 87 3f 8a 89 9d bf fa 4b 4e bf
       -1.0251151 1.0596148 -1.2307599 -0.8058468
0003d0 23 56 9b be aa 86 54 bf 88 2c ed be 7b 9d 8e 3f
       -0.30339155 -0.8301798 -0.46323037 1.1141809
0003e0 02 77 de bf c1 c5 1a be e5 62 2e bf 90 9a d0 be
       -1.7380068 -0.151145 -0.6811965 -0.40742922
0003f0 0a dd 45 3f bb 32 e7 3f a3 2c 4b 3f 1b a6 6c 3e
       0.77290404 1.8062357 0.79364985 0.23110239

gru.weight_ih_l0 f4 [300, 100]
000000 2f 48 60 3d 0a 14 3a bd b0 86 13 be 00 65 c9 3d
       0.05475634 -0.045429267 -0.14406848 0.09833717
000010 5e d7 f1 3c f2 74 95 bc c2 86 19 bc 90 80 93 3c
       0.02952164 -0.01824424 -0.009370508 0.01800564
000020 df 9d 60 3d 91 28 a0 3d 20 d6 00 bd 2c 43 52 bd
       0.054838058 0.078202374 -0.031454206 -0.05133359
000030 bd 00 05 3e ba 07 9a 3c d3 af 99 bc 73 3e 65 bd
       0.12988563 0.018802512 -0.018760597 -0.05596776
000040 84 16 b3 3d 32 16 56 bd 3a ce 32 bc fa d7 e3 3c
       0.08744529 -0.05226726 -0.010913426 0.027812947
000050 4b 96 4e 3e 91 49 cd 3d 3e 6a 5f bd da d8 5e 3c
       0.2017452 0.10023797 -0.05454468 0.013601506
000060 09 a1 57 3d b2 68 1a 3d 54 8b 1a bd c3 45 4e 3d
       0.05264381 0.0376975 -0.03773053 0.0503595
000070 e3 49 d5 bd 83 ca 4b bd 25 1b 32 3d 37 77 69 bd
       -0.104144834 -0.049753677 0.04348292 -0.056998458
000080 9c fe b9 bc ae 9a 1e 3d 6c 83 c9 3c bc 1d 3c 3d
       -0.022704415 0.038721733 0.0245988 0.045926794
000090 99 e3 00 be 55 94 93 bd 3a 56 87 3d 14 2c 8d bc
       -0.12586822 -0.072060265 0.06608243 -0.017232932
0000a0 d2 8e d9 bd 78 0a 81 bd 38 75 0a 3e 7c f7 32 3d
       -0.10622944 -0.06300825 0.13521278 0.04369305
0000b0 48 d2 fd 3d cd b8 02 be 72 8b 67 3b bd 86 98 bc
       0.123936236 -0.12765808 0.0035330919 -0.018618936
0000c0 27 c4 94 bd 34 75 1d 3d 27 5e 25 bd ac f9 87 bc
       -0.072639756 0.03844185 -0.040372994 -0.016598545
0000d0 f2 4f f4 3d 0f e2 44 3d 2d e4 08 3e 02 48 c6 bb
       0.11929311 0.04806715 0.13368292 -0.0060510645
0000e0 7d 22 8b 3d b5 f4 8c 3c d5 bc 7a bd 43 ca f0 bc
       0.067936875 0.01720653 -0.06121524 -0.02939332
0000f0 97 4f b5 bb 2d b6 9e 3c 9e 17 24 3d 35 69 45 3d
       -0.0055331695 0.019373978 0.040061586 0.048196036
000100 08 99 94 bd 0c f1 ef bb 07 f7 e6 bc e3 c7 4e 3d
       -0.07255751 -0.007322436 -0.028193964 0.050483596
000110 79 63 05 be 82 7b c8 3c d8 fb bd 3b e0 a5 32 3d
       -0.13026227 0.024472956 0.0057978444 0.043615222
000120 9f fe c3 bc bb 4d 06 bd db 2b 67 bd 70 36 4f be
       -0.023925124 -0.032788973 -0.05643831 -0.2023561
000130 99 23 5c bd dc 2e 56 3e f8 da d0 bd 08 95 ac bd
       -0.053744886 0.20916313 -0.10198015 -0.08426863
000140 53 5e 8d 3d db 7e 92 bd 83 c1 e7 bc ac f0 f5 ba
       0.069027565 -0.07153102 -0.028290516 -0.0018763742
000150 1f 6e d8 bc 73 3f 8d 3d 3d c3 89 3d 0d 6c e7 3d
       -0.026419697 0.068968676 0.06726692 0.11299906
000160 94 4b fb bd 6b 10 a9 bb e2 99 ac 3d a6 24 f9 3d
       -0.12270275 -0.005159428 0.08427788 0.12165193
000170 8a 7c 16 3d 8b a5 00 3e 3e 7a e4 3d de 2c 8d bd
       0.036739863 0.1256315 0.11156128 -0.06893323
000180 af 39 32 bd eb d4 5f bd fc c8 d1 3c bf eb 86 3d
       -0.043512043 -0.054646414 0.025608532 0.06587934
000190 a4 c4 82 3e a4 08 bf bd 80 2a 98 bd 5c 7c 53 3e
       0.2554065 -0.0932782 -0.07429981 0.20652908
0001a0 c3 95 0a be 77 4c cf 3d 78 24 ac bd 43 9a 5c 3d
       -0.13533692 0.101220064 -0.08405393 0.053858053
0001b0 f1 71 f2 3c c6 41 55 be 86 8e a4 bd 56 df 71 bd
       0.029595347 -0.20825872 -0.08034997 -0.05905088
0001c0 b7 9a 05 bd 59 3d b1 3d 3d 3a 44 be 6f 54 26 be
       -0.03261825 0.08654279 -0.19162841 -0.16243146
0001d0 7f 56 30 3d 41 96 fb 3d 40 67 26 bd fd 57 0c bc
       0.04305124 0.12284518 -0.04062581 -0.0085659
0001e0 c3 1c ee 3c ec 0f 9e bd 96 e3 6d 3c d1 b0 9e bd
       0.029066449 -0.077178806 0.014519593 -0.07748569
0001f0 d2 01 ce 3c af bb 78 bd 6a c1 c0 bd 0c be 05 bd
       0.025147352 -0.060725864 -0.09411891 -0.032651946
000200 33 db f8 3c 83 29 75 bd 30 71 b7 bd d1 a5 f1 bd
       0.03037796 -0.05985404 -0.08957136 -0.11799205
000210 a5 7c ec bc dc d4 02 be ab 38 c4 bd ee 32 40 3e
       -0.028868029 -0.12776512 -0.09581121 0.18769428
000220 b0 20 a0 3d c5 21 e5 3d 87 76 d0 3d 2a 1c 18 3e
       0.07818735 0.11188082 0.10178857 0.14854494
000230 d7 9f 74 be 09 9b 56 bd 0f 0f e4 bc f0 78 2a be
       -0.23889099 -0.052393947 -0.027839212 -0.16647696
000240 fa b0 5d bd bd 78 b5 3d b8 5b 0f be 1c 3a ee bc
       -0.054123856 0.088609196 -0.13999832 -0.029080443
000250 1b 78 d7 3d e3 5a 13 3e 2e 61 0a bd 72 fd bd bc
       0.10520955 0.1439014 -0.033784084 -0.023192141
000260 bb f7 ef ba 80 cc b9 ba ff 00 77 3c 82 bc bc 3d
       -0.0018308082 -0.0014175326 0.015075921 0.092156425
000270 15 38 41 3e 3a 7c 86 3d 2f 52 63 3d 49 d3 d4 bc
       0.1886905 0.06566663 0.0554983 -0.025979655
000280 6a c3 32 be 36 9a 97 3d c6 2b cb bd e8 67 a2 3b
       -0.17457357 0.0740246 -0.099204585 0.0049562342
000290 b7 1f a6 3d 91 6e 47 bd d8 4b cc 3d 17 b8 ac bd
       0.08111518 -0.04868943 0.099754035 -0.0843355
0002a0 78 fe 5d bd 55 9d 1f bc 96 0e 59 3d 71 47 fd bc
       -0.05419776 -0.009742101 0.052992426 -0.030917855
0002b0 83 42 26 3d 6a d0 1b bd ff 45 9e 3d bf 59 77 bd
       0.040590774 -0.038040556 0.077281944 -0.060388323
0002c0 51 c0 d4 bd 16 b8 0d 3e f9 a0 b1 bd 98 7e f8 bc
       -0.10388244 0.13839754 -0.08673281 -0.030333802
0002d0 0e 0a 9e bd a1 4c 4d bd 8b 24 1e be e0 81 e5 3d
       -0.077167615 -0.050121907 -0.15443628 0.11206412
0002e0 c4 85 0c 3e 16 e8 08 3e 5e 2a b3 bd 55 b8 05 3d
       0.13722903 0.13369784 -0.08748315 0.032646496
0002f0 be 7b 51 be cd 78 ee 3d 5b f8 01 3d 7c 4c 94 bd
       -0.2045736 0.11644135 0.03173099 -0.07241151
000300 ab 08 b8 3d bf 99 22 bd a3 84 05 3e d7 53 8f 3c
       0.08986028 -0.039697405 0.13038878 0.017496033
000310 d4 b3 d3 bd 07 d3 20 3d f0 79 e5 3d 25 aa 11 3e
       -0.10337034 0.03926375 0.11204898 0.14225061
000320 c0 1c 99 bc ae a1 92 bd fb 45 8f 3d c5 d3 af bd
       -0.018690467 -0.07159744 0.069957696 -0.08585314
000330 35 ca 47 3e c0 6b 66 bd bf ac 00 bd 21 0b 04 be
       0.1951073 -0.056255102 -0.031414744 -0.1289487
000340 87 70 0a 3e bd c2 e4 3d f7 ce a5 3c d4 e5 ac 3d
       0.13519488 0.11169956 0.02024029 0.08442274
000350 12 98 f2 3b 4b 74 96 3c 92 1a ba bc 1d 98 8a bd
       0.007403382 0.018366 -0.022717748 -0.067672946
000360 c5 ec 92 3d 82 f6 13 3b d4 6f 95 bd 34 27 a7 bc
       0.071740665 0.002257735 -0.0729672 -0.020404436
000370 fd ee 13 be 80 2d 53 3d a2 95 05 3e e1 60 89 3d
       -0.14446636 0.051557064 0.13045362 0.06707931
000380 e8 0b 05 be 1e 2e 82 3d a0 8c ac bd 2f b9 81 3d
       -0.12992823 0.063564524 -0.084252596 0.06334149
000390 e4 df ea 3b fc 3e 36 be 2b 3f 33 bd d4 58 03 be
       0.007167803 -0.17797464 -0.043761414 -0.12826854
0003a0 51 83 c1 3d 33 66 1f 3c 8a 77 7c bd 24 17 5a 3e
       0.09448875 0.009728956 -0.06163744 0.2129789
0003b0 87 11 af bd 77 60 cd bd 2e 48 8e bc f7 4e 24 3e
       -0.08548265 -0.10028165 -0.017368402 0.16045748
0003c0 9d 5f a5 3c e8 a5 d0 bc 92 2d 6a bd 54 10 34 be
       0.020187194 -0.025469735 -0.057172365 -0.17584354
0003d0 89 da 02 3e 4e aa 37 3d 05 7d 18 be ae 63 85 bd
       0.12778677 0.04484015 -0.14891441 -0.06513153
0003e0 b4 db e9 bd a0 de 76 bd c7 f8 e5 3d f7 09 65 bd
       -0.11418858 -0.060270905 0.11229091 -0.055917706
0003f0 f3 52 2c be 12 b2 5a 3d 38 50 b5 bd 29 c8 be 3d
       -0.16828518 0.053392477 -0.08853191 0.09315521

gru.weight_hh_l0 f4 [300, 100]
000000 78 6a 37 3d 7b f0 8f bd ab c3 d3 bc 36 14 bd bc
       0.04477927 -0.0702829 -0.025850138 -0.023080926
000010 8e 9a e6 3c 45 57 41 3e 26 d8 0e 3d 91 b3 84 bd
       0.02814987 0.18880947 0.034874104 -0.06479562
000020 ed 37 1a ba 45 d5 9a 3d fe db b2 bc 20 1b 28 3d
       -0.00058829674 0.07560209 -0.021833416 0.041041493
000030 86 13 a6 bd ba 30 0d be 84 60 13 3d 52 cf b9 bc
       -0.081091926 -0.13788119 0.035980716 -0.022681866
000040 e9 96 d3 3c af 73 95 3d 7a e3 16 bd 38 a6 3c bd
       0.025828796 0.072974555 -0.036838032 -0.046056956
000050 6d dc dd bd 46 19 19 3e 09 bc 8f bc 9d a8 b9 3d
       -0.108330585 0.14951047 -0.017545717 0.090653636
000060 f2 df b9 3c 37 48 0e 3e 18 11 fc 3c 42 93 65 bd
       0.022689793 0.13894735 0.03076987 -0.05604864
000070 c3 9d 43 be 78 21 3d 3c b5 41 fa bd 5d 35 74 bd
       -0.1910315 0.011543624 -0.12219564 -0.059621204
000080 7a e5 71 3e eb 85 02 be af e4 0f 3e 6b f8 49 be
       0.23622695 -0.12746398 0.1405208 -0.1972367
000090 39 c1 3f bb 97 83 4b 3e 00 a5 29 be d1 a2 b8 3d
       -0.0029259457 0.19874416 -0.16566849 0.0901543
0000a0 5a c6 bb bc 44 65 7e 3d 9a 3c e1 bc cd 71 3c 3e
       -0.02292173 0.062108293 -0.027494717 0.18402787
0000b0 f7 7d 25 be df ff f4 3c cd 37 b3 bd 8a 38 5e bd
       -0.16161333 0.029907165 -0.087508775 -0.05425314
0000c0 3f 3b 85 be c0 b1 bf bd 7a 28 1c 3d c9 c6 c2 bd
       -0.26021764 -0.09360075 0.03812454 -0.095105715
0000d0 17 42 ea bc e5 e9 c4 3d a8 f6 bd 3d a3 3a 46 be
       -0.028595967 0.09614924 0.092755616 -0.19358306
0000e0 f8 13 a7 bd 45 ea cf bd 0e 57 27 be 1a 68 1f 3d
       -0.081581056 -0.10152105 -0.16341802 0.03891764
0000f0 d4 47 9c 3c 6e 2f a1 3b 5b d9 08 3c 10 e2 b5 bc
       0.01907722 0.004918984 0.008352603 -0.022202522
000100 f6 60 11 3d 59 d0 03 bc 82 30 3b 3c 97 fd 0b 3e
       0.03549286 -0.008045279 0.011425139 0.13670956
000110 e3 14 c3 3d 38 13 8d 3c f9 3f 4d 3d 44 32 50 be
       0.09525468 0.017221078 0.050109837 -0.20331675
000120 7d 19 00 3e 6b c8 1f 3e 7f ce dd 3d 53 91 74 3e
       0.12509723 0.15603797 0.10830402 0.23883562
000130 b4 ed a0 3d 73 ab 0f 3d a8 3f 80 3d ac c9 b0 bc
       0.07857838 0.035075616 0.062621415 -0.02158054
000140 69 ba c5 3d 3d 8c ee bd b6 66 33 3c 9a 4b 18 be
       0.096546955 -0.11647842 0.010949781 -0.1487259
000150 a4 5a db 3c 2a 8d 84 3d 5e fc 05 be 64 46 90 3d
       0.02677662 0.064722374 -0.13084552 0.07044676
000160 b6 d6 17 3e a5 bb e1 bc 81 ab 24 3e d5 84 f8 bc
       0.14828 -0.027555296 0.16081049 -0.030336777
000170 92 bb 1d 3d 6b 94 69 bd 73 0e 9f bd 52 bb 3c bc
       0.03850896 -0.057026308 -0.07766428 -0.01151927
000180 30 61 af 3d c4 20 e3 bc 7d e7 34 3e 5f 9d 23 3d
       0.08563459 -0.027725585 0.17666431 0.039945003
000190 2b 99 ab bd 3c 0d 1f be 40 a5 4b 3e 67 b8 23 3e
       -0.08378824 -0.15532392 0.19887257 0.15988313
0001a0 5e 53 02 bb 94 9d 7e 3d b2 22 1d bd 7b 55 a2 bc
       -0.0019886116 0.062161997 -0.038363166 -0.01981615
0001b0 aa a8 07 be 8a fc fb bc 3f 17 fb bd c8 90 9f bd
       -0.13247934 -0.030760068 -0.12260293 -0.07791287
0001c0 6a 8c 1b 3d 02 e7 fa 3d 31 a6 fb 3c 29 3e 3e bc
       0.037975706 0.122510925 0.030718895 -0.0116115
0001d0 70 96 e9 bd 05 58 0e bd 70 19 dd bc e0 49 87 bd
       -0.11405647 -0.03475191 -0.026989669 -0.066058874
0001e0 7f 1c a8 bd 68 52 c4 bd 58 51 d3 3d ac 3c af 3d
       -0.0820856 -0.0958603 0.103182495 0.08556494
0001f0 b9 f7 ed bc c1 58 4c 3d 5a c5 b2 3d b7 63 37 bd
       -0.029048787 0.04988933 0.08729048 -0.04477283
000200 7e 8f 9b bc b9 7f 56 3c 2d 98 8f 3a c6 e3 b9 bd
       -0.01898932 0.013091975 0.0010955386 -0.090766475
000210 76 f2 2d 3e 6e a7 71 3d 31 7e 1d be 36 1a c5 bd
       0.16987023 0.058997564 -0.1538017 -0.0962414
000220 46 99 2c 3e 10 c8 57 3e c5 b8 d8 3d 2c 2d fb 3b
       0.16855344 0.21072412 0.10582117 0.007665297
000230 38 de cd bc f7 ba fb bc 74 1f 95 3d 1c 85 1f 3e
       -0.025130376 -0.0307288 0.0728139 0.15578121
000240 59 3f 75 bd d6 28 91 bd fb 95 00 3d c4 1c ca 3c
       -0.059874866 -0.07087867 0.031393033 0.02467192
000250 14 64 9a bd de 49 70 be a0 37 4a 3e cc 4c e9 bd
       -0.0753862 -0.23465678 0.19747782 -0.11391601
000260 38 15 a3 bd 72 69 a1 bd aa 0b fd bc bc e5 f8 bd
       -0.079630315 -0.0788144 -0.03088935 -0.12153193
000270 06 80 94 3d e0 d2 4b 3d 88 5f 44 bd 17 53 05 3e
       0.07250981 0.049761653 -0.04794267 0.13019978
000280 28 2e af bd 11 f5 36 3c 8e fd 5c bd 9b 64 57 3d
       -0.085537255 0.011166827 -0.053952746 0.05258618
000290 af c2 e5 3b 4d 1d 3e be b1 44 b4 bd 1f 91 01 bc
       0.0070117335 -0.18565865 -0.08802164 -0.007908135
0002a0 bb f3 36 3e 89 68 75 3e 01 59 05 3e f2 d1 8e 3a
       0.17866413 0.23965658 0.13022234 0.0010896309
0002b0 b9 46 48 bd 64 91 ee 3d 82 7c 64 3c 92 62 00 3e
       -0.04889557 0.11648825 0.013945701 0.12537602
0002c0 c3 83 1d 3d 60 e1 53 bd 97 9c 3b 3d ac f0 e8 bd
       0.038455736 -0.051728606 0.045803633 -0.113740295
0002d0 7f 5b 61 bc 20 ec 29 bc ac 7c 5a 3d a0 ad 5f bd
       -0.0137547245 -0.010371238 0.053341553 -0.05460894
0002e0 d0 f3 5f 3d e7 71 5d 3d f1 a6 7d bc dd 5a 37 bd
       0.054675877 0.054063704 -0.015481696 -0.04476439
0002f0 62 a8 92 bd 09 8e e6 3b 0f 8d 5b 3d 14 f6 5a be
       -0.07161023 0.007035975 0.05360132 -0.21382934
000300 26 f7 7b bd bc 37 4e 3b 91 82 ea bd 6e 11 92 3d
       -0.061514996 0.0031466326 -0.11450685 0.07132231
000310 da ff c3 3c 21 fd ae 3c 82 52 5e 3b f3 b7 68 3d
       0.02392571 0.021360936 0.003392369 0.056816053
000320 a6 39 e2 bb 29 a3 b2 bd d2 cf 8e 3d 89 3d 9a 3d
       -0.006903845 -0.087225266 0.06973232 0.07531268
000330 a7 22 38 bd 41 f6 21 be 97 af dc 3d 67 dc 0d 3e
       -0.044954922 -0.15816595 0.107756786 0.13853608
000340 06 51 81 bb 08 14 2b 3d 0a da a7 bd 06 82 c8 3b
       -0.0039464263 0.04176715 -0.081958845 0.0061190156
000350 7b dd d4 3c 89 8f a6 bc 4b ba c2 3d 5e 2f 0e 3c
       0.025984516 -0.020332115 0.09508189 0.008678285
000360 fa b2 ac 3d 2b d7 45 3c b5 47 8c bd 9b b3 d2 3c
       0.084325746 0.012075226 -0.068496145 0.025720408
000370 81 d8 59 bd bc 66 ce bd f1 2a 89 bd 3e 6c c3 bd
       -0.05318499 -0.10078189 -0.066976435 -0.0954213
000380 00 12 f1 3d 00 da a1 bd 0f c0 23 be ef aa 24 3e
       0.11771011 -0.07902908 -0.15991233 0.16080831
000390 3a 66 5a bd 4c db be 3d bc 49 07 3e 71 d8 11 bc
       -0.053320147 0.09319171 0.13211721 -0.008901701
0003a0 e9 f8 39 3d 51 28 03 3e b1 e6 1b 3e 74 d2 06 bd
       0.045403395 0.12808348 0.1522472 -0.032915547
0003b0 62 22 a3 bc c9 46 32 bd 3d 07 cb bd f7 e8 17 bd
       -0.019913856 -0.043524537 -0.0991349 -0.037087407
0003c0 e1 a0 cc 3d 45 88 ed 3b b5 80 c6 3c 50 b0 b4 3d
       0.09991623 0.0072489106 0.024231294 0.088226914
0003d0 12 83 ae 3c 88 5c 6c 3d 83 12 e2 3c ed c1 8a bd
       0.021302734 0.057705432 0.027596718 -0.0677527
0003e0 09 31 68 bc cb db ff 3d 2e bc f6 3d 65 ea 7d 3d
       -0.014171847 0.12493094 0.12047611 0.061991114
0003f0 47 63 55 3d 44 cb 8f bd 72 4e fe bc 04 e5 c8 3d
       0.05209663 -0.07021192 -0.031043265 0.09809306

gru.bias_ih_l0 f4 [300]
000000 6c f8 f1 3d 51 05 e1 3d b8 11 b2 3d 6c c4 0e 3d
       0.11814961 0.10987342 0.08694786 0.03485529
000010 3b d4 a6 bc bb 34 cf 3d a1 5d bc bd 52 4d 15 3c
       -0.020364871 0.101174794 -0.09197546 0.009112673
000020 ac d4 ea 3d 3c e2 4b bd a0 4d 06 3e ae d9 25 39
       0.11466345 -0.0497763 0.13115549 0.00015816718
000030 89 23 8f 3c cc a1 b4 3c 54 a8 27 bc 4f ef a3 bc
       0.017473 0.022049807 -0.010233004 -0.020011572
000040 c2 03 40 3d 39 61 f9 3d 28 d5 e3 3c c9 1d ba 3d
       0.046878584 0.12176747 0.027811602 0.09087712
000050 ba 3b 5b 3e 68 13 5e 3d 90 bf 04 3e 48 78 91 3d
       0.21409503 0.054217726 0.129637 0.0710302
000060 b5 ce 13 3e 49 db 53 3d 30 e4 80 bc 75 1e be 3d
       0.14434321 0.0517228 -0.015733808 0.09283153
000070 ff 7b 3d 3e 67 ed 0e 3e 3d 65 d9 3c 8b 3c f9 3d
       0.18504332 0.1395775 0.026537532 0.12169751
000080 48 f2 af 3d 18 4b 08 be d6 91 ee bb cd 27 f3 bd
       0.08591133 -0.13309896 -0.0072805686 -0.11872826
000090 50 88 ca 3d 6a 52 5a bd f3 fb b8 3c f7 42 41 3e
       0.09889281 -0.053301252 0.022581076 0.18873201
0000a0 86 5c 89 3d c3 f7 82 3d af 3a d8 3d 94 eb f7 3d
       0.067071006 0.06394913 0.10558068 0.1210548
0000b0 86 ab 9e 3d b4 8b 71 bd b6 ec 27 3a 4c 80 cc 3d
       0.07747559 -0.058971122 0.0006405817 0.09985408
0000c0 13 92 e9 3c 02 f9 90 3d fd d0 f2 3d 74 6a 0f be
       0.028512036 0.070787445 0.118562676 -0.14005452
0000d0 c3 ef 4c 3c 42 ea 6e bc b9 9b 3b 3d 8a b6 a1 3d
       0.0125083355 -0.014582219 0.045802806 0.07896145
0000e0 25 b9 31 3d 1d 02 5d 3d cb 8e 8d 3c de bc 37 3e
       0.04338946 0.053957094 0.017280003 0.17943141
0000f0 c0 94 96 bd ae dd 51 3d 63 4a b4 bb ce d1 4e 3e
       -0.073525906 0.0512368 -0.0055020317 0.20197222
000100 ca c6 07 bd 3c 39 54 3d a6 81 02 3e f7 df 78 3d
       -0.033148564 0.051812395 0.1274477 0.060760465
000110 c2 cb 17 3e ef 82 84 3c 75 3b 7c 3d 86 23 2e bc
       0.14823821 0.016175715 0.06158014 -0.010628587
000120 d3 75 9c 3d 04 bb 39 3d e1 12 fa 3d 47 c1 99 3d
       0.07639661 0.045344368 0.12210632 0.07507568
000130 9a 51 db 3d b2 d2 1f 3e 5d bb ea bb d9 9f bd 3d
       0.10708924 0.15607718 -0.0071634487 0.09259004
000140 8c a4 cc 3c 25 6f 3f bd 44 a0 ea 3d 2c 24 b2 3d
       0.024980806 -0.046736855 0.114563495 0.086983055
000150 ad d9 95 3d 9a 93 19 3d 2b bc 22 3b 03 bc 90 bc
       0.07316909 0.03749428 0.0024831395 -0.017667776
000160 95 e2 81 bc 87 9c 38 bc 68 a3 ca 3d e1 df 71 bd
       -0.015855113 -0.011267788 0.098944485 -0.0590514
000170 78 53 3a 3d f7 be da 3d ff 83 03 3c 17 a0 48 bd
       0.04548976 0.10680955 0.008027076 -0.0489808
000180 f1 3f 47 3d 6b 33 85 3d 4f 2a b0 3d 94 1f 08 bd
       0.048644964 0.06503948 0.0860182 -0.03323324
000190 b2 8c 39 bc 35 8e 2f be ea b2 07 bd 43 e7 1d be
       -0.011325048 -0.17144091 -0.03312961 -0.1542025
0001a0 5b 3a ce bd c6 9d 32 be 1f 6d 83 be 69 01 87 be
       -0.10069724 -0.17442998 -0.2566919 -0.26368263
0001b0 f7 47 59 be c0 d6 e6 bd 41 7c 1f be 4b f5 82 be
       -0.21218859 -0.11271429 -0.15574743 -0.2557777
0001c0 cd 8d 46 be a1 da 69 be e5 a5 4b be 3d 4f 91 be
       -0.1939003 -0.22837307 -0.19887502 -0.28380767
0001d0 3b ba c4 bd c0 b2 cb be bd 02 2d be 2d 43 80 be
       -0.09605833 -0.39784813 -0.16895576 -0.2505125
0001e0 1e 92 c0 bd 9e 80 f2 bd 94 db 15 be 89 85 03 3c
       -0.0940287 -0.11840938 -0.14634544 0.008027443
0001f0 ac e7 08 be 2d 81 a0 be 47 0b 29 be af 1e c8 bd
       -0.13369626 -0.31348553 -0.16508208 -0.097714774
000200 a2 92 58 be 73 a5 27 be a8 62 4c bd 9d b2 b6 bd
       -0.21149686 -0.16371708 -0.049898773 -0.089207865
000210 e5 b0 1c be 4e 54 87 bd 61 a1 23 be b6 02 4b be
       -0.15301855 -0.06607877 -0.1597953 -0.19825253
000220 46 6d c7 bd e7 ee df bd 25 03 2e be 18 ff 22 be
       -0.09737639 -0.10934239 -0.16993387 -0.15917623
000230 0a 64 1e be 0e 87 b3 be bc 4f 75 be 80 2b 5d be
       -0.1546785 -0.35063976 -0.23956198 -0.21598625
000240 e5 19 e0 bd b0 58 e1 bd 0e cf fd bd 07 ae 5e be
       -0.10942439 -0.11003244 -0.12393008 -0.21746074
000250 63 88 5b be 63 c2 63 bd 76 6e d1 bd ed 9c d3 bd
       -0.21438746 -0.055605303 -0.10226147 -0.103326656
000260 c4 18 5e be 53 af 74 be 8c 29 f6 bd 9a cc 84 be
       -0.21689135 -0.23895006 -0.12019643 -0.2593735
000270 47 2e 9d be c8 f1 86 be 65 f6 0b be 44 39 12 be
       -0.3069937 -0.2635634 -0.13668211 -0.14279658
000280 10 05 92 be 40 41 66 be 47 1c a7 bd cc 3c b0 bd
       -0.28519487 -0.22485828 -0.0815969 -0.08605346
000290 53 07 49 bd 44 a7 43 be 3e 85 0d be f6 71 1e be
       -0.04907925 -0.19106776 -0.13820359 -0.1547316
0002a0 f2 d5 36 be bd 2a 90 be 78 4a 49 be 96 e2 80 be
       -0.17855051 -0.28157607 -0.19657314 -0.2517287
0002b0 46 fc 50 be e1 6c 50 be de ae 06 be fe 95 51 be
       -0.20408735 -0.20354034 -0.13152644 -0.20467374
0002c0 07 e3 47 be ea 4d 98 be c9 93 0e be f8 32 5c be
       -0.19520198 -0.29746944 -0.13923563 -0.21503818
0002d0 04 ca 38 be d0 93 92 bd d8 95 8d bd 68 d0 d4 bc
       -0.18045813 -0.07157099 -0.06913346 -0.025978282
0002e0 4a 84 2c be 59 ad 7e bd 3c 4b b0 be 66 eb 08 bd
       -0.1684734 -0.062177036 -0.344324 -0.03342762
0002f0 c6 ac 3c be 69 d4 54 be 80 dd 3f be bf 0a 07 be
       -0.18425283 -0.20784153 -0.1873684 -0.13187693
000300 75 e7 0d be 0e b1 ec bd 4b dc bd bd ab 0f 58 be
       -0.13857825 -0.11557208 -0.09270533 -0.21099727
000310 dd d2 24 be 6b 6e db bd 0f 4c 3c be 07 0f ed bd
       -0.16096063 -0.1071442 -0.18388389 -0.11575132
000320 1d b7 88 bb 44 4e 0c 3e 91 82 53 3d 3d 60 ff bd
       -0.0041722194 0.13701731 0.05163819 -0.12469528
000330 9d 23 3c 3c 07 c9 8a 3c d5 fb af 3d 6c 5b d1 3d
       0.0114831 0.01694156 0.08592955 0.102225155
000340 a3 8c f0 3c 2a 97 0a 3d 6b c3 0d 3e 9c 3d a6 3d
       0.029363936 0.033835568 0.13844077 0.0811722
000350 16 91 37 bd 99 16 50 be dc ab f5 bd 34 81 95 bd
       -0.0448161 -0.2032112 -0.1199567 -0.07300034
000360 d6 46 d4 3c 14 bc 07 be b7 4f 96 3d 08 34 0f 3e
       0.025912683 -0.1325534 0.07339423 0.13984692
000370 60 ee 27 bd e9 19 bd 3d f7 ab a1 3d e2 6a 92 bd
       -0.040998816 0.092334576 0.07894128 -0.071492925
000380 79 86 9d bd 96 0a 86 bd 36 7d 37 bd 02 56 f8 bd
       -0.07691664 -0.06544988 -0.044797145 -0.1212578
000390 79 d3 62 bc 3c 77 05 bc ad b8 81 bd 54 d4 aa bd
       -0.013844364 -0.0081461035 -0.06334052 -0.083412796
0003a0 04 aa 16 be 8f e0 a4 bd ac d4 e2 bc 36 ba 86 bd
       -0.14713293 -0.08050644 -0.0276893 -0.06578486
0003b0 bc 72 90 3d 0d 30 ad 3d b3 0e 16 bc 77 0c 30 3d
       0.07053134 0.084564306 -0.009158778 0.042980637
0003c0 64 b5 f5 3d 4e 59 16 3e cf 4f 23 3d a0 da b6 3d
       0.11997488 0.14682505 0.039871033 0.08928418
0003d0 36 ae a1 3d ce 97 ae 3d 69 68 d6 bc 26 fe 22 be
       0.07894556 0.08525048 -0.026172834 -0.15917262
0003e0 a6 f7 d0 3d 58 06 54 bd 51 75 7f bc 30 81 99 3d
       0.10203485 -0.051763862 -0.015591935 0.07495344
0003f0 96 72 2f bd ed 37 69 3c ef c7 2c bd 71 0f 32 3e
       -0.042833887 0.014234525 -0.04218286 0.17388703

gru.bias_hh_l0 f4 [300]
000000 d0 64 58 bd cb 77 00 bd 52 5e 14 3e c7 7c c5 3d
       -0.052830517 -0.031364243 0.14489105 0.0964294
000010 e2 19 e9 bb c7 8f 3b 3e 73 5f 43 3d 92 6c 03 3e
       -0.007113681 0.18316565 0.04769845 0.12834385
000020 46 89 f5 3d d5 f3 3e 3d 26 64 29 3d 10 77 ef 3d
       0.119890735 0.046619255 0.041355275 0.11692631
000030 1b bd 91 3c 0b af 6f 3d 2b fd 18 bd 4b cc 1f 3d
       0.017790368 0.058516543 -0.037350815 0.03901319
000040 7c df 90 3d 73 02 36 bd ee 83 09 bd 0e 5b fd 3c
       0.07073876 -0.04443593 -0.033573084 0.030927207
000050 84 62 52 3e 41 fb 51 3e 95 6e d6 3c ec 57 36 bd
       0.20545393 0.20506002 0.026175776 -0.044517443
000060 0f 00 35 bc f7 fa a8 3d dc 71 a1 3d 0c 59 09 bd
       -0.011047377 0.08250993 0.07883045 -0.033532187
000070 2c 48 ed 3d 39 6b 9e 3d 53 6f fe 3d 7d 44 3e bd
       0.11586031 0.07735295 0.12423577 -0.046452034
000080 02 04 a3 3d bb b9 84 3d d4 1c 99 3d b0 6c a8 bd
       0.07959749 0.06480738 0.07476202 -0.082238555
000090 15 09 65 3d 7b 1a 51 3c db be a3 bc 92 c6 a9 3d
       0.055916864 0.012762661 -0.019988468 0.082898274
0000a0 cd c9 b9 3d c9 a8 92 3d df 83 a1 3d a4 28 26 3e
       0.090716936 0.071610995 0.078864805 0.1622644
0000b0 be e4 93 3d 07 34 b4 3d 13 26 07 3e 63 ab 77 3d
       0.072213635 0.08798986 0.13198118 0.06046618
0000c0 17 cb 04 3e c7 76 84 3d f2 e1 2c 3d 92 d5 af bd
       0.12968098 0.064679675 0.042207666 -0.08585657
0000d0 3a ba 93 bd c5 47 af 3d 53 4d 16 3d 81 3c d7 3d
       -0.07213254 0.08558611 0.036694836 0.10509587
0000e0 ed 5d e5 bc ae 4c f4 3d bc 12 25 3e 2a 74 ec 3d
       -0.027998889 0.11928688 0.16120428 0.11545594
0000f0 a1 ba 63 3d 95 55 18 3e f9 bc 63 bd e2 e9 b8 3d
       0.055597905 0.14876397 -0.05560014 0.090289846
000100 6a e3 70 3c fb 88 09 3e a1 30 0a 3e 1f ef 32 3e
       0.014702657 0.1343116 0.13495113 0.1747403
000110 3f b5 9d 3d fe 8c f2 3d 37 85 6a bd 10 b9 2c 3e
       0.077005856 0.118432984 -0.05725595 0.1686747
000120 94 5d 2a 3d 95 1b 28 3d ec 84 43 3e a5 6b 92 3d
       0.04159315 0.04104193 0.19093674 0.07149438
000130 2e c7 db 3d 16 30 07 3e 7d e6 09 3e b3 09 c9 bb
       0.1073135 0.13201937 0.1346683 -0.0061351894
000140 a9 84 3a 3d f1 84 99 bb de 3a a7 3d 9c 25 a1 3d
       0.04553667 -0.0046850373 0.08165525 0.078685015
000150 18 2f d3 3c 39 9f d4 3d b2 27 e7 3d 1d ae 96 3c
       0.025779292 0.10381932 0.11286868 0.01839357
000160 8b 33 96 3c f3 12 44 3c e0 ce c2 3d 67 83 ca 3d
       0.018335124 0.0119674085 0.095121145 0.09888344
000170 ed 6d 85 3d a8 2b 9a 3b d0 e0 23 3d 9d 18 4f 3d
       0.06515107 0.0047049113 0.04000932 0.050560582
000180 95 f9 5d 3c 09 9e 7c bb 18 59 f3 bc 57 03 14 3e
       0.0135482745 -0.0038546345 -0.02970557 0.14454399
000190 79 3e 10 be 52 d4 f2 bd 4c 09 a5 bc 36 23 cb bd
       -0.14086331 -0.11856903 -0.020146035 -0.09918825
0001a0 f6 0b 78 be b0 cd 93 be 04 07 66 be c1 18 89 be
       -0.24223313 -0.28867865 -0.22463614 -0.26776698
0001b0 83 a9 6c be de 9f 0d be 21 76 b4 bd 76 59 6f be
       -0.23111539 -0.13830516 -0.08811594 -0.2337397
0001c0 27 fa 2f bd 20 90 74 be de d9 6c be f6 f8 57 be
       -0.042963173 -0.23883104 -0.23129985 -0.21091065
0001d0 c3 f0 41 be 73 56 e2 be ab 39 5c be a8 0b 28 be
       -0.189395 -0.4420658 -0.21506374 -0.16410697
0001e0 1a 97 24 be 92 39 3a be cf 87 54 be 4c eb c3 bd
       -0.16073266 -0.18186024 -0.20754932 -0.09566364
0001f0 46 be 37 be f1 fc 8b be 16 fc 66 be e5 8c 4d be
       -0.17943677 -0.27341416 -0.225571 -0.20073278
000200 e2 63 26 be a4 93 0e be c3 c3 09 be c8 37 5b bd
       -0.1624904 -0.13923508 -0.13453583 -0.053519994
000210 ed f8 0e be db e8 07 be 9f 16 50 be 19 14 0d be
       -0.13962145 -0.13272421 -0.2032113 -0.13777198
000220 79 2c fb bd 89 76 5f be 54 0a 00 be 00 25 26 be
       -0.12264342 -0.21822561 -0.1250394 -0.16225052
000230 1f cc 5d be 6e 53 79 be cd 1a 43 be a7 0f 3e be
       -0.21659897 -0.24348232 -0.19053192 -0.18560658
000240 9d 27 ab bc 57 6c 4b be dc b4 43 be bc 41 bc be
       -0.020892913 -0.19865547 -0.19111961 -0.367689
000250 05 c5 f3 bd 2c 2d e4 bd 84 62 20 be df 12 97 be
       -0.11902813 -0.11141428 -0.1566258 -0.29506585
000260 cd 06 a1 bd ab be 5e be 3b c9 24 be 77 fa 81 be
       -0.07862625 -0.21752422 -0.16092388 -0.25386402
000270 ed 36 43 be 96 c8 79 be 25 a6 6b be fb f1 8c bd
       -0.19063921 -0.24392924 -0.23012598 -0.068820916
000280 cb e0 b8 bd 61 26 2f be 7f ee ce bd 19 85 0f be
       -0.09027251 -0.17104484 -0.10104083 -0.14015616
000290 a7 5f ed bd 60 56 3e be 6a b4 62 bd 2a cb 39 be
       -0.1159051 -0.18587637 -0.055347838 -0.18143907
0002a0 b5 23 4d be 2a 61 42 be 03 e6 17 be 95 d9 e5 bd
       -0.20033152 -0.18982378 -0.14833836 -0.11223141
0002b0 d4 06 bb bd eb cb 7e be 48 b9 51 be c1 2c 26 be
       -0.09132162 -0.24882476 -0.20480835 -0.1622801
0002c0 0d d4 da bd fe 64 8a be 62 bb 2a be 76 ce fb bd
       -0.10684977 -0.27030176 -0.16673043 -0.12295239
0002d0 03 1e 28 be 4d 78 e8 bd 87 26 1b be f7 5f 12 be
       -0.16417699 -0.113510706 -0.15151416 -0.1429442
0002e0 f4 4b ea bd 09 b3 11 be 4f 13 74 be b5 88 f1 bd
       -0.11440268 -0.14228453 -0.2383549 -0.11793653
0002f0 b0 2b 1c be 56 b5 ba bd 08 84 1c be e0 58 5f 3c
       -0.1525104 -0.09116618 -0.15284741 0.013632029
000300 16 fd 6a be 90 72 ae bd 00 0b 05 be df 3b 03 be
       -0.22948107 -0.08517945 -0.12992477 -0.12815808
000310 9f bf 26 be 9c 0e 30 bd e9 32 26 be 3f 41 04 be
       -0.16284035 -0.042982683 -0.16230358 -0.12915514
000320 ee 51 cf bd 5f bb dc 3d 8a e8 b4 3d e6 a9 5a 3d
       -0.10123049 0.10777926 0.08833416 0.053384684
000330 2d 21 94 3d d8 d7 24 3e b3 a7 af 3d 4a 82 e4 3c
       0.0723289 0.16097963 0.08576908 0.027894158
000340 f7 66 f9 bd 94 7e 69 3c 46 6e 67 bc 0a 44 22 3e
       -0.12177842 0.01425137 -0.014125412 0.15846267
000350 51 13 b7 3c ed e3 93 bd 38 24 09 be 86 f3 ca bb
       0.022348078 -0.07221208 -0.13392723 -0.006193581
000360 7a fc c5 3c ae 2e b6 bd 45 47 33 3d 3e 02 9d 3d
       0.024168242 -0.08895622 0.04376914 0.07666443
000370 44 07 93 bd 87 6e b7 3d 53 cb f3 3d 57 36 0b bb
       -0.0717912 0.08956628 0.119040154 -0.0021242106
000380 63 b5 b9 bd 77 d4 86 3d 0a 3b da 3c 7f 24 4a 3d
       -0.090678 0.06583493 0.02663948 0.04935121
000390 6b 08 f9 3a 9a fd 11 bd 45 bb c9 bd a3 15 b8 bd
       0.0018999701 -0.035642244 -0.09850172 -0.08988502
0003a0 83 b4 8f bd 99 48 a0 3c 5f 4d b2 3d 85 cc d0 bc
       -0.07016852 0.019565867 0.087061636 -0.025488148
0003b0 3c 49 49 3c 91 d5 dd bd 7a 8f e6 3c d5 49 09 3c
       0.012285527 -0.1083175 0.028144587 0.008379419
0003c0 15 94 7f 3d 21 7e cd 3c 44 ab aa 3b 37 25 07 3e
       0.06239708 0.025084557 0.0052084047 0.1319779
0003d0 b2 6c 30 bd e4 73 8b 3d 74 5d c0 3c 9a 72 5d bc
       -0.04307241 0.06809214 0.023482062 -0.013516093
0003e0 2e ad c8 3d 65 6b 85 3c 4e ad ef ba 56 c8 2b 3c
       0.097986564 0.016286561 -0.0018285902 0.0104847755
0003f0 e7 07 62 bd ab 12 81 3d 37 c2 27 3d b0 e0 1e 3d
       -0.055183318 0.06302389 0.040956702 0.038788497

gru.weight_ih_l1 f4 [300, 100]
000000 a8 82 34 be 47 dd 3f 3d 5f 9f ce 3c b4 35 7c bd
       -0.17627966 0.046841886 0.025222478 -0.061574653
000010 11 18 5f 3e 0f 58 c0 bd 47 42 89 bd 4c 73 1b 3e
       0.21786524 -0.09391796 -0.067020945 0.15180701
000020 ca d0 57 bb 29 03 a5 3e 11 8d 41 3d 6e bf d0 bc
       -0.0032930844 0.32228974 0.047253672 -0.025481906
000030 c8 e4 15 3d 07 f4 a0 3c b7 18 62 3b 8a 05 8a 3d
       0.036595136 0.019647611 0.0034499594 0.06739338
000040 46 6d e4 bc 07 39 15 be 6d aa 29 bd da 8d 5f 3d
       -0.027884137 -0.14572535 -0.041422296 0.05457864
000050 8a 84 f0 3d 68 26 28 3e ca 80 a0 ba 06 3e d1 bd
       0.1174403 0.16420901 -0.0012245413 -0.10216908
000060 0c ff 95 bd 7d 03 e1 bd 01 1d 8c 3b d4 11 a2 bd
       -0.07324037 -0.109869935 0.0042759185 -0.07913557
000070 d9 e5 99 be e2 f2 30 3e b2 5f 94 bc 9a b2 1e 3e
       -0.30058172 0.17280152 -0.018112037 0.15497819
000080 d3 bc 10 3d 42 08 96 bd 3b a4 37 be 6b ee e1 3d
       0.035336327 -0.07325794 -0.17933743 0.11031803
000090 c8 cb e0 3d 19 32 e9 3b bb 2c 08 3e 19 de bc 3c
       0.10976368 0.007116568 0.13298313 0.023055123
0000a0 88 d6 bb 3d a7 df 22 ba 90 da c3 3c 78 14 4a bc
       0.09171778 -0.00062131364 0.02390793 -0.012333982
0000b0 0e 7c 51 bd fd d1 23 be f6 65 71 bd 05 23 29 3e
       -0.0511437 -0.15998073 -0.05893513 0.16517265
0000c0 41 d6 f9 3d 94 e6 29 be 0f 22 c0 3d b3 c0 31 3e
       0.12199069 -0.16591865 0.09381496 0.17358665
0000d0 cb f0 0c bd f6 bb 58 3d 86 7a 08 bc a3 58 2e be
       -0.034409326 0.05291363 -0.008329993 -0.17026
0000e0 4b ba 09 3b d7 b8 cb bd aa f6 11 bd c5 0c cb bd
       0.002101558 -0.09947365 -0.035635628 -0.09914545
0000f0 27 11 b3 3d 2d da 8c bd f6 93 0e be 1c 07 33 be
       0.08743506 -0.06877551 -0.1392363 -0.17483181
000100 4a e4 20 bb 3b fd 31 3e b7 a5 fa bd 48 cf 32 bd
       -0.0024550133 0.17381756 -0.12238639 -0.04365471
000110 a8 3c bb 3d ce 6f a4 bd 7f 40 70 bd a4 4f 17 3e
       0.09142429 -0.080291376 -0.05865526 0.14776474
000120 aa ae 5e bb 60 2b 85 3d 88 19 1f 3d a2 84 35 3d
       -0.003397862 0.06502414 0.038842708 0.04431594
000130 f1 7b 5e bd d2 2b ee bd 18 80 81 bd b1 ea 89 3c
       -0.05431742 -0.11629452 -0.0632326 0.016835542
000140 d2 0b a5 bc da 44 a7 be 1a a6 25 3d 2f 3f 80 3c
       -0.020147238 -0.32669717 0.04044161 0.015655128
000150 9e 5f ad 3d c0 50 2c bc c8 e9 4a bc 59 04 64 3e
       0.08465503 -0.010517299 -0.012384839 0.22267283
000160 c8 39 d1 3d 22 01 bc bd e7 aa 07 bd 4a 1f d0 bd
       0.10216099 -0.091799036 -0.03312197 -0.10162218
000170 87 13 94 3d ac 53 1c be d4 fe 9c 3c 13 30 19 be
       0.07230287 -0.15266293 0.01916448 -0.14959745
000180 c5 f8 3e be 58 d8 ba bd 23 88 99 3d 19 b2 53 3e
       -0.18649586 -0.091232955 0.07496669 0.20673408
000190 69 bb cf bd 30 60 b4 3c 0d c4 80 3e 66 55 ad 3d
       -0.101431675 0.022018522 0.25149575 0.08463554
0001a0 d0 89 34 bb 2e e4 38 3d da 48 1d 3e 74 f9 3b 3c
       -0.0027547963 0.045139484 0.15359822 0.0114730485
0001b0 bd 64 8b bd 6e 92 89 bd 70 58 0e 3e 52 45 70 3d
       -0.06806324 -0.06717382 0.13900924 0.05865986
0001c0 cb 42 5f 3e 1b 19 e3 bd 7a 8c f4 3b 8e eb 37 3e
       0.21802823 -0.11088773 0.007463035 0.1796095
0001d0 fe 74 8d 3d 2e 7f 8c bd a6 bc f8 bb e2 fa 06 bd
       0.0690708 -0.06860195 -0.007590848 -0.032954104
0001e0 fb 6f aa 3d d6 55 99 bd b2 56 90 3e 84 11 4d bd
       0.0832214 -0.07487075 0.28191143 -0.050065532
0001f0 48 fc 28 bd c6 63 8b bb 91 1f 9e bd 59 72 de bd
       -0.04125622 -0.0042538373 -0.077208646 -0.10861654
000200 ff 05 80 3d 93 3f ff 3d 7b d2 cb bc e9 c8 49 bd
       0.06251144 0.12463298 -0.024880638 -0.04926387
000210 9b ef 0e 3d 82 0a e0 3d 0b 60 b0 3b 30 21 a2 bc
       0.034896474 0.10939504 0.005382543 -0.019791216
000220 26 74 85 3d 14 3a 9d 3c 63 5f 01 be fd 0e 24 3e
       0.06516294 0.019192733 -0.12634043 0.16021343
000230 ea 41 91 3c 89 6b d5 3d df fe bb bc df 72 98 3d
       0.017731626 0.10420901 -0.02294868 0.07443785
000240 3a 8e b8 bd c3 6c cf 3b bc 55 a5 bd 3c fb c6 bc
       -0.090115026 0.006330104 -0.08072993 -0.02428972
000250 a7 f0 78 bd e0 e5 c2 bd 5a 35 29 bd 3f 78 88 3d
       -0.06077638 -0.095165014 -0.041310646 0.0666356
000260 88 6d 21 3d 29 89 71 3d 8a 6c b4 3d d3 63 e6 3d
       0.039411098 0.058968697 0.08809765 0.11249509
000270 3e c8 11 be ce 37 05 be 53 8c 45 3d fe 48 fb 3c
       -0.14236543 -0.13009569 0.048229527 0.030674454
000280 97 c3 b5 bd f6 4f e8 3c a3 bc 9c bd 45 61 bb 3b
       -0.088751964 0.02835844 -0.07653167 0.0057183825
000290 c7 7f 97 3d 65 ec fd 3d 10 53 40 bc 2f 9b cd bc
       0.073974185 0.12398604 -0.011738554 -0.025098411
0002a0 89 f7 97 bd 0b 26 50 bd b1 f1 35 3d 44 36 d0 3d
       -0.074202605 -0.05081753 0.044419948 0.101666
0002b0 e7 fb 97 bc 9a bd b0 3b 83 00 87 ba 7a c4 dd bd
       -0.018552734 0.005393696 -0.0010299835 -0.108284906
0002c0 d4 bb 20 3d e8 e7 70 be 0c 25 8e 3c c6 c2 d0 bd
       0.039241627 -0.23525965 0.01735165 -0.101934
0002d0 df ca 4c 3d 2f 86 d8 bd e1 87 19 be a4 d8 38 3e
       0.04999816 -0.105724685 -0.1499324 0.18051392
0002e0 45 01 ab bd de 2e d6 3d 8b f2 0d 3e 3b aa ab 39
       -0.083498515 0.10458158 0.13862054 0.00032742493
0002f0 38 53 a6 3d bc 8a 9b 3d e5 2f c5 3c f8 11 6b 3d
       0.081213415 0.07594821 0.02407069 0.057390183
000300 55 75 f9 3d a7 ae 5d bd cc 32 4a be a0 67 8c 3e
       0.121805824 -0.05412164 -0.1974594 0.2742281
000310 7a b5 85 bd 5d 24 95 bd b0 c4 af 3c e1 6f 26 bd
       -0.065287545 -0.07282326 0.021456093 -0.04063404
000320 b7 99 33 3a 9e 41 24 3d 25 62 19 be cd fe f3 bd
       0.00068512134 0.04010164 -0.14978845 -0.11913834
000330 ad 06 2f bd c5 fd bd bd 9f dd 30 bb a0 72 22 3d
       -0.042730976 -0.09276918 -0.0026987565 0.039660096
000340 f1 c1 5e 3e 58 e0 c7 3d 29 cd 15 3c 7d 2b 81 3d
       0.2175367 0.09759587 0.009143152 0.06307123
000350 54 0b 13 3e 7f b0 86 3d ff b6 57 bd 72 3b ac 3d
       0.1435979 0.06576633 -0.052664753 0.08409776
000360 83 38 58 3c 05 6d 91 3d 3c 9a 32 3d 21 9b 51 bc
       0.013197067 0.07100872 0.04360412 -0.012793333
000370 93 01 60 bd f4 d3 42 3d c2 ef 56 bd 1e e4 22 be
       -0.054689 0.047565416 -0.052474745 -0.15907332
000380 8a cd 62 bd 94 f8 e3 bb 73 57 8f 3d c4 f3 e8 3d
       -0.0553718 -0.006957123 0.069991015 0.113746196
000390 05 e5 be 3d f9 1f ac bd 84 1b 44 3d bd 0e c4 3c
       0.09321026 -0.08404536 0.047877803 0.023932809
0003a0 cb 39 c9 bd 98 c7 74 bd 9a 1a 41 3d dc a3 91 bd
       -0.09825476 -0.05976066 0.04714451 -0.07111332
0003b0 9c 04 af bd b9 29 25 bd 65 39 87 bd 78 28 6c bd
       -0.08545801 -0.040322993 -0.06602744 -0.05765578
0003c0 86 ce dc bd 70 2c 53 3d 8b 3e 49 3c 47 ac 09 bd
       -0.10781579 0.05155605 0.012282978 -0.033611562
0003d0 a8 32 16 be 75 96 a5 bd f1 ea 4b 3d 3b da cd 3c
       -0.14667761 -0.08085338 0.049784604 0.025128474
0003e0 93 b7 c3 bd 08 99 e2 bd bb 6c c2 3d e7 bb d5 3d
       -0.095564984 -0.11064345 0.09493395 0.1043623
0003f0 15 dd dd bd eb 18 58 3d c5 f8 b7 bc c2 73 85 ba
       -0.10833184 0.05275814 -0.02245749 -0.0010181593

gru.weight_hh_l1 f4 [300, 100]
000000 0f ba 86 3d 53 e4 0e bd 6a 20 ab 3c 91 6a 60 3d
       0.065784566 -0.034885716 0.02088948 0.05478913
000010 8d 2e 31 3d 32 5e d3 3c fa 7f 33 3a 30 73 9d bd
       0.043257285 0.025801752 0.0006847378 -0.07687986
000020 2f a7 e6 bd 9d 61 99 3d 53 d3 c9 3d df 00 49 bd
       -0.112623565 0.074893214 0.0985476 -0.049073096
000030 a5 17 b4 3d da 87 da 3a 31 0b 13 bd 2f 90 d1 3d
       0.08793572 0.0016672567 -0.035899345 0.10232579
000040 a9 40 37 3c 55 69 58 bc 5a e2 e2 3d 2b b5 38 bd
       0.01118485 -0.013208707 0.110783294 -0.04509465
000050 59 f6 c1 3d ca 0e 08 3e cb 74 0b 3e a8 b6 d3 3c
       0.09470815 0.13286892 0.13618772 0.025843933
000060 90 5b 32 bc 46 30 ef bd 62 c9 7d 3d c0 61 cb 3d
       -0.010886088 -0.11679129 0.06195963 0.09930754
000070 1a 2a ce bd c6 6f 0f 3e 27 1d 1f 3e d7 de 74 b9
       -0.10066624 0.14007482 0.15538464 -0.00023352668
000080 71 ff 91 bd bc 83 f8 bb fc c6 bb 3d 07 43 9e bd
       -0.071288 -0.0075840633 0.09168813 -0.07727628
000090 83 a8 9c bd 56 14 ed 3c 6d b8 3f bd da 54 bb 3d
       -0.076493286 0.028940361 -0.04680674 0.091470435
0000a0 89 b4 e0 3c 9a e6 c2 bc 77 89 75 3d cb 87 18 bd
       0.027429836 -0.0237916 0.05994555 -0.037238877
0000b0 e6 58 25 3e e5 38 02 3e ce 63 6a be 22 12 60 3d
       0.16147193 0.12717016 -0.22889635 0.054704793
0000c0 e2 12 35 3e b4 14 93 3d 1f 2d 03 3e 91 00 98 3d
       0.17682984 0.07181683 0.12810181 0.07421983
0000d0 da 3e 3b 3a 5e 52 de 3d ae 65 cb 3d 4a cf 30 3e
       0.00071428495 0.10855554 0.09931503 0.17266575
0000e0 55 91 d5 3d 41 58 6c 3d 45 79 05 be 46 e1 8b 3c
       0.104281105 0.057701353 -0.13034542 0.017075192
0000f0 a4 d9 76 3c 2b b1 45 bb bf 4a cb bc 9e 1e 86 3d
       0.015066538 -0.0030165415 -0.024815915 0.065488085
000100 33 21 7f bc f2 d4 36 3c 2a 46 ae bd 69 6c ae 3d
       -0.01557188 0.011159169 -0.085094765 0.08516771
000110 62 a4 2c bd 31 2f 94 3c d3 b2 85 bd ad ec e6 bd
       -0.042148955 0.018088909 -0.06528249 -0.11275611
000120 21 86 53 bd 41 fa 5d 3d dd 38 60 3d c6 1e 85 3d
       -0.051641587 0.05419374 0.05474173 0.0650001
000130 7d 37 82 ba 2e 35 02 bc 79 1b 04 bc d0 bf a3 bc
       -0.000993475 -0.007947249 -0.008063191 -0.019988924
000140 83 76 17 be 4a d9 ab bd 45 86 94 bd 9e b3 05 3d
       -0.14791302 -0.08391054 -0.072521724 0.032642
000150 9a 13 f4 bd 5e 1a fa 3d 6b ae e0 bc 62 e1 0d bc
       -0.11917801 0.122120604 -0.027426919 -0.0086596925
000160 12 d8 9f 3c 7b 0e 02 be f4 42 09 3e d9 d1 e0 3d
       0.01951221 -0.12700836 0.13404447 0.10977525
000170 48 a6 01 bd 90 b3 8a bc e0 d3 01 3d a3 cf 92 3c
       -0.03165272 -0.016931325 0.0316962 0.017921275
000180 49 31 ef 3b ff 8f b8 bd a4 bc a2 3d fa 06 31 3d
       0.0072995764 -0.0901184 0.079461366 0.043219544
000190 6b f9 b0 3d 24 9e 8b 3d a8 6c c6 3b 5f 93 af bd
       0.08641323 0.06817272 0.0060554333 -0.08573031
0001a0 12 a7 4d 3c 37 74 45 3e 9e e6 9d bd 82 38 e0 3d
       0.01255204 0.19282614 -0.07710002 0.10948278
0001b0 bd 05 a6 bd 59 7d 0a bd 93 a8 78 3c a2 f1 d4 bd
       -0.08106563 -0.033810947 0.01517691 -0.1039765
0001c0 57 17 3c be af df 6a 3d 9e 6c 15 bc 88 0f 2c 3c
       -0.18368278 0.057342228 -0.009120135 0.01050175
0001d0 79 b8 22 3e 79 15 98 3d d5 a5 b9 3d c4 70 b9 bc
       0.15890683 0.074259706 0.09064833 -0.022636779
0001e0 8f ef 96 3c 8a ea 93 bc 55 bb 03 be d8 ae 42 3d
       0.018424777 -0.018056173 -0.1286443 0.047530025
0001f0 94 95 0d be 7d 42 a3 bb 56 11 2f 3e 96 79 3f 3d
       -0.13826591 -0.0049822913 0.17096457 0.046746813
000200 f3 15 1c be 08 1f e2 bd 07 13 89 3d 0a 67 92 bd
       -0.15242748 -0.11041075 0.06693082 -0.071485594
000210 44 75 57 bb 53 6d ac 3d 22 0a 0b bd 41 98 1c 3e
       -0.0032876292 0.084192894 -0.03394521 0.15292455
000220 5c 90 48 3d ed 27 03 be 70 d1 76 bd 4e b9 da bc
       0.048965797 -0.12808199 -0.06025833 -0.026699688
000230 e5 96 88 3d 5b b6 d0 3d e2 e2 8f 3d f0 38 ca bd
       0.06669406 0.101910315 0.07025696 -0.09874141
000240 a9 97 de 3d 0a db 53 3d 63 2c 48 3c 8f 36 73 3c
       0.10868771 0.051722564 0.012217614 0.014844551
000250 6f 1f 04 be b6 3a ca bd 4f 8e b6 3c 67 08 04 be
       -0.12902616 -0.098744795 0.022284655 -0.1289383
000260 43 f2 82 3d 43 c2 89 3a 6c c9 37 be 16 aa 7a bd
       0.06393864 0.0010510165 -0.1794793 -0.061197363
000270 95 d1 d2 3c c4 89 05 3d 62 b7 20 3d ea 8e a3 3c
       0.025734702 0.032602087 0.039237387 0.019965608
000280 bf 04 10 3b 89 cf ad 3c 2e 57 01 bd 49 0e 4d bc
       0.0021975485 0.021217125 -0.03157728 -0.012515613
000290 1f 53 fe bc 61 c5 fa 3d 6d bd 5a 3c 21 d6 14 3c
       -0.031045495 0.12244678 0.013350827 0.009084255
0002a0 2b db 78 3d 85 71 c5 bc d4 51 98 3d a0 d3 2b be
       0.06075589 -0.024101982 0.074374825 -0.16779947
0002b0 15 78 12 3c 9d 65 46 3d 7c aa dc 3c 36 44 7a bd
       0.008939763 0.04843675 0.026936762 -0.061100207
0002c0 55 9e 7a bc da 1c e9 bc 86 78 58 bb 62 13 0d be
       -0.015296538 -0.02845614 -0.0033030822 -0.13776925
0002d0 2b 7c f1 3d 19 4a a6 3c 5a fd 92 3d 2c d7 b7 bd
       0.11791261 0.020299004 0.07177229 -0.08976588
0002e0 60 eb 35 be a6 ad e6 3a 10 d8 89 bd 71 de 3e 3c
       -0.1776557 0.0017599359 -0.06730664 0.011649714
0002f0 42 bc 06 be 10 28 25 bd 4d 1b 13 3d 28 56 f4 bd
       -0.13157752 -0.04032141 0.035914708 -0.119304955
000300 1e fa 02 bc c6 8d ce bd 43 fd 3b bd 7f b1 92 3c
       -0.007994203 -0.10085635 -0.045895826 0.017906902
000310 d9 c7 eb 3c fa 45 1d bd 8d 26 2d 3d 28 bd 92 bc
       0.028781818 -0.038396813 0.042273093 -0.017912462
000320 e9 30 b0 3d c8 c4 e6 3c e0 01 2e 3d 6a 12 87 3c
       0.08603079 0.028170004 0.042482257 0.016488273
000330 9a 04 93 bd b4 72 aa bc 79 09 8d 3d dd 12 bb 3d
       -0.07178612 -0.020806648 0.068865724 0.09134457
000340 73 56 68 3b 76 48 51 3d ee d9 83 bc 00 3f fc bc
       0.0035451918 0.051094495 -0.016095128 -0.03079176
000350 b2 a0 4b bb d4 43 9f bd f4 11 29 bb bd cf de bd
       -0.0031071124 -0.07776609 -0.0025798054 -0.10879467
000360 9d f8 7f 3d cc 73 fc 3d e1 be fa bc d1 e7 59 bd
       0.062492955 0.12326774 -0.030608596 -0.053199593
000370 b9 0b f5 3d 48 c1 21 3d 2c 1a 6f bd a8 07 00 bd
       0.119651265 0.039490968 -0.05837457 -0.0312573
000380 6e fa 87 bc 6f e5 33 3d d5 2f 40 3c 74 9e af bd
       -0.016598906 0.043919977 0.011730154 -0.085751444
000390 a9 d5 fb 3d 88 04 68 bd a2 04 f5 3d 69 8a 89 bd
       0.12296612 -0.056644946 0.11963774 -0.06715853
0003a0 f0 0f ad 3d a5 2b 1a 3d 2b 3c 79 3d ad 6d d1 3c
       0.084503055 0.03763928 0.060848396 0.025564993
0003b0 4e 02 38 bc 43 dd d6 bd b7 4f c0 3c 63 56 ba 3d
       -0.011231018 -0.10491421 0.023475511 0.09098508
0003c0 7d c0 8b 3c 0f df 09 bd 97 28 5a bd cf 3b b7 bc
       0.017059559 -0.03365999 -0.053261366 -0.022367386
0003d0 3f 4b 30 bd 30 a8 25 bd 90 06 f0 bd 69 08 1a 3d
       -0.04304051 -0.0404436 -0.11720002 0.037605677
0003e0 96 33 fe 3d e3 72 99 bc cc 03 bd 3c b9 0e e0 bb
       0.12412183 -0.01873154 0.0230731 -0.0068376926
0003f0 21 0e 72 3c b1 e1 a6 bd 8d 98 10 3e 9c 84 60 3a
       0.014773876 -0.08148516 0.14120694 0.0008564682
