models/rusnet_5_layers_50_hidden_50kEpochs.ckpt (torch, 376671 bytes, 23 tensors)

encoder.weight f4 [167, 50]
00000000: 976c bfbe 7acb 8cbf 7ab0 17bf 84e0 793f
00000010: b6f3 413e 22a0 0940 3f27 b0be beee 223e
00000020: ec0c 5f3f 89ac 8bbe 67d3 5a3f 6e18 c6bf
00000030: def7 97bf 8415 8b3f 1e92 66be 6998 a83f
00000040: 239a 6abf a220 3540 3266 32bf 42cf 90bf
00000050: 0e48 5d3f 06dc d0bf 28ab 81bf 2447 9fbe
00000060: 569d 1cc0 da71 053f 1998 563f 94d7 9f3e
00000070: db55 bc3e 3031 f8bc 2f7f 11be f2fb 83bf
00000080: 0552 43be e7b2 9b3f af73 a2bd 39fa 653e
00000090: 1547 9abe fe52 ebbf d023 6fbe 8d28 adbf
000000a0: 939c 07bf 15ea 52bf 881b bc3f ac80 9bbe
000000b0: bf50 cfbe 8457 bbbf d486 ac3d 6d39 37bf
000000c0: c614 11bf f255 1dbf e938 a93f 58c1 553f
000000d0: c463 8abf ea0d fdbe 4ef4 19c0 1202 8b3e
000000e0: fb0e 9d3f 5c1e cdbe 3b85 263e f0d5 f9bd
000000f0: 3ca0 c33f 1b2e 74be f9d8 2cbf 9391 bebe
00000100: 3a65 313f 483f ff3f 85cb bf3e 040f 463f
00000110: c3cc 55bf 4152 f3be 5a60 f7bd 0158 b43f
00000120: f09c ad3e 7ffa 573e 1dcc 37bf 378d 223f
00000130: 84d0 10be b647 52bf 7a37 d0bf cdcf 783f
00000140: af4c 1f40 367e b13f 6110 79bf 426f 0c3f
00000150: 0da8 543f 7d6c 63bf 2731 4fbe d4dd e9be
00000160: e91d 1b3f 3787 aebe f326 bcbf 8170 6fbf
00000170: 6559 983e c4a7 383e 0c9e c23f e76d 963f
00000180: e6da 053f 491b 60bb 4a0b 58bf a161 a1be
00000190: 5b09 51be 148c 2bbf 5c03 04bf 1a12 2e3f
000001a0: b20b 823f ed6a dd3d 77fe 853f 50c7 213e
000001b0: ee26 953f c79b dabf 36ef 003f 2c8a 9f3f
000001c0: 86f2 2d3f 0aa4 d4bf da09 debe 1fba 963e
000001d0: d64b 97bf 18c7 a13f 233a a03f 287e 7d3f
000001e0: bb33 133d 109d b83e 0bb3 5d3e da10 cfbf
000001f0: 24db f7be c04c 683f 049b 96bf cdf7 febe
00000200: eacc 96bf 218a 26bf 13e9 643f 3f05 643e
00000210: 0c6d cfbf 0881 1740 e09f a9bf 1d40 dc3e
00000220: dcfa cd3e 6b0f ebbf 0fb4 cbbe f042 e13f
00000230: 9259 183e 29ea cabf 2c78 b23c 935b 713e
00000240: aa52 f03f 9f16 d13e f84c 943f f56e 90bf
00000250: 5f1b 0c3e 34fe 06be 2d47 90bf 8534 24bf
00000260: 515c 9bbf ab9d 333f 0f25 02bf 685d 873f
00000270: aafa b9be a497 a4be 7c4d 0a3e acf6 88bf
00000280: 7be4 223d 1b82 c63e 228f 1f3f a83a 953e
00000290: ba17 06be 028a df3f e814 883e 2474 ca3f
000002a0: 9f01 e33f 8c5e 293f b8bb 273f 1a0a 17bf
000002b0: 7d54 81bf 9e25 0a3e 7c75 88bf aaa8 953f
000002c0: 098f f3bf 2302 943e f013 913e 0a8b 733f
000002d0: a901 92bf 8454 213f 72cd fabe 0467 f83e
000002e0: 9be3 66bf a51f 2bbf ebdb 0f3e 6cdb 433f
000002f0: f290 1a3e 62cf 6f3f 09b6 0340 92e4 623f
00000300: 3263 be3f 032c 84be 5e19 94bf a97e 8cbf
00000310: 5890 05bf 82bf 83bf b5df 853f 7827 29bf
00000320: 7cd4 ddbe 0d5f fbbf eb20 c53e 85eb 853f
00000330: 7d89 f8be a934 34bf a540 0abf 1700 153f
00000340: 0cde 96bf d9de 84bf eff2 04bf b45c 4d3f
00000350: 30f0 03bf 6e9c e1be 1fa2 08bf bed5 b43f
00000360: 5cd4 a4be 8dfc 0ac0 4e02 183f 715e 86bf
00000370: 077c 84be 6891 ac3e 97ca fdbf 832c d5bf
00000380: 979e f4bf fb3b 67bf 11ec 563f 88ba bcbe
00000390: 531d 4f3f 22e9 5c3f 6b2a ec3e 88c0 443f
000003a0: 229d 2bbd de60 2d3f 89fe fc3e 660c 46bf
000003b0: 5931 41bf 3fe3 b53f 4768 e93f 3eac e93f
000003c0: 81ee 9a3f 8523 213f 234c 9a3e 5ba8 b63e
000003d0: c9ed 323f c4ef 8f3f 989f 01c0 8ae7 3dbf
000003e0: e510 d73c 3388 28bf 3d42 bcbe 02d3 3ebe
000003f0: ded6 4ebd e7c9 923b 896a 963e 52cb 8a3e
-0.37387535 -1.0999596 -0.59253657 0.9760821 0.18940625 2.1503987 -0.34404942 0.15911385
0.8712909 -0.2728007 0.85478824 -1.5476205 -1.1872518 1.0865941 -0.22516677 1.3171512
-0.91641444 2.8301167 -0.6968719 -1.131325 0.8643807 -1.6317146 -1.0130358 -0.31108963
-2.447103 0.5212685 0.8382583 0.3121916 0.36784253 -0.030296892 -0.14208673 -1.0311263
-0.19074257 1.2163972 -0.07932221 0.22458734 -0.30132356 -1.8384702 -0.23353505 -1.3528
-0.5297329 -0.8238843 1.4695902 -0.30371606 -0.40491292 -1.4636083 0.08424154 -0.71572
-0.5667232 -0.6145927 1.3220493 0.83498144 -1.0811696 -0.49424678 -2.4055362 0.27150017
1.2270197 -0.40062225 0.16261761 -0.121990085 1.5283275 -0.23845713 -0.67518574 -0.3722044
0.69295084 1.9941187 0.3745996 0.7736666 -0.83515567 -0.47523692 -0.120789245 1.4089357
0.33908796 0.2109165 -0.7179583 0.63496727 -0.14142042 -0.8214067 -1.626693 0.9719208
2.4890554 1.3866642 -0.9729062 0.54857266 0.83068925 -0.88837415 -0.20233594 -0.45677054
0.60592514 -0.34087536 -1.4699386 -0.9353104 0.29755703 0.18032748 1.5204482 1.175229
0.5228714 -0.003419595 -0.84392226 -0.31519797 -0.20413725 -0.6701062 -0.51567626 0.6799637
1.0159819 0.1081141 1.0468282 0.15798688 1.1652505 -1.707879 0.50365007 1.2464042
0.67948186 -1.6612561 -0.4336689 0.29438874 -1.1820018 1.2638884 1.2517742 0.99020624
0.035938006 0.3605733 0.2165033 -1.6177018 -0.4840938 0.9074211 -1.1766057 -0.49798432
-1.1781285 -0.6505452 0.89418143 0.22267626 -1.6205153 2.3672504 -1.3251915 0.43017665
0.40230453 -1.836408 -0.3978581 1.7598553 0.14877918 -1.585271 0.021785818 0.23570089
1.8775227 0.4083757 1.1585989 -1.1283861 0.13682316 -0.13182908 -1.1271721 -0.6414264
-1.2137548 0.7016246 -0.50837797 1.057538 -0.36324054 -0.32146943 0.1350612 -1.0700278
0.039768677 0.38771138 0.6232778 0.29146314 -0.13094988 1.7463992 0.2657845 1.5816693
1.773487 0.6615989 0.6552081 -0.5899979 -1.0103909 0.13490912 -1.0660853 1.1692097
-1.9028026 0.2890788 0.28335524 0.9513403 -1.1406757 0.63019586 -0.48984867 0.48516095
-0.9019105 -0.6684516 0.14048736 0.76506686 0.15094355 0.93675816 2.0579855 0.8863002
1.4874022 -0.25814828 -1.1570241 -1.0976154 -0.52173376 -1.0292819 1.0458895 -0.6607585
-0.43326175 -1.9638382 0.38501677 1.04625 -0.48542395 -0.70392853 -0.5400489 0.5820326
-1.1786513 -1.0380508 -0.5193319 0.8021958 -0.5153837 -0.4406466 -0.5337238 1.4127729
-0.32193267 -2.1716645 0.59378517 -1.0497571 -0.25875875 0.33704686 -1.982745 -1.6654209
-1.9110898 -0.903259 0.8395396 -0.36861062 0.8090412 0.8629323 0.46126112 0.7685628
-0.0418979 0.6772593 0.49412945 -0.7736267 -0.75465924 1.4209975 1.8234948 1.8255689
1.2104036 0.62944824 0.30136213 0.3567532 0.6989408 1.1245046 -2.0253658 -0.74181426
0.026253173 -0.65832824 -0.36769286 -0.1863518 -0.050497882 0.004479635 0.29378155 0.27108246

gru.weight_ih_l0 f4 [150, 50]
00000000: 235a 0cbd 2141 a23d 6bf1 05bd 31ac 01be
00000010: 673c 38bb 7694 cabd 902d 11bc 68d6 91bd
00000020: d569 d9bc e76c 613d 5cf8 acbd 112e 843c
00000030: 55a8 063e 2c24 043e 8ab1 8cbd 755c 15bd
00000040: 4386 d5bd 9b68 2d3d 9342 0e3e 0e88 0d3e
00000050: 77a3 ecbd 12ba 9fbd 4d0b e1bc 1380 e6bc
00000060: e296 8e3d 9a46 703d 6119 e43d dfc9 cf3b
00000070: 1ce5 a23c b250 723d 6971 76bd 39bc 023e
00000080: 6660 923d 7010 6b3d e183 023d 239e f43d
00000090: bf76 743c 6a5a bcbd 51ad 1abc 1f38 b23d
000000a0: 337e 88bd 6bda 9bbd 096e 98bb efa9 7fbd
000000b0: 4f69 af3d c11d 64bc 3c29 a93d 204a 0abe
000000c0: ea27 2eba fd2f e5bc fd73 1cbb 7c67 eb3d
000000d0: 458e b23d 1024 06be 001d 743d 8228 a33d
000000e0: eea2 083b 8463 00bd 1418 cbbd 5841 1ebd
000000f0: 41f9 9abd 8620 8bbd 13fa 99bd 595a e2bc
00000100: d95b fd3d db56 ea3d 0c94 0ebc 45fe d43d
00000110: 397f 94bc d27b 97bd cebc 023c dccd 683c
00000120: d899 dfbc 5919 f7bd dba7 05be 9053 0f3d
00000130: 74e7 a83b 1ff3 ccbc 2fd1 c7bc f538 e3bd
00000140: 7148 923d d0b1 e93d 332f 4e3d f733 b9ba
00000150: 0d1c 943c c9cb 00be d891 0f3e a880 86bd
00000160: 7652 e6bc 459d 97bd 43c6 ff3d 20b5 0c3b
00000170: 626a 8d3b 7671 0b3e 2219 c03b c322 3abd
00000180: af7b ff3c 61af 073e 0f86 afbd 0176 983d
00000190: cee0 68bd 81c7 80bd 111d 033e 1087 30bd
000001a0: b923 adbd 8e90 ed3c 9dd0 5ebd decb 8f3d
000001b0: 1520 e3bd 51e8 1f3d 5ad3 133d f0f0 c23b
000001c0: 854e 8cbd 97f8 b83c b8ee 03be 11d0 9c3d
000001d0: b676 15be 160a 8ebd 8310 05be ca57 85bd
000001e0: 8e90 90bd 3122 8a3d 89ae 3ebc 18bf a23d
000001f0: 97d0 103e 8bdc f6bd 5981 20ba 3052 a3bd
00000200: 59d3 7a3d f6bd 96bd 84a8 003e e5fa 123e
00000210: 7f23 0a3d 1a24 a23d 9492 eb3d 5f8e e6bd
00000220: ca8b ebbd bb0e b23c f5e4 d1bd 906a b63d
00000230: c08f cf3c 08c5 4fbd 088a eabb ae81 d2bd
00000240: a1b4 003e e524 3fbd fcec b33d fff3 103e
00000250: 5590 133e 1a29 cd3d 6c65 7fbd 836b 5dbd
00000260: 0830 333d f9fa bf3d 4fc6 8ebd 4566 7abd
00000270: 561a 583d 44d7 dbbc 718e a5bd fbf8 003e
00000280: 9624 e43b 9a38 ed3d becc 453d 783e f23d
00000290: 4f95 0c3e d526 cfbd e731 d53d 6b42 8e3d
000002a0: 9056 21bd 1f4f f33c be92 003e 973b e13d
000002b0: d853 0abb 5786 fbbd 9b91 ec3d 2f20 d2bd
000002c0: 8f1a 373d b9ec 07bc e274 8abd 05a1 5c3d
000002d0: 4bb1 cf3d 75c7 553d 6e18 973c 5a80 103e
000002e0: cd9b 953d fbb4 123e adaf 0b3e e47f 40bd
000002f0: 2579 d63d c6e7 37bb 1e85 8e3d c642 79bd
00000300: 9ca3 c73d b995 ddbd cb7c b3bd d758 44bb
00000310: 6c67 243c 37fa 83bc eafb ab3c bffa bb3d
00000320: c5fc f83d 9f23 0e3c 5c24 9d3d 660e 0b3e
00000330: 7e67 393d 2492 4e3d 410d aebd 5883 d63d
00000340: 27cc b83d 6f47 99bc 4f4b c73d 2ccd a5bd
00000350: 2981 0ebe e25b 993d 6e2f e83d 7f6b 81bd
00000360: ce24 50bd 1def adbd 1cd5 e73d 61e9 713d
00000370: 657c a73d eba4 08be f372 993d b4f9 2e3c
00000380: 3bfb f93d ad7a 633d a95c 5dbd b47b b53d
00000390: d642 dfbd a004 043e c907 b43c 20b0 983b
000003a0: 7aeb ef3c 7bff b83c 928c 063d 75fc 0e3d
000003b0: 7a0c df3d 5a5f aabd e7fd c4bd fc98 dcbd
000003c0: a6bd 013e d1f2 923d dc85 7fbd f02e 613d
000003d0: 7cdd 003e 2905 0bbc be33 08be 4be6 923d
000003e0: 50ef d23d 2364 073e ff43 903d ca84 2abd
000003f0: 107b 1dbd 5e6e d0bd a4e9 3ebd 4202 973d
-0.03426565 0.079225786 -0.032700937 -0.12663342 -0.0028112174 -0.09891598 -0.008860961 -0.07120973
-0.026539722 0.055035498 -0.08445808 0.016135247 0.13150151 0.12904423 -0.068698004 -0.036465127
-0.10425999 0.042336088 0.13892584 0.13821432 -0.11554616 -0.07799162 -0.027471209 -0.028137242
0.06962372 0.05866108 0.11137653 0.0063412036 0.019884638 0.05915899 -0.06016675 0.12767114
0.07147293 0.057388723 0.03186405 0.11944225 0.014920889 -0.091969326 -0.009440736 0.087021105
-0.066646956 -0.07610019 -0.004651789 -0.06241792 0.08565008 -0.0139231095 0.08259818 -0.13504839
-0.0006643521 -0.027976984 -0.0023872845 0.114943475 0.08718542 -0.13099694 0.05959797 0.079667106
0.0020849067 -0.031344905 -0.09916702 -0.038636535 -0.07567073 -0.06793313 -0.07518401 -0.027630972
0.12371034 0.114423476 -0.008702289 0.104000606 -0.01812707 -0.07396664 0.007979585 0.014209237
-0.027295038 -0.120653816 -0.13052313 0.0349918 0.0051545445 -0.025018273 -0.024391739 -0.11094848
0.07142723 0.11410868 0.05033798 -0.0014129867 0.018079782 -0.12577738 0.14020479 -0.06567508
-0.028115492 -0.07403044 0.12488987 0.0021470264 0.0043156603 0.136175 0.005862371 -0.045443308
0.031186907 0.13250495 -0.085704915 0.074443825 -0.056855015 -0.06288052 0.12804057 -0.043097556
-0.08454079 0.028999593 -0.054398168 0.070213065 -0.110901035 0.039039914 0.036090232 0.005949132
-0.06850914 0.022579474 -0.12884033 0.07656873 -0.14596066 -0.069355175 -0.1299458 -0.06510885
-0.070588216 0.06744803 -0.011638292 0.079466045 0.1414207 -0.12053784 -0.000612279 -0.079746604
0.061236713 -0.07360451 0.12564284 0.14353521 0.033725258 0.07917042 0.11502567 -0.11257624
-0.11501272 0.02173554 -0.10248748 0.08907044 0.0253371 -0.050725013 -0.007157568 -0.10278641
0.12568904 -0.046666045 0.087854356 0.14155577 0.14410527 0.10017605 -0.062352583 -0.05405761
0.043746978 0.09374041 -0.06971418 -0.061132688 0.05275949 -0.026836045 -0.08083809 0.12594979
0.006962369 0.115830615 0.04829096 0.11828321 0.13728832 -0.101148285 0.10409909 0.06946262
-0.039389193 0.029700814 0.12555978 0.10997694 -0.0021107104 -0.12281483 0.115512095 -0.10260045
0.044703063 -0.008296185 -0.06760575 0.053864498 0.10141238 0.05219217 0.018444266 0.14111462
0.07305107 0.14326851 0.13641234 -0.046996966 0.10472325 -0.0028061732 0.06958984 -0.060854696
0.09748003 -0.10819573 -0.08764037 -0.002996018 0.010034423 -0.016110523 0.020994145 0.091786854
0.12157587 0.008675485 0.076729506 0.13579711 0.045264713 0.05043234 -0.08498622 0.104742706
0.09023314 -0.01871082 0.09731161 -0.08095774 -0.13916458 0.074882284 0.113371715 -0.063193314
-0.05081635 -0.08492873 0.11319944 0.059060458 0.08178023 -0.13344161 0.07492628 0.010679651
0.122061215 0.055536915 -0.054043446 0.08861485 -0.1090142 0.1289239 0.021976369 0.0046596676
0.029287089 0.02258276 0.032848902 0.03490873 0.108910516 -0.08318968 -0.096187405 -0.10771367
0.12670001 0.0717522 -0.062383518 0.054976404 0.1258449 -0.008485117 -0.13300988 0.07172831
0.102995515 0.13221793 0.07044219 -0.041630544 -0.03844744 -0.10177301 -0.046609536 0.073734775

gru.weight_hh_l0 f4 [150, 50]
00000000: 5b9e 7b3d 81c9 16bd 4f99 a73c a97d ab39
00000010: 120e e23d bc0c f83d 8ff8 0f3e a22f af3d
00000020: e017 c73d 0527 873d 1ced 393c ee23 d33d
00000030: b034 b6bd e230 173e 4611 4cbd 2f76 013e
00000040: 4bdb 74bd f83b 0fbe 3457 a438 f59f c1bc
00000050: 49bd 7cbd 41b2 45bd 3fd8 d5bd d052 d83d
00000060: 54ed 5f3d 93c3 1d3d 5c07 c4bd 5cc2 03be
00000070: 3ae3 a1bd 8d8b 943d ad0b 3a3d 58bf aa3d
00000080: 620e ad3c 642e 513d 312a b6bd d3c4 173c
00000090: 9f4a 3a3d bb78 313d 1977 ec3d 7a64 9cbd
000000a0: 5189 dabc 2b49 903d 333a 97bc 6dea 95bd
000000b0: 387f f73d b7b8 b23d 7d58 1ebd db7e e9bd
000000c0: cae8 0abe c427 67bc 4fa9 ff3d 825d 84bd
000000d0: 35f8 f2bd bf33 d2bd 3852 c1bd 4ea1 8fbd
000000e0: a875 bd3d abdf cfbd 9122 763d 95d1 debd
000000f0: d3fe 74bd 9276 36bd 130e 853c 5f73 02be
00000100: e618 e8bc 70ee 37bc 81bd 433d 119b 8a3d
00000110: ffa3 dbbc 951e 8abb 3b25 393d 1b16 193e
00000120: 7757 d0bc 5218 69ba 5a42 673d 286b 04be
00000130: 542c c13d e068 f03c 34d0 cc3d 1fc5 07be
00000140: 31dc 0a3e 1102 debd d6bb dfbd 6457 9d3d
00000150: 1930 6b3d 660f f43d 3f49 f83b bef5 83bd
00000160: 948b 033d 429a eabb ac62 a5bc 73ea 6a3d
00000170: 5b15 e23c af41 0bbe 8036 7a3c 0f7e 1d3d
00000180: 20cf 65bd 5194 fd3d 94ee debd 31a2 b2bd
00000190: 1eaa 72bd 6544 96bd 0fb1 b23d 9cce 94bd
000001a0: 6a4f 31bd f219 76bd cfba d3bd 5f01 18be
000001b0: 15ff b23d 83db 87bd 3154 ff3c 34fa a23c
000001c0: daeb 01bd 9e7d 05be c493 95bd 4c13 f23d
000001d0: 6122 fbbd 57f2 01be 311c 603c 23fb e3bd
000001e0: 7291 adbd f4e2 ddbd b426 363d ea8f 2a3d
000001f0: 160c 88bd 5b51 073d 1a11 e1bd e217 adbc
00000200: fa1b 0bbe bc3b 0c3d 9d3e 90bd df10 81bd
00000210: 4618 91bc 9cc3 073e aa1f 663b db08 86bd
00000220: 4469 c1bd d79d 723d 702e 773c 3e88 81bd
00000230: 7aab 0f3d a173 1a3c 8ecd babd fa5c 283d
00000240: eedc cc3d 41c7 923d 2dbd a73b 8635 1b3d
00000250: 61e2 6c3d e332 82bd e8ef 573d 6768 da3d
00000260: d135 143d da52 07be 0d16 253d 5385 cdbd
00000270: 6659 3f3c a161 633d 4c85 e93d ffa7 8d3b
00000280: 228d b03c dbcc 7a3d b8ea 253d 54dd d5bd
00000290: 1613 d7bd 1965 02be ac60 913d 125c 06be
000002a0: 9085 dc3d 3790 86bc 4273 71bd 69db 8c3d
000002b0: b082 033d 5623 81bd 5144 85bd e708 e73d
000002c0: d03b a13d 0767 3dbc 3c5d 08be 302e 14bc
000002d0: 5589 b63d d8c3 173d ffd9 c4bd 6272 9abd
000002e0: 41e4 063e 85eb b23c daf1 a1bd 272d ef3d
000002f0: 14dd f7bd a969 0dbe 0267 df3d df8a 5d3d
00000300: 7926 0fbe 272d 9a3c 3284 813c 2f0e a43c
00000310: 200a e83d 3aa6 66bd a92c af3d 9c16 bbbd
00000320: aa98 9d3d c7bf 21bd 72df b8bd 54b7 123d
00000330: 94cb a53d 7ff9 3f3d daa4 d6bb 8f8f f73d
00000340: 065f acbc 60a2 f2bc bfd9 ea3d 88a0 313c
00000350: a6f0 c8bd a4a5 0ebe 9ca2 09bd 279d 163d
00000360: f28d a63b 73bf 793d a144 7cbc 12c1 45bd
00000370: af0d 8bbd b888 93bd b524 023e 18cb 913d
00000380: eca2 b1bd be7f 09b9 3104 39bd bdf5 b9bd
00000390: 8810 37bb d3c6 efbc fca0 0a3e 0ca2 a43d
000003a0: 3388 e53d 0c86 bc3c cf95 8d3d 80eb 1dbe
000003b0: 1278 4a3d 5aff 893c b0c4 cebc 28d7 0abe
000003c0: 69b0 a1bc a213 e83d 7348 953d b2c5 80bd
000003d0: 30a1 c63d 0621 94bd 1a8f 00be f549 a9bd
000003e0: 8366 123d cd88 01be 140f e8bd e562 14be
000003f0: c58c 413d c120 4d3d c64c debd 8736 0cbe
0.061430316 -0.036813263 0.020458845 0.00032709286 0.1103784 0.12111804 0.14059661 0.08554007
0.09721351 0.06599239 0.011348035 0.103095874 -0.08896768 0.14764741 -0.04982116 0.1264274
-0.059779447 -0.1398772 7.836372e-05 -0.023635844 -0.061703954 -0.0482657 -0.10441636 0.1056267
0.054669693 0.038516592 -0.09571716 -0.12867111 -0.07904668 0.0725318 0.04542129 0.08337277
0.021125022 0.051069632 -0.08894766 0.009263235 0.04548132 0.04332803 0.115461536 -0.07636352
-0.026676806 0.07045206 -0.018460369 -0.07320104 0.12084812 0.08726638 -0.038658608 -0.11401149
-0.13565364 -0.014108602 0.12483465 -0.06463148 -0.11863748 -0.10263776 -0.0943951 -0.07013188
0.09250957 -0.10150083 0.06009156 -0.10879818 -0.05981333 -0.04454667 0.016242063 -0.12739323
-0.028332185 -0.0112262815 0.047788147 0.06767858 -0.026811598 -0.0042150714 0.04520152 0.14949839
-0.025432331 -0.00088918686 0.056459762 -0.12931502 0.09432283 0.029346883 0.10000649 -0.1325879
0.13560559 -0.10840238 -0.10924499 0.07682684 0.057418916 0.119169995 0.007577091 -0.06443356
0.032115534 -0.0071595022 -0.020188652 0.057352494 0.027598074 -0.13599275 0.015271783 0.038450297
-0.056105733 0.12381805 -0.10885349 -0.08722342 -0.059244268 -0.07337264 0.087251775 -0.0726597
-0.043288626 -0.060083337 -0.10338365 -0.14844273 0.08740059 -0.066336654 0.031168075 0.019894697
-0.031719066 -0.130362 -0.07303575 0.11820087 -0.12262417 -0.12690102 0.013678596 -0.11131885
-0.08475007 -0.108343035 0.044470504 0.041641153 -0.0664293 0.03303657 -0.1098959 -0.021129552
-0.13584891 0.034236655 -0.070431925 -0.06302046 -0.01771177 0.13258213 0.0035114088 -0.06544658
-0.09443906 0.05923256 0.015086755 -0.06324814 0.035075642 0.009426982 -0.09121238 0.041104294
0.100030765 0.07166911 0.005118987 0.03789284 0.05783308 -0.06357362 0.052719027 0.106644444
0.036184136 -0.13215199 0.040304232 -0.10035195 0.011679029 0.055513028 0.114023775 0.004323005
0.021551672 0.06123052 0.04050705 -0.104426056 -0.10501687 -0.12733878 0.07098517 -0.1312106
0.107676625 -0.016426189 -0.05894781 0.06877787 0.032107055 -0.06305568 -0.06507171 0.11280995
0.078727365 -0.011560208 -0.13316816 -0.009044215 0.08912913 0.037052006 -0.09611892 -0.07541348
0.1317301 0.02184082 -0.07907458 0.11678534 -0.12102714 -0.13809837 0.10908319 0.054087516
-0.1397952 0.018820358 0.015810106 0.020026295 0.11330056 -0.05631087 0.0855344 -0.09135172
0.07695134 -0.039489534 -0.09026994 0.035819367 0.0809547 0.046868797 -0.0065504136 0.120879285
-0.021041404 -0.029618442 0.11467313 0.010841496 -0.09811525 -0.13930374 -0.033602342 0.036770966
0.005082839 0.060973596 -0.015397222 -0.04827983 -0.06789719 -0.072038114 0.12709315 0.07118815
-0.08673653 -0.00013112926 -0.045170013 -0.09080074 -0.0027933437 -0.029269611 0.13537973 0.080387205
0.112076186 0.023013137 0.06913339 -0.15421867 0.049430914 0.016845394 -0.025240272 -0.13558638
-0.01973744 0.1133187 0.07289209 -0.062877074 0.09698713 -0.07232861 -0.12554589 -0.08266059
0.035742294 -0.12649842 -0.11331001 -0.1449085 0.04725339 0.050080065 -0.10854487 -0.13692676

gru.bias_ih_l0 f4 [150]
00000000: e6ff f63c bbf1 883d 8098 d6bd 6657 6a3d
00000010: 9335 b5bd 127a 09be cf3a afbd b544 033e
00000020: 19b2 6b3d 5ee3 893c d7dc 4ebd 9dbf 0f3e
00000030: a5a0 28be 363b b93d e88a eebc 434e fb3c
00000040: 770c 713d 67b1 173d 9121 7a3d 7dab 763d
00000050: 81b3 8bbd e6bc ffbd 7309 c23d 770c 91bc
00000060: 30a1 393e ac1b e63d d941 193e 7773 073e
00000070: ed86 1bbe 977c fd3d 3189 2a3d fa2a ccbd
00000080: 76bc 21bb 340b 1c3e 9c14 ea3b f666 cd3d
00000090: 0be3 f8bb e8c6 febb 6540 1b3e 4d7f 5dbd
000000a0: a5f5 0ebe d9e1 183d 7836 243c 38ea 56bd
000000b0: 6158 7dbb ff7c 313d 99a4 7bbd 481d 643c
000000c0: eab1 003d dc74 b6bc b8ae 073e 3756 42be
000000d0: b49d c9bc 0e1b e1bd 5562 a4bd 742d 00be
000000e0: 5880 e43d 18d0 9f3d c6a4 a2bd cd45 e6bc
000000f0: 52e5 2a3d b8bf b63d 4e38 363b fe20 813d
00000100: 5ed8 febd b1b5 04bd d042 e13d 9634 8dbb
00000110: a910 37bd 162a 1abe d2a6 b4bb 97c5 f3bb
00000120: 537e 0a3e 2af0 523c ec56 c2bd 3f61 263d
00000130: f211 b9bd a7b7 04be 709f cd39 f447 1bbd
00000140: b0fd f1bd 31ea 70bd f7d3 e6bd 92d0 c7bd
00000150: f71d cabd c8c5 0bbc 99da eabd 1c42 03be
00000160: ef93 05be 7c4b 2ebe 0867 803d e7ca d5bd
00000170: 5477 843d 6efe bcbd 2b5a f13d 871b 04be
00000180: 0413 aa3d a1b8 1cbd e3e0 91bd e754 0cbd
00000190: af0e 323d 773f 80bd 7bc9 2abd e7b2 2f3d
000001a0: a0ca 303e 25d6 413d 6c6c a4bd b5a0 393e
000001b0: df76 0a3d c8f9 503e a893 a13c 773e e43c
000001c0: 1795 fc3c 0f5f 9f3c f2af 37be f651 ae3c
000001d0: 8f92 cd3d 3497 013e c5bc 4dbe 1d58 8dbd
000001e0: 23eb 42bc ad9a c7bd 8901 453e 72c7 463e
000001f0: e0dc 513e 5a49 463e 324f 343e 666f e63d
00000200: f976 1e3b c972 37be 2fdc 66bd 6f19 ee3d
00000210: 2d75 02be ddc9 1fbc 4ada b13c e343 debb
00000220: a978 f23d 487d 6e3d 3791 b13c cea7 833d
00000230: 5af6 39be c220 f6bc eb23 6cbd d29d 543d
00000240: 7623 063d 40bf c7bd 6cd3 2f3e d53c fdbd
00000250: 8046 47be 0131 4cbd
0.030151319 0.066867314 -0.10478306 0.057212256 -0.08848109 -0.13425472 -0.08556139 0.12819178
0.057542894 0.01683205 -0.050503578 0.14037938 -0.16467531 0.09044497 -0.02911897 0.030676967
0.058849778 0.03703442 0.061067168 0.060222138 -0.06821347 -0.124872014 0.094744585 -0.017706139
0.18127894 0.11235747 0.14966525 0.1322764 -0.15188189 0.12377279 0.041634742 -0.09969135
-0.0024678982 0.15238649 0.00714357 0.10029404 -0.007595425 -0.0077751763 0.15161283 -0.05407648
-0.13960893 0.03732476 0.010022752 -0.052469462 -0.0038657414 0.043332096 -0.06143627 0.013922997
0.031419672 -0.02227252 0.13250244 -0.18978201 -0.024611332 -0.109914884 -0.08026568 -0.12517339
0.11157292 0.078033626 -0.07941584 -0.028109455 0.041722603 0.08923286 0.0027804556 0.06305121
-0.124436125 -0.032399837 0.109990716 -0.0043092472 -0.044693623 -0.15055117 -0.0055130506 -0.007439326
0.13524751 0.012874642 -0.09489235 0.040620085 -0.09036626 -0.12960683 0.00039219437 -0.037910417
-0.11815965 -0.058817092 -0.11270898 -0.097565785 -0.098689966 -0.008531041 -0.114674754 -0.12818187
-0.13044713 -0.17020983 0.06269652 -0.10439091 0.064680725 -0.09228216 0.11784776 -0.12901126
0.08304408 -0.038262013 -0.07122972 -0.034260657 0.043471035 -0.06262105 -0.041696053 0.042895224
0.17264795 0.047323365 -0.08028492 0.18127711 0.03380477 0.20407784 0.019723728 0.027861817
0.03083281 0.019454507 -0.17938212 0.021279316 0.100377195 0.12655336 -0.20091541 -0.06901572
-0.011896881 -0.09746299 0.19238867 0.1941202 0.20494413 0.19363919 0.17608336 0.11251716
0.00241798 -0.17914881 -0.056362327 0.11625945 -0.12740012 -0.009752718 0.021710534 -0.006782995
0.1183942 0.058224946 0.02167569 0.064284906 -0.18160382 -0.030044917 -0.05765144 0.05190832
0.032748662 -0.09753275 0.17170495 -0.123651184 -0.19460487 -0.04985142

gru.bias_hh_l0 f4 [150]
00000000: 79fa 5dbd c3f8 083d e233 8e3c 2894 59bd
00000010: 208d bcbd b856 98bd dd33 3fbd 5f84 de3d
00000020: db5f f33b c03a f8bc 6120 be3c 9b84 333e
00000030: 2349 d3bd 9793 cabd e974 fe3c 4323 edbd
00000040: 2eb0 553c 876e 333e c0b1 cd3c 2947 203d
00000050: 8244 b0bd 68d7 c6bd 57dd 41bd f41d f7bd
00000060: f948 3b3e d197 bc3d 8a73 55bd 5fa1 bd3d
00000070: 512d e23b 5436 853d f02f abbd 5330 573d
00000080: 8dec 633d 6899 9d3d d662 fe3d c4db 72bd
00000090: 4842 ce3d 0165 8e3d da6e 803d 27ee 4abc
000000a0: 8e5a b23c 2c83 28be 5b06 b03c 295f 843c
000000b0: 8c9c 083e 5c3d b1bc e68e 22bd 4154 00be
000000c0: a11e f9bc 8f85 0e3e 7790 ecbc f272 26be
000000d0: 02f2 81bd 47d2 d0bc 347f bcbc e166 d5bc
000000e0: d2f9 bfbd a4fd a0bd 8539 90bd 0ec6 11be
000000f0: c8ec 41bc 9474 6c3d 7535 bbbc e26a e9bd
00000100: 3eff dcbd 7fff bf3d 8c54 7c3d 0eec a83d
00000110: f5e7 703d c158 dcbd fb52 f6bd 006c 003e
00000120: 7857 b33d 11d0 9d3d 689a 14be 3e74 433a
00000130: bb76 0dbe e095 74bd 501d b4bd b53c 093d
00000140: 0a24 ae3d 2a83 033e 361b ebbd 0db4 1f3d
00000150: 6f2b a63d cc86 72bd 169b 22be fd14 18be
00000160: 4ac6 473c f05b b53d 9b7e 953d 0ab8 1fbd
00000170: f37c 5ebc df73 f7bd f1b6 cb3d e3c8 5c3d
00000180: eb30 74bd 36fc e23d 1100 173b 9a54 2cbe
00000190: 5713 bbbd 31eb ffb9 4f7b b23d c813 923c
000001a0: c0fa 53bc 2030 8b3d fb18 a7bd 1d75 463e
000001b0: 68d4 e8bd 66f0 173e 64d4 d4bc 6151 313e
000001c0: 3aaa c53c c0df 803d 5a34 5cbd 76ad 4cbc
000001d0: 5449 21bd 1162 4d3e ffea e8bd 8f2d 443e
000001e0: 5c1f d93c 2450 9bbb f148 6abd 56ca 9dbd
000001f0: a9fb 933d 1558 ee3d 84f9 2b3e 5499 2b3e
00000200: 13c3 613d 2b73 25bd 127d 043e 39ab 1fbc
00000210: eb23 2bbe ecd1 2a3d 82c8 e2bc 5f8e 40bd
00000220: 503f 023e e2ce dcbd b332 eb3d f526 bd3d
00000230: 49c3 743d 12d8 b33d 0a24 b23c 63ff 99bd
00000240: 3366 863d 6e7c 12bd 2656 603d 3bbe d2bc
00000250: e6f9 7a3d c4fe 3cbd
-0.054193947 0.033440363 0.017358724 -0.05311981 -0.09206605 -0.07438415 -0.04668032 0.108650915
0.0074271983 -0.030301452 0.023208799 0.17531054 -0.10316684 -0.09891432 0.031061606 -0.11578991
0.013042493 0.17522632 0.025109172 0.039130364 -0.08606817 -0.09709054 -0.047330227 -0.1206626
0.18289556 0.09208644 -0.05211214 0.09259295 0.006902375 0.06504503 -0.08358753 0.05253632
0.055645514 0.076952755 0.12421195 -0.059291616 0.10071236 0.06952859 0.06271143 -0.0123858815
0.021771695 -0.16456288 0.021487406 0.016158657 0.13340968 -0.021635704 -0.03968706 -0.1253214
-0.030410113 0.13918136 -0.02887748 -0.16254786 -0.063449875 -0.025490893 -0.023009874 -0.026050033
-0.09373821 -0.07860878 -0.07042221 -0.14235708 -0.011836238 0.057728365 -0.022852639 -0.113973394
-0.10790871 0.09374904 0.061604068 0.08248149 0.05881496 -0.10759116 -0.12027546 0.12541199
0.08756918 0.07705701 -0.14512026 0.0007455981 -0.13814823 -0.059713244 -0.087946534 0.03350516
0.08502968 0.12843004 -0.114797994 0.03899007 0.08113753 -0.059210584 -0.15879473 -0.14851756
0.012193272 0.08855426 0.07299539 -0.038993873 -0.013579595 -0.120826475 0.09947003 0.053902518
-0.059616964 0.11083262 0.002304081 -0.16829148 -0.09134548 -0.0004881262 0.087149255 0.017831698
-0.012938201 0.067962885 -0.081590615 0.19380613 -0.11368638 0.14837798 -0.025980182 0.173162
0.024129022 0.06292677 -0.053760864 -0.012492528 -0.03937657 0.2005694 -0.11372947 0.19158004
0.026504211 -0.004739778 -0.05719847 -0.07704608 0.07225735 0.11637894 0.16794401 0.16757709
0.055117678 -0.040393036 0.12938336 -0.0097454125 -0.1671292 0.041704103 -0.0276835 -0.047010776
0.12719464 -0.10781647 0.114842795 0.09235946 0.05975655 0.087814465 0.0217457 -0.07519414
0.06562462 -0.035763197 0.054769658 -0.025725475 0.061273478 -0.0461414

gru.weight_ih_l1 f4 [150, 50]
00000000: 8178 3ebd 4935 d53d 6b2a e93d ea37 09be
00000010: 761c c93d 514c 10be db11 8abc 604a 123d
00000020: c4ae 02bc 302e e5bc d27a 3f3d ba09 373a
00000030: dd51 743d 5ffd dc3d 8b89 43bd d7a2 cc3d
00000040: bf81 1a3e 4ac5 ab3d e607 9ebd a6e8 4a3c
00000050: 27c3 163d ecc5 5c3d 80e8 b5bc c777 0a3e
00000060: 82b2 853b f6d2 8b3d 2df2 b9bd 30ce 95bd
00000070: 65d1 9dbd bdd7 003d cc7a cfb9 dde1 053e
00000080: 41dc 9e3d 7ab1 ed3d 4869 ba3d 242c 7d3d
00000090: 03e4 a53d cd48 dc3d 7232 c4bd 3a57 df3d
000000a0: ac69 ba3d 76c8 5b3d bf51 7fbd 95ba ac3c
000000b0: 0ac5 993d 081b d93d ac1b 0c3e b9e0 90bd
000000c0: c680 16bd 9a58 b7bd c696 9abc 1e10 f93d
000000d0: 8aa5 81bd 6499 d13d 67d3 4c3c 8693 bdbd
000000e0: 5a17 013e 8276 d4bd 42d6 c53b 9c0c ffbd
000000f0: 0b76 113d f254 3f3c 20aa b7bd f1ce dcbc
00000100: a248 2ebc b425 043e a5da 9d3a 2d33 11bd
00000110: 1f0e 72bd 03ab fe3c a3bd 35bd a203 fc3d
00000120: ef65 18bd 3bb9 03be 6d74 003e f50a debd
00000130: 7e70 e1bd 4563 b63c 17a9 d8bd 772b debd
00000140: 8a5a 91bd 6014 e9bd a537 d3bc 80f1 15be
00000150: e8c9 0b3c 851e 1d3e f8cb 4a3d 5849 0e3e
00000160: 6180 b63d df01 a7bd 2ce8 773a a51e 60bd
00000170: e3e1 afbd fabb de3d 46e4 52bc 1192 70bc
00000180: 59c6 ed3c 3e02 d3bc c047 11bb 4cc1 ebbc
00000190: 8233 d33d 75d0 dc3d 753d 14bd 366c cdbd
000001a0: cef7 d2bd ce9f acbd 7eec dfbd 03ea ffbd
000001b0: fd51 86bd ca25 533d 8964 033e 3c02 1ebd
000001c0: a616 e73d 397e cb3d 8b35 ebbd d58f c5bd
000001d0: 23aa bb3d 3207 c93d 82ef 9c3d dfa9 a1bd
000001e0: 92a4 0cbe 9436 07be d286 ef3d a454 483d
000001f0: 4256 55bd dc9e ce3c 9659 cabd df92 97bd
00000200: 0679 05bd 8fc2 d43d 4f8d dcbd 778e c9bd
00000210: a8f6 153d 2e52 993c d771 bc3d cd89 00be
00000220: 7494 f93b d6a6 bc3c 094b 393d f4e4 523d
00000230: f829 da3d d8d7 a1bb 7349 e5bd 9a9d 60bd
00000240: 44fa d93d 2c09 e2bd 296a d83d 642c e4bd
00000250: 68a1 a63d 8210 0ebd 0684 823b feee 08be
00000260: e3a4 fc3d b34d f53d 8090 c13c 2e7e c63d
00000270: d71a c43c dc2a a2bd c80e e83d 9026 55bc
00000280: 5764 3c3d ba23 1a3e 6bc2 f5bd 3396 a0bd
00000290: 01ca eabd 246f c63c 2129 a83d 754c 0c3e
000002a0: 6361 c4bb f0cf e33d 84a2 c83d f434 9c3d
000002b0: 0da9 4bbd b6bb 563d 58ae 8d3d 3b9b a9bc
000002c0: 225a 933d 223c c1bc b041 ab3d b5a8 8539
000002d0: 3dfa c83d ebc1 e9bd 5809 bcbd de5d d6bd
000002e0: 32c3 573d da47 27be e786 dbbd 030b c93d
000002f0: ecba 2d3e 44fa b8bc 8d83 613d 8c18 533d
00000300: 6869 d6bd 9562 a83d d1be c53d c43d 543d
00000310: bbf5 173e a832 923d 5a76 6dbd be57 9cbd
00000320: 6e99 b13d c3cd 0fbe b5a3 9b3d 043b 523d
00000330: 9c28 41bd bf1d bb3d d30d 8e3d d386 963d
00000340: 7f45 05bd 5540 0d3e f01e e83d 8751 b3bc
00000350: 5ca6 81bb 1c59 11be 8ca0 d33d 0bad 02be
00000360: ae4e 1b3e 3330 dbbd c791 acbd 3b23 15bd
00000370: 1e50 a7bd 4ae6 bfbd 1e15 5bbd 8431 34bb
00000380: 342d 1d3d 9151 5e3d 8865 67bc 45fc debb
00000390: 2918 20bd e750 fd3b 5b2e ad3d 6ba3 5fbd
000003a0: dc28 963d 42db 463d 965f c0bb 3e60 583d
000003b0: 05fb 2d3d 547a bdbc 6f95 c0bd 9ca5 243e
000003c0: 78bf 7d3d cea3 84bd af53 5dbd 3495 79bc
000003d0: 7677 f23d 9600 bb3d 4ab0 a53d 9678 f83d
000003e0: 854e d2bc 3673 553d ff76 5cbb 1ec9 c33d
000003f0: 6e4e 0a3e c6f4 c7bd b43f 2c3e 0a60 df3d
-0.04650164 0.10410554 0.11385044 -0.13400236 0.098198816 -0.14091612 -0.016854217 0.03571546
-0.007976238 -0.027976125 0.04674799 0.00069823454 0.059648383 0.10790514 -0.047738593 0.09991997
0.15088557 0.08387239 -0.0771635 0.012384569 0.036807206 0.05389969 -0.022205591 0.13522254
0.0040801177 0.06827347 -0.090793945 -0.07314718 -0.077059545 0.031455744 -0.00039573608 0.13074441
0.07756854 0.116061166 0.09102112 0.061809674 0.081001304 0.10756073 -0.09579934 0.10905309
0.091021866 0.05365797 -0.06233382 0.021085063 0.07508285 0.10600859 0.13682431 -0.070741124
-0.0367439 -0.08952446 -0.018870723 0.12161277 -0.06330402 0.10234335 0.012501574 -0.092566535
0.12606564 -0.10374166 0.0060375044 -0.12453577 0.035512965 0.011677967 -0.08967996 -0.026954146
-0.010637434 0.12905008 0.001204331 -0.035449196 -0.0590955 0.031087404 -0.044370305 0.123053804
-0.037206586 -0.12863629 0.12544413 -0.10841934 -0.11007784 0.022264132 -0.10579126 -0.10848134
-0.07097347 -0.11380839 -0.02578337 -0.14642906 0.008532025 0.15343674 0.049510926 0.13895166
0.08911205 -0.08154654 0.00094568986 -0.054716725 -0.08588006 0.108756974 -0.012871807 -0.014683262
0.029025244 -0.025757905 -0.002216801 -0.028778695 0.10312559 0.107819475 -0.036191422 -0.10030405
-0.10301171 -0.08428918 -0.10933779 -0.12495806 -0.06558607 0.05154971 0.1283132 -0.03857635
0.11283617 0.099361844 -0.11484822 -0.096465744 0.091633104 0.098158255 0.0766287 -0.078937285
-0.13734654 -0.13204414 0.11695637 0.048908845 -0.052084215 0.025222234 -0.098803684 -0.0740106
-0.03258612 0.103886716 -0.1076914 -0.09841626 0.036612183 0.018715944 0.09201401 -0.12552567
0.007616574 0.023028772 0.045237575 0.051487878 0.10652536 -0.0049390607 -0.1119565 -0.0548378
0.106434375 -0.11036906 0.105671234 -0.11141279 0.081362545 -0.03468371 0.0039830236 -0.13372418
0.12336137 0.119777106 0.023628473 0.096920356 0.02393858 -0.07918331 0.11330944 -0.013009682
0.04599413 0.15052691 -0.11999973 -0.07841148 -0.114643104 0.024222918 0.0821097 0.13701041
-0.0059930547 0.11123645 0.097966224 0.076272875 -0.049721766 0.05242511 0.06918019 -0.020703902
0.07194926 -0.023588244 0.08362138 0.00025493433 0.09813354 -0.1141394 -0.0918147 -0.104671225
0.052676387 -0.16336003 -0.1071909 0.098165534 0.16965836 -0.022580273 0.055057097 0.05153708
-0.104693234 0.08221928 0.09655536 0.051816717 0.14839832 0.07138568 -0.057974197 -0.07633923
0.086718425 -0.14043336 0.07599584 0.051325813 -0.04715787 0.09136533 0.069362305 0.073499344
-0.03253698 0.13794072 0.11334026 -0.021889461 -0.003956599 -0.14194149 0.10333356 -0.12761323
0.15166733 -0.10702553 -0.08426242 -0.03641055 -0.08169578 -0.09370096 -0.053486936 -0.0027495334
0.038373187 0.054277007 -0.014123328 -0.006804975 -0.03908554 0.0077305916 0.08456107 -0.054599207
0.07332012 0.048548944 -0.0058707697 0.05282616 0.04247572 -0.02312962 -0.09403502 0.160788
0.061950177 -0.06476556 -0.054034885 -0.015233327 0.118391916 0.09130971 0.08090265 0.12132375
-0.025672207 0.052111827 -0.0033640263 0.095598444 0.13506481 -0.09763484 0.16821176 0.1090699

gru.weight_hh_l1 f4 [150, 50]
00000000: 3f38 f6bc 4caa d33c 88c9 023e ee63 7f3c
00000010: 7563 7ebd e1b0 723d 808a bb3c 70fa f3bd
00000020: cdfa 8ebd c73e cd3d ba50 e93d ebb4 093d
00000030: 24ec 413d 178f f1bd b357 0a3d a925 1abd
00000040: c987 233d 20d3 c63d f2cc 2b3c a8ae b93d
00000050: 3710 f03d ab8e c4bd 1393 593c 12ff 88bb
00000060: 3283 1ebe 928e 87bd 4370 88bd 1fbc abbc
00000070: 9184 933c 6455 d9bd 3f33 ecbb b986 603d
00000080: 19d2 8a3c 1ae4 9fbd 332b bfbd d0fb 10be
00000090: c8e4 cfbd ab19 92bd b5a8 b4bd 2ebf 883d
000000a0: 94fa bd3c 1e5d 20be ed1a 6d3c a5bc a43c
000000b0: 4e54 aebc 0d61 7abd ebd7 0e3d 3c87 573d
000000c0: df93 793d d3ae 1c3d fe04 6b3d 056a 8ebd
000000d0: 2ee4 e6bd 4f45 01be f69c 833a 07a2 873d
000000e0: ecbb d73d f20d e63d 062b b53d b9d3 8f3d
000000f0: d5ef 963d 2764 c63d 053c d8bd f3f2 9dbd
00000100: 4aa4 0b3e 0c7a 9ebd 336f 8fbd 698d 8f3c
00000110: 13ed 98bd f3ed e9bd a317 bc3d f3b3 493d
00000120: eb0d 473d 7a2c eabd a19f ed3d d72b 20bd
00000130: 14fc 0d3e 9d91 a8bd ba14 f4bd fd29 cd3d
00000140: bf23 c8bd 14e5 d2bd ce3f eb3d 3004 dfbd
00000150: 4fdf 8cbd e1bd 06be 36bb 4cbd bf5f 9c3d
00000160: 33c4 fc3d 1490 703d 4083 cebd a284 d53c
00000170: 6168 ff3d 83dd 3c3d 6924 e53d d228 ecbd
00000180: e9b2 50bc cb83 4ebd a36b 0f3c 53fd 083e
00000190: 70a0 8e3d 85d2 193d 3d42 c3bd 2384 bc3b
000001a0: c79c d83d 5acb ef3d 7ff1 bcbd c4c3 b23d
000001b0: ef6b 8c3a 4a45 813d 942a 083d 9562 06be
000001c0: 0fd0 d93d d81d f2bd 8687 173d f378 17be
000001d0: 5bcd 52bd d4c9 913d 1409 053e 34a7 b6bc
000001e0: 8126 383d 9cfd 073d 3002 cbbd 4fde 8b3d
000001f0: ed4d 453d 91a4 f43c 5346 d1bd 2b04 023e
00000200: d0d4 fabd 72c7 8bbc 68b2 cfbd 573e dc3d
00000210: 32ef 883d 38ab 0abe f12a b33d 59d9 84bc
00000220: b646 93bd 2a40 15be af38 b3bd 85fb 173e
00000230: e762 c53d 95b0 7a3d 3d82 35bd 162a 003d
00000240: 71a6 0ebd ccbd 583c 9dbd d63d 3e23 b7bd
00000250: 2085 5abc 6b11 c4bd a4ef b63d 12a0 64bc
00000260: cfb8 6bbc 9615 c63d 357b 273d f2a6 babd
00000270: 092b 073e 4ae4 1abe 7a17 fa3c 671a 1f3c
00000280: eeb6 993d 6af5 fbbc de65 b8bd ffaa 36bd
00000290: 8727 c738 7668 b03c aa86 5dbd e2b4 39bb
000002a0: aa12 acbd 9799 043e 0464 d9bd b7d5 58bc
000002b0: fb84 433d 6037 cbbd 4b1b de3c eb20 cabd
000002c0: 933b 2a3d 59cc cc3d 1748 73bd 3b3d 173d
000002d0: 5072 dbbd c093 e13c 0c6f e4bd d2fe a63d
000002e0: 5079 bf3c db3c 80bc 47f4 09be 75ee 963d
000002f0: 9572 a4bc 04dd bfbd 4ac0 083e 5036 34ba
00000300: 880a 093d 0fb2 20bd c658 ea3d 540e 95bd
00000310: c8c5 8a3c edac 573d 1662 d53c 820c aa3d
00000320: 7a6c b8bc 25cb 71bc 4e1a 533d 26da 1a3e
00000330: 5a33 843d f6bf 62bd bb18 403d 42d6 06bd
00000340: fc4b 273e c370 9e3b 884e aa3a 9e84 8c3c
00000350: f792 2c3d 71da 20be 366f 753d 15d0 a1bd
00000360: 4c02 1bbd 0ada 073d 25ba 283e 52cb 233e
00000370: d0f9 e0bd 5689 a23d 267e 113e 60ac aabd
00000380: bb8a 54bd 8098 013e d478 e63b eebe 4bbd
00000390: c3c8 3c3d b9d9 06bd 8dbf 36bd 2fa9 9abd
000003a0: 9c6b e73d bf75 d83c 93a2 013d a4ba 90bd
000003b0: 2b22 bb3d 3330 cdbc 91cd 133d f986 a6bb
000003c0: 93b6 f7bc 5143 993d 0007 a7bd 7c37 ee3d
000003d0: 5b12 0dbd 3b89 37bd ae3f 333c c8ed 7d3d
000003e0: 4278 53bc 252f fabc 6d5a ab3b 930f cbbd
000003f0: f7fd 983d 24c4 ba3c 6067 6e3c 7ec7 bd3d
-0.030056117 0.02583804 0.1277219 0.01558779 -0.06210657 0.059250716 0.02289319 -0.119130015
-0.0698143 0.100217395 0.113923505 0.033619802 0.047344342 -0.1179487 0.033775043 -0.03763357
0.039924417 0.09708238 0.0104858745 0.09066516 0.11721843 -0.09597524 0.013279694 -0.0041807974
-0.15479735 -0.0661899 -0.06662037 -0.020963727 0.018007549 -0.1061199 -0.0072082574 0.05481598
0.016945885 -0.07807179 -0.093344115 -0.14158559 -0.101510584 -0.07133802 -0.08821241 0.0667709
0.023190774 -0.15660521 0.014471752 0.020109484 -0.021280434 -0.06112771 0.034873884 0.052619204
0.060932036 0.038252663 0.057377808 -0.06953815 -0.112739906 -0.12624095 0.0010041285 0.06622701
0.1053389 0.112331286 0.08846097 0.07022805 0.07369963 0.09687071 -0.10558323 -0.077123545
0.1363689 -0.07738122 -0.070036314 0.017523484 -0.07467093 -0.11422338 0.09184196 0.04924388
0.048597258 -0.114342645 0.116027124 -0.03910431 0.13865691 -0.082308985 -0.11918016 0.10017774
-0.09772443 -0.102975994 0.11486779 -0.108894706 -0.0687853 -0.1315837 -0.049983226 0.076354496
0.123421095 0.058731154 -0.10083628 0.02606422 0.124710806 0.046109688 0.11188585 -0.11531223
-0.012737968 -0.050418656 0.00875369 0.13377886 0.06964195 0.037554283 -0.09534118 0.0057530566
0.10576778 0.11708708 -0.09225749 0.087287456 0.0010713319 0.06312044 0.03324373 -0.13123544
0.10635387 -0.118220985 0.03699448 -0.14792232 -0.051465373 0.07118574 0.12991744 -0.022296526
0.044958595 0.033200845 -0.099125266 0.068295114 0.04817002 0.029863628 -0.102184914 0.12696902
-0.12247622 -0.017062876 -0.1014145 0.10754078 0.06686248 -0.13541877 0.08748425 -0.01621692
-0.071912214 -0.14575258 -0.08751046 0.14842041 0.09638005 0.061203558 -0.044313658 0.031290136
-0.0348267 0.013228845 0.104853846 -0.08942269 -0.013337404 -0.09573635 0.089324266 -0.013954179
-0.0143873235 0.09672086 0.040888984 -0.091138735 0.1320001 -0.15126148 0.030528773 0.009710885
0.07505594 -0.030756671 -0.090038046 -0.04459667 9.496422e-05 0.021534186 -0.054083504 -0.0028336574
-0.084019974 0.12949215 -0.106147796 -0.013234547 0.047734242 -0.09922671 0.027112624 -0.0986956
0.04156072 0.09999914 -0.059394922 0.03692363 -0.10715163 0.027536273 -0.11153993 0.08154072
0.023373276 -0.015654018 -0.1347209 0.07369701 -0.020074168 -0.09368327 0.13354602 -0.0006874548
0.03345731 -0.03923231 0.114427134 -0.072781235 0.016940013 0.05265515 0.026047748 0.08303167
-0.022512663 -0.014757906 0.051538758 0.1512228 0.06455107 -0.05535885 0.046898585 -0.032919176
0.1633758 0.0048352196 0.0012993375 0.01715308 0.042132344 -0.15708329 0.059920512 -0.079010166
-0.037843987 0.033166923 0.16477259 0.1599553 -0.10985148 0.07936351 0.14208278 -0.08333659
-0.051890116 0.1265583 0.007033447 -0.04974263 0.0460899 -0.03292248 -0.04461627 -0.075518005
0.11299822 0.026423333 0.031649183 -0.07066849 0.091373764 -0.025047397 0.036084715 -0.005082008
-0.030238425 0.07483543 -0.08155632 0.116316766 -0.034441333 -0.044808608 0.010940475 0.061994344
-0.01290709 -0.030540058 0.0052292855 -0.0991508 0.07470315 0.022798605 0.014551014 0.09266566

gru.bias_ih_l1 f4 [150]
00000000: ae0c 813d 9d9f b5bd 07c8 48bd 00ef 0b3e
00000010: 9409 4dbd 4a0b 113e 7d7c 503d eb6a e83d
00000020: 4f49 e93d 646d f93b 6ada 73bd 479b 063e
00000030: ac43 903d 4aa1 4b3e 8ffc 4a3e 6f2c 41bd
00000040: 7bc1 f83d 1bab 333e b256 e2bd 4842 0e3d
00000050: 6364 bdbd 188c 303d 2d3f 0c3e e3cb f93d
00000060: 2982 9a3a 7968 323c a75f bf3d 1bb8 5b3c
00000070: 4460 6dbd 7fba f4bd 03f2 cf3d f5a8 cb3c
00000080: b385 cf3d b632 fa3d 84bd d5bd 5f39 a03c
00000090: c671 adbd feeb 10bd 9df5 04be 09c8 5fbc
000000a0: aacc ff3d 85ea 6c3c 5662 34bd db8b 68bc
000000b0: 9421 96ba ba7b 4dbd 30a5 b83d 1695 c03d
000000c0: 0b79 6c3c 4b8b afbd 2040 61be a49d 583d
000000d0: ba77 793d c266 063d 5eba 24be ebae 2dbe
000000e0: e359 023b 0a8a c3bd 14ff 61bc 2b03 673d
000000f0: ba19 4dbe a97f 3bbc 6c42 acbc 115e 323d
00000100: 1e55 53be 8aef 2cbe 7948 3fbe 8e70 4dbd
00000110: ecfd 27be 9a96 84bd ee76 debd f499 003d
00000120: e410 42be c408 f5bd 8fe8 8e3c c986 cdbd
00000130: a6eb bbbd 95b2 3abe b56c 293d b197 f8bd
00000140: 9955 47bc 5cd1 09bb f28b 56be 65b9 1bbe
00000150: 993f 31be 5c64 1ebe 8ea6 11be cea9 29be
00000160: c0e8 a0bc f999 8abd 76db 8d3d ff73 a0bb
00000170: b616 1abd 9b85 d1bc 87a5 fbbc 4de4 54bc
00000180: 3d8a 60bb 990c 9abd a675 9fbb d641 33be
00000190: 213b a9bd 73b2 1cbe c974 813d 2e57 fa3d
000001a0: 1daa a7bd 897a 8d3d 3ffb be3d 970c 2fbe
000001b0: 55df f43d 3d33 fc3c d41a 253e cb29 e9bd
000001c0: 1912 63bd 75e5 94bd 0536 08be 90ee 0bbe
000001d0: 767a 933d 7537 02be 9056 353e a37c a73d
000001e0: 8734 993d d188 9a3d 91c6 5d3d e214 39bd
000001f0: c57f ca39 8794 323e ebac d73d f24a 043e
00000200: 934d 34be c598 d13d b4c1 433e e871 2b3e
00000210: 71dc 363e 064c a3bd b1d9 943d bc2c 31be
00000220: 60ae 2cbe 4ad0 4dbe dd57 003e 4db6 0d3e
00000230: 5f11 833d d229 2bbd debd e0bd d330 ec3d
00000240: 3599 cabd 71c0 093e d9fe d0bd 5906 9c3d
00000250: 59be 193e 9873 e03d
0.063012466 -0.088683344 -0.049018886 0.1366539 -0.050057963 0.14164463 0.05089997 0.11348518
0.11390936 0.0076119173 -0.059534468 0.13145171 0.070441574 0.19885746 0.19822906 -0.047161516
0.121462785 0.1754574 -0.11051692 0.03473118 -0.09247663 0.043102354 0.13695975 0.121970914
0.0011788058 0.010889166 0.09344416 0.013410593 -0.057953134 -0.11949634 0.10153582 0.024860838
0.10132923 0.122167036 -0.10436538 0.019558607 -0.08468966 -0.03538131 -0.12984319 -0.013658532
0.124902084 0.014460211 -0.044039093 -0.0141935 -0.0011454099 -0.050166823 0.09015882 0.09403436
0.014433156 -0.0857149 -0.21997118 0.052884713 0.060905196 0.03281284 -0.16086718 -0.16961257
0.0019890002 -0.09547813 -0.0137937255 0.056399506 -0.20029345 -0.011444011 -0.021027766 0.04354674
-0.20637938 -0.16888252 -0.1867999 -0.05015617 -0.16405457 -0.064740375 -0.10862528 0.03139682
-0.18951756 -0.119645625 0.017444877 -0.10035474 -0.09175806 -0.18232186 0.041363437 -0.12138308
-0.012166404 -0.002102933 -0.20951822 -0.15207441 -0.17309417 -0.15467972 -0.14223692 -0.16568682
-0.019642234 -0.06767649 0.069266245 -0.0048966403 -0.037619315 -0.025576403 -0.030718578 -0.012993884
-0.0034262084 -0.07521934 -0.0048663197 -0.17505583 -0.08263231 -0.15302448 0.06321103 0.122236595
-0.081867434 0.06908137 0.09325265 -0.17094646 0.1195666 0.030786151 0.16123515 -0.113849245
-0.05543718 -0.07270328 -0.13301857 -0.13665223 0.07201092 -0.12716468 0.17708802 0.081780694
0.07480722 0.07545627 0.054144446 -0.04518593 0.00038623638 0.17439471 0.10531028 0.12919214
-0.17607717 0.102342166 0.1911686 0.1674267 0.17857529 -0.07973485 0.07268084 -0.17302221
-0.16863394 -0.20098987 0.12533517 0.13839073 0.06399798 -0.04178793 -0.10973714 0.1153275
-0.09892503 0.13452317 -0.10204858 0.07618398 0.15014018 0.10959548

gru.bias_hh_l1 f4 [150]
00000000: 46f8 b53d 3177 81bc 0a59 81bd dbe1 5ebd
00000010: 85e0 2a3e b4b1 48bc 6aeb 26be 1318 0b3e
00000020: 37b4 ac3d d03b 903d 247c ac3c 7baa 3dbd
00000030: a21a f53d 6fae 88bd 1311 383e 44e5 243e
00000040: 6a23 d63d 740f b23d 0f64 0bbe 6eea e9bc
00000050: b660 8ebc cc76 593d f81f 783d d168 a2bd
00000060: f633 b0bd f2e5 1c3e af40 733d c2a0 e4bd
00000070: bf29 9fbd 2df0 2cbd bf31 c4bd 7ae3 8bbd
00000080: e051 803d 7120 a03d d447 0b3e 26d9 3cbd
00000090: c8b3 a6bd eaea 4f3d 77ba 943d 4179 443e
000000a0: 363e 2b3c 83d1 093e ade4 d3bc 725d 14bd
000000b0: 987a cfbd 101c df3d 3eff b3bb a4cd 24bd
000000c0: 072f 0c3e c569 b8bd b775 e3bd 6696 d0bd
000000d0: b793 a9bd 1b05 4ebe ca35 d3bd def6 3abc
000000e0: d0c5 15bd cabb 1f3d cb1d d7bd e97d 43be
000000f0: 97f3 a73c ceea 7bbd 8c1f 6abd be39 b73c
00000100: 7dfa d7bc 99fb fcbd 85ef 15ba 9079 eabd
00000110: 9fee 3bbe d1e8 e43b 7f1d 1f3d 01c1 a0bc
00000120: 4a16 213d 2a03 0ebe 3ec3 0a3d 9b6a 37be
00000130: 8de2 23be cfd1 dbbd 7bf3 18be 9f67 cdbb
00000140: 1135 1cbe 02ea 55bd 1ec4 cdbd 88e2 2dbe
00000150: 6c40 78bd e950 9cbd ce7e 44be 5d10 dfbc
00000160: 0d7d 043d dd2c 4ebe 5ff4 2f3d 943d 45bd
00000170: 767c a03d 7d95 39be 9fc3 bebd c658 163c
00000180: a92b 293d 5542 32be c9d1 6a3d 68bc c1bd
00000190: 0929 b1bd 80fc 9d3d e3c4 53bb 4c7a 023e
000001a0: 1466 83bd b215 4dbe 823c 4bbd 06f3 41be
000001b0: 7f11 453e 6bf5 aa3d 96cc bcbc bbc1 8fbd
000001c0: 369c d1bd 9e8f 23be 36b4 35be 1304 41bd
000001d0: cded 2b3e e57b 26be edd1 3cbd 0119 d93d
000001e0: c930 dd3d eaa3 88bc d4b0 3d3e 4694 07be
000001f0: 5e8d a53d 1781 ad3c e3c2 c73d aa0e f0bc
00000200: f46e 293d ad73 49bb f53b b6bc 455d 3c3e
00000210: cff9 ca3c 1980 00be 526d dc3d a0bc a3bd
00000220: fbb6 5dbd 1504 fbbd 4f52 27bd 2f2a 0a3e
00000230: 73ee 283e 013a 20be 2741 883d af0d 3bbd
00000240: 7ab8 88bc 079b 303e 3995 0cbe b6fd 913d
00000250: 57f4 bd3c faa1 f73d
0.08885245 -0.015803905 -0.06315811 -0.05441461 0.1668721 -0.012249399 -0.16300741 0.13583402
0.08432811 0.07042658 0.021055289 -0.04630516 0.119679704 -0.066738956 0.17975263 0.16103083
0.104559734 0.08694354 -0.13612388 -0.028554168 -0.0173801 0.05309181 0.060577363 -0.079301484
-0.08603661 0.15322092 0.05938786 -0.111634746 -0.07771634 -0.042221237 -0.09579801 -0.06830497
0.062656164 0.07818688 0.13601619 -0.046105526 -0.08139759 0.05076114 0.07262128 0.1918688
0.010451844 0.13458829 -0.025865877 -0.03622193 -0.10130805 0.10894024 -0.0054930737 -0.040235177
0.13689815 -0.09004549 -0.11106437 -0.10184936 -0.082801275 -0.20119135 -0.10312994 -0.011411397
-0.0365656 0.03899745 -0.105037294 -0.19091 0.020501895 -0.061503224 -0.05715899 0.0223664
-0.02636456 -0.12352676 -0.000571959 -0.114489675 -0.18352745 0.0069857617 0.03884649 -0.019623281
0.039327897 -0.13868394 0.033877604 -0.1791176 -0.16004391 -0.10733377 -0.1493663 -0.006268456
-0.15254618 -0.05222512 -0.10047172 -0.16980946 -0.060608312 -0.0763262 -0.19188997 -0.027229482
0.03234582 -0.20134301 0.04295766 -0.04815443 0.07836239 -0.18123432 -0.093146555 0.009176439
0.041301403 -0.17408116 0.057328973 -0.09459764 -0.08650405 0.07714176 -0.0032313399 0.12741965
-0.06415954 -0.20027807 -0.04961825 -0.18940362 0.19244955 0.08347591 -0.023046773 -0.07019373
-0.10234873 -0.15972754 -0.17744526 -0.047123026 0.16789933 -0.162582 -0.04609864 0.10600472
0.10800321 -0.016679723 0.18524486 -0.13240156 0.08083604 0.021179719 0.097539686 -0.029303867
0.04136558 -0.0030739114 -0.022245387 0.18394955 0.024777321 -0.12548865 0.10763039 -0.07994962
-0.054129582 -0.12256638 -0.04084998 0.13492654 0.16497211 -0.15647127 0.06653052 -0.045667347
-0.016689528 0.17246638 -0.13728799 0.0712847 0.0231878 0.120914415
