models/stock_rus_net.ckpt (torch, 621279 bytes, 11 tensors)

encoder.weight f4 [167, 100]
000000 ea 30 7c 3f d8 a6 e8 3d 91 e2 12 3f 49 0a b7 be
       0.98512137 0.11359948 0.5737696 -0.35750034
000010 69 2c df 3f 53 20 34 3f 7a 9b 87 3e de 83 7e be
       1.7435428 0.7036182 0.26485807 -0.24854991
000020 96 91 68 bd e2 55 24 3e c7 3e 92 bf fa fc 6b 3e
       -0.056779467 0.16048387 -1.1425408 0.23045722
000030 af 79 77 bf d1 e3 95 3f a5 7f a1 3e fd 7e 0d 3f
       -0.9667005 1.1710149 0.31542698 0.55271894
000040 c1 91 d6 3e ec c0 81 3f 39 2d 00 bf 04 bc bc 3e
       0.41908076 1.0137 -0.50069004 0.36862195
000050 f3 2f e0 be a7 3e 3c 3f 13 f5 0e 40 29 ba 81 bf
       -0.43786582 0.735331 2.2337081 -1.0134937
000060 d7 95 b8 3d 46 59 38 bf aa bd ab 3f ca 48 85 bd
       0.09012955 -0.7201122 1.3417256 -0.06508024
000070 d3 93 af 3f 7a 57 5f 3d 2a 9b bf be 59 1a 90 bf
       1.3716987 0.054526784 -0.37423068 -1.1258041
000080 3d 9f 2f 40 a3 32 15 3f 3c ed ce 3f a6 38 01 be
       2.7440941 0.5828039 1.6166148 -0.12619266
000090 3c 25 3f 3f e1 c4 04 be 87 86 4d 3f 62 0e 75 3f
       0.7466619 -0.12965728 0.802834 0.9572507
0000a0 51 62 20 bf bb 4e 08 bf 22 fb 7c 3f ad bb 76 be
       -0.6265002 -0.53245133 0.988207 -0.2409503
0000b0 1d ee 2e be 52 3b f0 be d2 55 e2 3f f2 85 01 bf
       -0.1708302 -0.46920258 1.768244 -0.5059501
0000c0 e5 0a 51 bf ee d8 db 3f c9 3a 02 bf f6 2d eb bf
       -0.8165725 1.7175577 -0.5087095 -1.8373401
0000d0 09 9d bd be 29 35 c9 be b7 cb ca 3e cd e4 c0 be
       -0.3703387 -0.3929837 0.39608547 -0.3767456
0000e0 4e 5f 20 c0 b3 56 c9 be 2a 12 97 bf 2c e7 8a 3c
       -2.505817 -0.3932396 -1.1802418 0.016955934
0000f0 62 37 40 3f 92 ef ea 3e 08 21 89 bf 64 f3 35 bd
       0.7508451 0.45885903 -1.0713205 -0.04442157
000100 54 30 94 3f 9a d0 bd 3e 4c 21 7e 3e 5a d0 d9 bf
       1.1577249 0.37073213 0.24817389 -1.7016709
000110 8f 5b 30 3f 67 fd e6 3e b5 de 24 3f 7d f4 d6 3e
       0.6888971 0.45115206 0.64402324 0.41983405
000120 59 7e 99 be d1 6b 6e 3f 2c b9 9f bf df 46 4d be
       -0.29979208 0.93133265 -1.2478385 -0.20046566
000130 b2 15 82 bf b8 fa b3 3f 67 a5 4f 3f 13 62 a8 3e
       -1.0162871 1.4060888 0.8111176 0.32887325
000140 72 04 ae bf 45 f1 38 bf b4 27 14 bf 0c 30 4e bf
       -1.3595107 -0.7224315 -0.5787308 -0.80542064
000150 dc 89 1d bf de 93 75 3e 54 f8 35 3f c6 78 c3 be
       -0.6153848 0.23982188 0.71082044 -0.3817808
000160 5f 3d 29 c0 70 5e e2 3c 99 a0 82 3e 19 8e a3 bd
       -2.6443708 0.027632922 0.2551315 -0.07986087
000170 d1 2f 57 bf 55 17 8e 3e d2 fd 56 bf 97 21 2f 3f
       -0.8405734 0.27752176 -0.8398105 0.6841063
000180 58 e1 36 3f 1d c7 cb 3f 20 14 6b 3e 06 db 01 bf
       0.714376 1.592014 0.22956896 -0.5072483
000190 ac df c8 3e 04 42 20 3e 49 ab 85 3f 35 6d aa bf
       0.39233148 0.15650183 1.0442897 -1.3314577
0001a0 7e de ae 3e c7 55 ca bf 64 2e 84 3f d9 b0 f8 3d
       0.34154123 -1.5807427 1.0326657 0.12143106
0001b0 07 ff fc bf 95 9b a9 bf 1f 94 f7 bf 50 08 d8 3d
       -1.9765328 -1.3250605 -1.9342078 0.105484605
0001c0 86 01 8c 3e 86 d9 2b bf bc d3 ca 3f 35 fd b8 be
       0.27344912 -0.6712879 1.5845866 -0.36130682
0001d0 e8 7e ca 3f f5 36 5d 3f 57 3c 1b bf 09 ac 05 40
       1.5819979 0.8641198 -0.60638946 2.0886252
0001e0 66 8f 37 3f 3e 8f 3a 3f d6 c4 81 bf 31 2e cf 3e
       0.71703184 0.7287482 -1.0138195 0.4046493
0001f0 01 fc a3 3f df 26 bc 3d 22 82 e1 3e 10 59 aa bf
       1.281128 0.091871016 0.44044596 -1.330843
000200 6b 6b c6 be 0d fb 09 40 1d 3f eb be 57 70 66 bf
       -0.38753828 2.155948 -0.4594659 -0.90015167
000210 2d b7 28 bf 73 15 bc 3e f7 61 bb bf ac 8c b6 3e
       -0.65904504 0.36735114 -1.4639271 0.356542
000220 32 c6 a0 3f 53 b2 e7 3e 56 55 98 3f 25 cb 19 bf
       1.2560484 0.45253238 1.1901042 -0.600756
000230 37 87 ae bf 05 6a bc 3f 9f b9 a2 3d 42 7e 92 bf
       -1.3635014 1.4719855 0.07945561 -1.1444781
000240 85 56 b3 3f e3 09 2b bf a6 b4 0a 3f f5 26 fc 3d
       1.4010779 -0.6681196 0.541819 0.12312118
000250 cb 11 8d bd b3 fa 3f 3f 6a 77 af 3f 72 0d 94 be
       -0.06888159 0.7499191 1.3708317 -0.28916508
000260 77 11 2d bf 66 c1 f1 3d c3 d0 77 bf 2b 19 9b 3e
       -0.67604774 0.11804466 -0.9680292 0.3029264
000270 89 7d dc bd 56 52 81 bf 75 af 22 3f 86 3f 84 bf
       -0.107661314 -1.0103252 0.63548976 -1.0331886
000280 1d 6a 23 bf 51 1a 5b bf e3 50 f5 3e 20 f0 19 c0
       -0.6383379 -0.8558703 0.47913274 -2.405281
000290 c6 14 0b 3f a8 e8 19 bf 50 fb f6 be 33 3c 98 be
       0.5432857 -0.6012063 -0.4823861 -0.29733428
0002a0 61 fd 70 be 57 32 2e bd 3e 5b 50 3f c3 8e 39 3f
       -0.23534156 -0.042528477 0.81389225 0.7248346
0002b0 3a 72 22 40 60 ad 72 be 0d 5a 81 be 9c 3f 82 be
       2.5382218 -0.2369895 -0.25264016 -0.25439155
0002c0 e5 14 3c bf a2 20 2b be 0f 80 81 3f d5 fa 3b 3f
       -0.7346938 -0.16711667 1.0117205 0.73429614
0002d0 29 39 9c 3d 2c 8a 71 bf 74 69 22 bf 14 1a a4 3f
       0.0762809 -0.9435146 -0.6344216 1.2820458
0002e0 fb d6 12 bd 3c f0 d7 3e 14 75 0c c0 2c 11 fe 3f
       -0.035849553 0.42175472 -2.194646 1.984899
0002f0 6e 06 1c bf ef d9 0e 3f 9b 57 6b bf 8a 3e 55 bf
       -0.6094731 0.5580129 -0.9193055 -0.8329855
000300 d9 0a dc bf 2f 11 af 3f 8c d2 09 40 e0 e4 3d 3e
       -1.719081 1.3677119 2.1534758 0.1854434
000310 76 27 fd bf e2 dc ad 3f d7 81 db 3f 20 29 df bf
       -1.9777668 1.3583033 1.7148999 -1.7434425
000320 55 50 72 3f 42 a8 2b bf f1 b6 94 bf 42 79 65 bf
       0.94653827 -0.67053616 -1.1618329 -0.8963815
000330 dc f4 d8 3e d4 e7 2a bf 73 0a c0 be 62 36 8b 3f
       0.42374313 -0.6675999 -0.37507972 1.0875971
000340 91 53 f2 3f d8 bf 18 3f ac d0 bb bf a3 85 d0 bf
       1.8931752 0.5966773 -1.4673057 -1.6290783
000350 b8 1f f9 bf b3 29 73 bc 32 32 8c 3e a4 de 75 bf
       -1.9462805 -0.014841485 0.27382046 -0.9604285
000360 9a 0c 92 bf 41 f1 77 bf db a1 1c bd 8e a8 01 3e
       -1.1410096 -0.968525 -0.038240295 0.12661955
000370 d1 c6 15 3f 45 df b7 bf f3 9a 88 bf 2e 2f 67 3e
       0.58506495 -1.4365011 -1.0672287 0.22576591
000380 92 9e 1f bf 7b 3b cb 3f f0 b5 ea 3d bc 87 37 c0
       -0.62351334 1.5877527 0.11460483 -2.8676596
000390 45 c5 8b bf 44 eb 85 bf da 7c a3 bd b4 d3 7b bf
       -1.0919577 -1.0462422 -0.07982798 -0.9836991
0003a0 c1 00 34 3f 2a 3e b0 3e ce f6 f1 bf 5a 9c 84 3f
       0.7031365 0.34422427 -1.8903444 1.0360215
0003b0 ea a8 b1 3e cf dd 88 bc 45 4a 1f c0 94 72 b1 be
       0.34699184 -0.01670733 -2.488908 -0.3465773
0003c0 77 4b 00 40 3f f4 2a 3f 0f d7 33 3f ac d1 68 bc
       2.004606 0.6677894 0.7025003 -0.014210146
0003d0 fd d8 84 3f eb c0 c3 3a 27 a0 f3 3f 91 09 2d 3f
       1.037872 0.0014934813 1.903325 0.6759272
0003e0 ef 32 79 be da e4 5d 3f 26 29 cf 3e 84 16 00 bf
       -0.24335836 0.86677325 0.4046108 -0.50034356
0003f0 56 36 02 40 f3 c1 8e 3f f0 d3 ae 3f 40 41 da 3f
       2.0345664 1.1152939 1.3658428 1.7051163

gru.weight_ih_l0 f4 [300, 100]
000000 73 92 31 3e 94 3f 61 bd d6 39 b2 3c a4 5e 0e 3e
       0.17341022 -0.054992273 0.021756094 0.1390329
000010 31 08 f9 3d 7e a6 53 bd d6 d3 7b 3d 0d 81 00 3e
       0.121597655 -0.05167245 0.06148132 0.12549229
000020 d6 55 ef bd 7a 0d 4e be d3 d9 49 3d c5 3c 88 3d
       -0.11686294 -0.20122328 0.04928 0.06652216
000030 7f 17 06 be cf f2 85 bb 45 65 0e 3c 29 c6 3e be
       -0.130949 -0.004087783 0.008691137 -0.1863028
000040 f0 16 c2 3c 9a 43 12 3e c1 65 82 3d 77 9b f8 3d
       0.023692578 0.142836 0.06367064 0.121390276
000050 8d 59 5c 3c 13 c8 16 be 96 58 41 3e e7 30 d9 3b
       0.013449085 -0.1472476 0.18881449 0.006628144
000060 a8 0a b4 bd 07 32 57 bc a3 51 05 3c 11 9e de 3c
       -0.08791095 -0.013134486 0.0081371395 0.027174981
000070 1b 31 8e 3d 12 e5 d5 3c 4f 99 6b bd ba 87 34 3e
       0.0694296 0.026110206 -0.057519253 0.176299
000080 0b e9 10 bc 12 73 db 3d 65 fd f1 bd 4a aa 9e bd
       -0.008844624 0.10715307 -0.11815909 -0.07747324
000090 d6 56 1c 3a 94 10 53 bd 0b c2 13 be 3e bb 2f be
       0.00059638673 -0.051529482 -0.1442949 -0.17161271
0000a0 5d 6a 9d bd 2c 59 d0 bd 15 7f 76 3c 06 aa 70 bd
       -0.07686303 -0.10173258 0.015044947 -0.058755897
0000b0 45 6a 5b bd 00 17 78 3d 10 a6 ad 3d d2 6d 32 3d
       -0.053568143 0.06056881 0.084789395 0.043561764
0000c0 70 79 b1 bc 24 d4 bc 3d 49 0b e4 3d cb 66 36 be
       -0.021664351 0.0922015 0.11134965 -0.1781265
0000d0 76 d7 68 b9 c4 cb 12 be 22 2d b8 bb 5f 85 6c be
       -0.0002220551 -0.14335543 -0.0056206146 -0.23097752
0000e0 30 f1 9d 3d 1c c0 51 bd b0 1d c7 bd 20 ca d8 3d
       0.077120185 -0.0512086 -0.09722459 0.10585427
0000f0 43 bc 47 be 86 72 6a be 6c d4 81 3d 87 a1 83 bd
       -0.1950541 -0.2289525 0.063393444 -0.06427293
000100 72 0e 86 3d dc 36 f8 3d b5 33 0b be 62 e7 0a be
       0.06545724 0.121198386 -0.13593943 -0.13564828
000110 f7 21 44 be 0b 4b 32 bd f0 ef 52 3e 45 b8 73 3d
       -0.19153582 -0.043528598 0.20599341 0.059501905
000120 e5 ac 87 3d 0f 42 4d 3d 05 14 03 3e f6 76 0b be
       0.06624774 0.050111827 0.12800606 -0.13619599
000130 1f 01 a2 3d e6 9c 6a 3e 9e 7a c3 bc 87 e0 80 be
       0.0791037 0.22911415 -0.02386218 -0.251713
000140 93 73 11 3c 28 ba 5f be 89 44 16 3e 67 64 51 3e
       0.008877653 -0.21848357 0.14674582 0.20448457
000150 4f 2d 96 3d 74 7c 5b 3e a6 09 26 3c 32 fe 3e 3d
       0.07332861 0.21434194 0.010134136 0.04662914
000160 e7 ad 77 3d a4 e2 de bd c5 b5 7c bd 47 09 bb 3d
       0.06046858 -0.10883072 -0.061696786 0.09132629
000170 1d 25 27 be 86 30 45 be 9e 34 34 bd df d1 1e 3e
       -0.16322751 -0.19256791 -0.043995492 0.15509747
000180 e0 1b 07 3e 4e 09 86 3e fd 37 59 3e 81 17 22 3e
       0.13194227 0.26178974 0.21212764 0.15829279
000190 3a 3f a2 bb a5 10 1a 3e 4e e8 d7 bc 49 d8 50 3e
       -0.004951385 0.15045412 -0.026355889 0.20395006
0001a0 5c f3 55 3e 19 71 0f 3d b8 d3 87 3d 91 59 c1 3c
       0.20893615 0.035019968 0.06632179 0.023602279
0001b0 be d8 39 bd 75 d2 cc 3c 1d ca 42 3e 3c ee 85 3d
       -0.045372717 0.025002697 0.19022413 0.0653958
0001c0 a9 d2 0e 3b 3c a3 0a 3e 5a 3b 1b bd c4 85 08 3d
       0.0021793044 0.13538831 -0.0378984 0.033330694
0001d0 24 e5 85 be 8c 9b 7c 3d 9c e2 04 be 47 05 ea 3d
       -0.26151383 0.06167178 -0.1297707 0.11426788
0001e0 26 6e 38 be c9 d7 a8 3d 5e 0b b1 bd 7e 15 5f bd
       -0.18010768 0.08244283 -0.08644746 -0.054463856
0001f0 d0 99 f4 3c b7 65 19 be 6e dc 0c 3c 57 ce db 3d
       0.0298585 -0.14980207 0.008597476 0.107327156
000200 7f 3b ec 3d c4 77 a3 bd ae 5b 02 bd 42 2a c7 bd
       0.115347855 -0.07981828 -0.031825714 -0.09724857
000210 2c 91 1e 3d 71 2b a3 3d b1 37 a9 3c 74 0f 06 3e
       0.038712665 0.0796727 0.020656439 0.13091832
000220 8b 1e 00 be ea 5c 52 be 24 a6 32 be bc 2e 2d 3d
       -0.12511651 -0.20543256 -0.1744619 0.042280897
000230 c0 b5 8a bd 1f 37 cc bd 50 2e 83 bd ef 9a da bd
       -0.06772947 -0.09971451 -0.06405318 -0.106740825
000240 5a 23 9e bd 03 ee 50 bd 8e cc 16 bd fc 47 cc 3c
       -0.077215865 -0.051008236 -0.036816172 0.024936669
000250 d3 5d 0f be 6e d9 af bd 33 d2 8f bc 69 78 8d bd
       -0.14000635 -0.08586393 -0.017556285 -0.06907732
000260 8c c8 3b 3b 52 07 85 bb c4 a4 0c be 8d 50 73 be
       0.002865347 -0.0040597105 -0.13734728 -0.23761196
000270 3f 2f 1f 3e e2 d9 f5 3d ca 73 f8 3d 27 0e c8 bd
       0.15545367 0.120044485 0.1213146 -0.09768324
000280 10 c2 93 bd b5 61 8b 3d 29 09 42 be 49 5c b6 3d
       -0.07214749 0.068057455 -0.18948807 0.08904321
000290 ed da 24 3d fe 14 60 bc ae 5c d9 3c 18 2c e7 3c
       0.040247846 -0.01367688 0.02653345 0.028219268
0002a0 73 8d a7 bd cc c2 94 bd 2a 80 03 bd 4c 72 e2 3c
       -0.08181276 -0.07263717 -0.03210465 0.027642392
0002b0 52 9b f6 3d 57 de 91 3d c9 a6 7c bd 55 0e 80 bc
       0.12041344 0.07122486 -0.061682496 -0.015631834
0002c0 70 48 dc 3a 92 4c a2 3d 68 20 7f 3d d8 d3 2e 3d
       0.0016806256 0.07924761 0.062286764 0.0426825
0002d0 0c 26 d1 3d f7 6c 83 bc 64 f0 11 be 64 51 8d 3c
       0.10212335 -0.01604317 -0.14251858 0.017250724
0002e0 ac 1c 07 be ff 8a e5 3d 28 65 b5 bd d0 86 82 bd
       -0.13194531 0.11208152 -0.08857185 -0.0637337
0002f0 5a 61 7e 3e 3f f3 1a bc e5 f6 1e bd c1 a1 4b 3d
       0.24841824 -0.009457408 -0.038809676 0.049714807
000300 73 3b 85 3d 24 93 c5 bd 2b d2 79 bd d1 69 80 be
       0.0650548 -0.096472055 -0.060991447 -0.25080732
000310 c8 42 aa 3d c9 94 a0 3d 5d 59 96 bd 9d 5e d9 3d
       0.08313519 0.078408785 -0.073412634 0.10613749
000320 6d 48 a4 bd 3e 72 a8 bd a5 30 0e 3d c1 85 a5 bd
       -0.080216266 -0.08224915 0.03471436 -0.08082152
000330 15 10 b7 bd 07 dc 05 bd ac 2b cf 3c b1 9f 26 bd
       -0.08938614 -0.032680538 0.025289379 -0.040679637
000340 33 25 1b 3e 2c 26 48 be 7b 22 b0 bc 08 50 d9 bd
       0.15150909 -0.19545811 -0.021500817 -0.10610968
000350 d2 f5 4c 3e 1d e7 e5 3d 3c c9 ee 3c 13 d6 b5 bd
       0.20015648 0.11225722 0.02914869 -0.08878722
000360 bf eb 08 3e 8f 0e 86 3d 4e c0 a8 bd b8 fd 2f 3d
       0.1337118 0.065457456 -0.08239804 0.042966574
000370 68 c9 8d 3c 75 fe 26 b9 be 9a f2 bd 1d 5e 92 bc
       0.017307952 -0.00015925786 -0.11845921 -0.017867142
000380 05 d5 89 3d 5b 02 1c 3b e4 a0 28 be 14 55 9d bc
       0.067300834 0.0023805115 -0.16467625 -0.019205607
000390 00 2b 7a 3c 8e 10 18 3e 86 2e 39 3d 4a 7d b0 3d
       0.015269041 0.14850065 0.045210384 0.08617647
0003a0 0b 10 8a bd 9a 55 52 bd 33 25 d5 3c f9 a1 ee 3d
       -0.06741341 -0.051351167 0.026018715 0.116519876
0003b0 d0 79 b2 bc d8 27 27 3d a3 4f 60 3d 4e b8 8b bd
       -0.0217866 0.040809482 0.054763447 -0.06822263
0003c0 e9 a7 44 3d d4 9c b4 3d 7a 10 0e be ef 06 2e be
       0.048011694 0.08818975 -0.13873473 -0.16994832
0003d0 b1 72 36 bd 7b 31 af bd 58 8d 32 3e 60 d5 b4 bd
       -0.044542972 -0.085543595 0.17436731 -0.088297606
0003e0 9a fa 37 be a7 e4 16 bc 48 45 84 3d 43 6e 10 3d
       -0.1796669 -0.009209788 0.06458527 0.035261404
0003f0 94 2e db bd 18 7a e8 bc 9e 29 eb bd 3c 24 2c 3e
       -0.107022434 -0.028378531 -0.11482547 0.16810697

gru.weight_hh_l0 f4 [300, 100]
000000 5f ac ec 3d fe 9e 5d bd 4d da f6 bd 9b a7 a0 be
       0.11556315 -0.054106705 -0.12053356 -0.31377873
000010 59 ee 85 3b d0 57 89 be c6 33 28 3d 5c d5 e4 3d
       0.004087251 -0.26824808 0.041065 0.111735076
000020 1d f5 6e bd a4 67 05 3e bc c9 9e 3d 8f a3 a2 3b
       -0.058339227 0.13027817 0.077533215 0.0049633454
000030 f7 1c df 3c e7 c6 ba 3d bd 08 0b 3e 9d 32 58 3e
       0.027235491 0.09119969 0.13577552 0.21113057
000040 3e ca 3a bd 4c a4 fa bd d6 fb c4 3c 8b c5 0a 3e
       -0.04560303 -0.122383684 0.024045866 0.13551919
000050 61 7c d3 3d 42 10 37 3e a0 4c 0e be 54 9e 53 3e
       0.10326458 0.17877296 -0.13896418 0.20665866
000060 e1 4e a8 3d 90 7c 89 3d eb 10 1a be ec 6f 20 bb
       0.0821817 0.067132115 -0.15045516 -0.0024480773
000070 e8 b7 a0 bd ca b4 8b bb 85 08 8c bd 6a cc 04 3d
       -0.07847577 -0.004263495 -0.068375625 0.032421507
000080 a0 04 14 3e 6d b6 32 bc 43 ac c6 3d 64 96 b8 bd
       0.1445489 -0.0109077515 0.09700825 -0.0901306
000090 77 38 28 bd 68 ef ba 3d a1 ad c1 bd 23 74 4b 3e
       -0.041069474 0.09127694 -0.09456945 0.19868521
0000a0 1b 7c 09 3e 8e b5 55 3d 89 6b 27 be 7e 42 9b bc
       0.13426249 0.052175097 -0.16349615 -0.018952604
0000b0 04 b9 6d 3d 4d 87 d4 bd df 03 59 bd 13 2a 9f 3d
       0.058037773 -0.10377369 -0.052982207 0.07771697
0000c0 26 21 57 3d 40 18 1e 3d 23 95 ac bc d2 cf cb 3d
       0.052521847 0.038597345 -0.021067208 0.09951748
0000d0 e1 81 b6 3c 23 f8 5c 3c 73 76 a7 3d e4 e1 68 3d
       0.022278728 0.013486895 0.08176889 0.05685605
0000e0 24 15 01 be b8 5b b0 3d 7d 8e 1d be 1d c0 37 3c
       -0.12605721 0.08611244 -0.15386386 0.011215237
0000f0 64 9f 14 3d c6 53 06 3e 8e f0 20 3d 09 e8 e6 bc
       0.03628482 0.13117895 0.03929191 -0.028186815
000100 9c 4b 85 3c df 60 d3 3d 1e 25 92 bd 6f d9 a8 3a
       0.016271405 0.10321211 -0.07135986 0.0012882183
000110 4f 28 58 3c 2e 53 82 3d e4 2e 53 3e a5 b5 b9 bd
       0.013193204 0.063635215 0.20623356 -0.09067849
000120 1b 69 47 3e d9 7d ce 3d 07 b9 f6 3d 24 f7 33 be
       0.19473688 0.10082597 0.1204701 -0.17574745
000130 77 03 ab bd bd f7 15 3e ef 9e 54 3c 7e 99 d5 bd
       -0.0835027 0.14645286 0.012977346 -0.10429667
000140 f9 e3 59 3a 19 7a af 3d 57 e6 3e bd 86 c1 08 bd
       0.00083118636 0.0856821 -0.046606388 -0.033387683
000150 08 96 8d 3d 3d 79 93 3d c6 1f b4 3d 7d de 77 3d
       0.06913382 0.07200859 0.08795123 0.060514916
000160 77 09 ef bd 25 d9 31 3d 63 3e c4 3d fa 17 22 3e
       -0.11671727 0.043419976 0.09582212 0.15829459
000170 77 e2 17 3e ad fc c4 bd 0c 4e 81 3e 4d 09 b8 3e
       0.14832483 -0.096185066 0.25254858 0.35944596
000180 61 82 65 3d 61 64 13 3e 7b 0f 30 bd c5 a2 05 3e
       0.056032542 0.1439376 -0.042983513 0.13050373
000190 74 bc 51 bd 82 7b d9 bc 8b 06 5b bd de 35 a9 bd
       -0.051205114 -0.02654815 -0.053473037 -0.082622275
0001a0 51 1c ca 3d 24 e7 67 bc 87 e8 a7 3d cb 5b ce bc
       0.09868682 -0.014154229 0.08198648 -0.025190255
0001b0 c8 33 6c 3d e2 4d f0 bc 50 00 14 be dd 1f da bc
       0.05766657 -0.029334012 -0.14453244 -0.026626522
0001c0 b7 ef a0 3d 59 bb 01 be 6d ef 9d 3d 05 c4 27 be
       0.07858222 -0.12669124 0.077116825 -0.1638337
0001d0 8c 65 2c bd a8 da 8d bd 56 29 3a 3d af bc 8d bd
       -0.04208903 -0.06926471 0.045449577 -0.06920754
0001e0 57 ed 1b be aa 5d c1 bd a3 a9 43 bd 9d 61 02 bd
       -0.15227257 -0.09441693 -0.0477692 -0.031831373
0001f0 b6 c7 3e 3d 44 c6 75 3d 78 29 55 be c0 90 17 bd
       0.046577178 0.060003534 -0.208166 -0.03700328
000200 49 75 1c 3d 9c f7 eb bc 43 77 93 bb e2 69 7b be
       0.03819779 -0.028804593 -0.004500301 -0.2455211
000210 b2 5b 08 be 4f a2 94 3c e6 77 b4 bd ec 4f bf 3d
       -0.13316229 0.018143801 -0.08811931 0.09341416
000220 02 5d 2b 3e 00 5b 58 3e d8 a8 fa bc d8 36 36 bd
       0.16734698 0.21128464 -0.03059809 -0.044485897
000230 f7 ff 0e 3d 34 5e 1e be 9f b6 69 3e de c5 a4 3d
       0.034912076 -0.15465623 0.2282357 0.08045553
000240 d0 cc fb 3c e5 30 62 3d c3 b4 93 bd 91 a5 02 be
       0.03073731 0.05522241 -0.07212212 -0.12758471
000250 96 7c c6 3d af d8 0d be 4e b8 a0 bd 6f 8e 8d 3b
       0.09691732 -0.1385219 -0.07847653 0.004319958
000260 40 a6 1c be 59 ee 8c bd d7 0e 61 3e 60 a8 03 3e
       -0.15297794 -0.06881399 0.21978317 0.12857199
000270 e9 0f 25 3e 6f d8 23 bd 9a 6c 0a be be 6e 2e bd
       0.1611935 -0.04000133 -0.1351799 -0.04258608
000280 3c 2c ec bd ac b5 da bd b0 07 94 3d a8 d2 a6 bd
       -0.115318745 -0.106791824 0.07228029 -0.08145648
000290 13 bb fa 3d ae c9 a1 3c 10 9d 5e 3d 5b 48 37 3b
       0.12242713 0.019749489 0.054349005 0.0027966711
0002a0 c3 88 10 3e 26 6a f9 bc f2 c0 22 bb fb 6a c1 bd
       0.1411467 -0.030446123 -0.0024834243 -0.09444233
0002b0 a5 3d 2c bd 83 aa 8a bd 61 b0 73 3d 30 6c b0 bd
       -0.042050976 -0.06770804 0.05949438 -0.08614385
0002c0 89 80 b5 bd 92 64 8d bd b9 5d da b9 4f d0 9e 3d
       -0.08862407 -0.06903948 -0.0004165003 0.077545755
0002d0 49 e5 ea 3d f2 1e fd bd 3b 86 c8 3d 4b 72 82 bc
       0.11469514 -0.12359418 0.097912274 -0.01592364
0002e0 f7 65 e6 3c a5 bf 70 3c 84 28 48 3d 87 9e 16 3e
       0.028124793 0.014694129 0.048866764 0.14708911
0002f0 9d 6d 19 3e d3 b7 69 bc 23 18 4d bd f4 ef 5c bd
       0.1498322 -0.0142650185 -0.050071847 -0.053939775
000300 0f ea 0b 3e ae ff 24 3e 4e 12 2b 3e 62 21 e1 3d
       0.13663505 0.16113159 0.16706201 0.109926954
000310 86 41 2f 3e 3b 3a c9 3d 98 6b da 3d 9c 51 33 3e
       0.17114839 0.0982556 0.10665053 0.175116
000320 82 f2 eb 3c 37 56 0e 3d 92 da 51 3e 89 6f ec bd
       0.02880216 0.03475019 0.20493534 -0.11544711
000330 37 c4 40 bd 44 62 55 3d 9c d5 15 3c 6e 24 02 3e
       -0.047062125 0.052095667 0.009145167 0.1270921
000340 6c b7 4d bd 7d d6 75 3d 80 9d c1 bd ed d8 13 3e
       -0.050223753 0.060019005 -0.09453869 0.1443822
000350 23 dd a9 3d 5f 58 97 bd 13 f9 09 be e0 ac 16 3d
       0.082941316 -0.07389902 -0.1347392 0.03678596
000360 6a 05 40 3e b3 e5 dc 3d 5d 4c 30 bd 65 b2 8f bc
       0.18752065 0.10785999 -0.043041576 -0.01754112
000370 1a 4d 3e bd 23 6d fc bc ef 22 cf bd 23 e9 b7 3d
       -0.04646025 -0.03081376 -0.10114085 0.08980014
000380 e2 ec 95 bd 65 2c 8b bd 7d 5d 68 3d 87 63 e5 bd
       -0.073205724 -0.06795577 0.056729782 -0.11200624
000390 f9 6c 9f 3d 31 d5 19 3e 96 42 b9 bd fb fb 17 3d
       0.07784457 0.15022732 -0.090459034 0.03710554
0003a0 8d 01 12 3c 48 9d b6 bd 37 50 74 3e 45 ad 24 be
       0.008911503 -0.08916718 0.23858725 -0.16081722
0003b0 61 f9 cb bd 1e c6 db 3c 26 4e 88 bd a0 73 ae bd
       -0.099596746 0.026827868 -0.06655531 -0.085181475
0003c0 87 36 b6 bc 80 ca ad bd 3f fe 1a be f7 8b 35 3e
       -0.022242798 -0.084858894 -0.1513605 0.17729174
0003d0 e4 cf 5b 3e 45 7a bf bd 98 cf 18 bd 67 06 07 bd
       0.21466023 -0.09349493 -0.03730735 -0.03296509
0003e0 44 59 18 bd ab 27 70 3d eb 0c e3 3c f3 2e 56 3d
       -0.037194505 0.05863158 0.02771612 0.052290868
0003f0 34 0e 81 bd e3 8e ba bd e0 ea e7 bd 6b 6e 2e 3e
       -0.06301537 -0.09109285 -0.11324096 0.17034309

gru.bias_ih_l0 f4 [300]
000000 f6 8f ac bc 1b 2a 44 3d 6e 2d 42 bd 6f 77 9c 3d
       -0.02106474 0.047891717 -0.047406606 0.07639968
000010 9e 84 56 3e 60 48 a2 3d 10 ff 28 3e eb 01 67 3d
       0.20949027 0.07923961 0.16503549 0.056398313
000020 d4 23 d0 bc 1b d2 c7 3d 9c c8 52 bd b1 30 a7 3d
       -0.02540771 0.09756871 -0.051460847 0.08163584
000030 8a 46 a8 3d 8d b3 c7 bc 35 68 0e 3d cc 33 d0 3c
       0.08216579 -0.024377609 0.03476735 0.025415324
000040 c2 98 28 3e 72 fc 12 3e 65 10 d3 3d d6 55 3a 3c
       0.16464522 0.14354113 0.103058614 0.011373004
000050 60 32 24 3e 59 1a c8 3d 6e ea 9a 3d 2b 5a dd 3c
       0.16034842 0.097706504 0.07564245 0.027020535
000060 71 78 40 3e 04 90 76 3d 3e 2e ed 3d 70 05 d3 3d
       0.18795945 0.060195938 0.115810856 0.103037715
000070 11 31 68 bc 74 b8 b9 3d ae 8a 63 3d d9 f3 75 3d
       -0.014171855 0.09068385 0.055552177 0.060047004
000080 cd 24 aa 3b 1b 2a a8 3c 01 60 45 bc a9 98 ad 3d
       0.0051923753 0.02052789 -0.012046815 0.08476383
000090 e1 36 b9 bd 4d 87 0a 3e 2b 74 52 3d eb 62 3c 3d
       -0.090436704 0.13528176 0.051380318 0.045992773
0000a0 0b 52 47 3d 26 9c a2 3d ac f6 87 bc cd 23 17 3e
       0.048662227 0.07939939 -0.016597115 0.1475975
0000b0 0a 6c 29 3e f6 74 52 3c a0 6b 82 3c 52 03 3c bc
       0.1654512 0.0128452685 0.01592046 -0.011475401
0000c0 a4 39 b9 3d e2 7f 8c bd 17 77 09 bc 1d e6 47 bc
       0.09044197 -0.06860329 -0.00839021 -0.012200859
0000d0 e6 ee 90 3d f1 07 6c bd d1 6f 5b 3d b2 2a 69 bd
       0.07076816 -0.05762476 0.053573433 -0.056925483
0000e0 24 68 c6 3d f9 5e 14 bd 58 40 82 3d d0 9d 9d bd
       0.09687832 -0.036223385 0.06359929 -0.07696116
0000f0 75 8d f5 3c 58 8c 92 3c 01 54 8f 3d ee 8c 88 3d
       0.029974679 0.017889187 0.06998444 0.06667505
000100 25 46 1a 3c 33 dc 00 3e e9 3b f0 3c 43 c4 a4 bd
       0.009416138 0.12584 0.029325442 -0.080452465
000110 47 2d 75 3d 07 4e ea bc da a8 ed 3d ab 21 e6 3d
       0.059857633 -0.02860166 0.116044715 0.112368904
000120 b1 8f 07 3d 40 d5 83 bd 9e a5 10 3e 21 79 99 bc
       0.03309602 -0.064371586 0.14125678 -0.018734517
000130 0e 1a b4 3d 72 d3 5e bc 14 aa 46 3d 70 f8 b9 3d
       0.08794032 -0.013600217 0.048502043 0.09080589
000140 38 a0 6f 3d bc 5e 39 3c d2 4a a1 bc 2c 20 8f 3d
       0.058502406 0.01131409 -0.019688997 0.06988558
000150 3d d9 2d bd 4b f1 d6 3d ac b9 8e 3d 42 40 27 bd
       -0.042443503 0.10495242 0.06969008 -0.040832765
000160 87 ed 4c 3e 6a 15 00 be 6a e2 39 3e 9e 2c 11 bd
       0.20012484 -0.12508169 0.18152776 -0.03544294
000170 28 d9 a6 3c c6 84 f6 3d db 98 9b bd e4 d1 9b b9
       0.02036722 0.12037043 -0.07597514 -0.00029720285
000180 74 01 9a 3c 5c db bf 3d 03 d5 05 3e 16 63 53 bd
       0.018799521 0.09368011 0.13069539 -0.051608168
000190 79 1b 83 be e8 dc 8c be 7c e2 45 be db b8 a2 be
       -0.25606897 -0.27512288 -0.19324678 -0.3178166
0001a0 72 53 95 be 79 99 8a be db b5 99 be 4c 6e 73 be
       -0.29165226 -0.27070215 -0.30021557 -0.23772544
0001b0 49 f0 25 be cb 7e 79 be 3a 42 a7 be 93 d0 31 be
       -0.16204943 -0.24364774 -0.32667714 -0.17364721
0001c0 3a ef 46 be 95 60 49 be f8 bb 70 be f9 2e 91 be
       -0.19427195 -0.1966575 -0.23509204 -0.2835615
0001d0 92 94 99 be 96 4d 33 be 5a c0 60 be 0d 56 2f be
       -0.29996163 -0.17510065 -0.21948376 -0.1712267
0001e0 9c 39 a3 be 69 60 43 be 04 1d 09 be 0b 5d 26 be
       -0.3187989 -0.19079746 -0.13389975 -0.1624643
0001f0 e1 c1 43 be 52 2e 8e be 59 34 09 be fb 91 8b be
       -0.19116928 -0.27769715 -0.13398875 -0.27259812
000200 85 3e 55 be a3 ab 87 be 61 ff 37 be 0a 0b 91 bd
       -0.2082463 -0.26498136 -0.17968513 -0.07082184
000210 71 74 74 be 2e 18 7f be 49 8c 7f be 58 b1 0f be
       -0.23872544 -0.24911568 -0.24955858 -0.14032495
000220 42 28 83 be de 3e 3f be 30 f7 6a be a1 e4 6f be
       -0.25616652 -0.18676326 -0.22945857 -0.23427059
000230 36 3e d5 be e9 58 0b be 26 43 82 be 32 f2 c5 be
       -0.41649026 -0.13608135 -0.25441855 -0.38661343
000240 a2 79 71 be 3b d2 5e be c9 fe ab be c1 eb 8d bd
       -0.23581555 -0.21759884 -0.33592823 -0.06929732
000250 3c 1f 98 be fc a3 cf bd 75 79 44 be cd 09 09 be
       -0.2971133 -0.101386994 -0.19186957 -0.13382645
000260 84 2c 9f be 47 b7 68 be 14 6e 91 be f2 4f a8 be
       -0.3108865 -0.22726165 -0.28404295 -0.32873493
000270 75 32 dd be 83 46 8b be eb 01 97 be 79 64 be be
       -0.43202558 -0.27202234 -0.2949365 -0.3718603
000280 80 6b 69 be 8f 3c 8c be 87 74 a3 bd a7 2f 93 be
       -0.22794914 -0.27389953 -0.0798121 -0.28747293
000290 ca 57 3d be 8b 92 b8 be 59 11 61 be f7 49 f5 bd
       -0.1849052 -0.36049303 -0.21979274 -0.11976998
0002a0 62 6b 6c be 54 4d bb be fc 25 04 be 6f dc a1 be
       -0.23087838 -0.36582434 -0.12905115 -0.3161349
0002b0 f2 be 65 be 2f 09 09 be 76 fb c3 be 15 6f 85 be
       -0.22436121 -0.1338241 -0.38277787 -0.2606131
0002c0 e8 3a 87 be 13 57 8b be 3c 79 02 be a5 12 fe bd
       -0.2641213 -0.2721487 -0.1274156 -0.124059
0002d0 7f d8 90 be 82 28 c2 be 8e cf 84 be 37 dc 55 be
       -0.28290173 -0.3792153 -0.25939602 -0.20884787
0002e0 e6 93 65 be 6d 41 e3 bd 2a 68 ae be d0 5f 6c be
       -0.224197 -0.11096463 -0.34063846 -0.23083425
0002f0 c1 a7 6c be a1 ac 8b be b7 07 0d be 2e d3 95 be
       -0.23110868 -0.27280143 -0.13772474 -0.2926268
000300 28 96 1a be 01 21 1f be 68 ff 7c be 00 17 80 be
       -0.15096343 -0.15539934 -0.24706805 -0.25017548
000310 0a bd 94 be c2 8e 76 be 01 39 86 be f8 2d 52 be
       -0.29050475 -0.24077895 -0.26215366 -0.20525348
000320 df 85 3f 3e 19 7b 02 3e 18 ab 8b bd 32 2c 1f 3d
       0.18703412 0.1274227 -0.06819743 0.038860507
000330 a1 51 b6 3d 4f 8a a1 3a 3a d3 19 3e f0 3c 1f be
       0.08902288 0.0012324544 0.15021983 -0.1555059
000340 39 df 2f 3e 11 ab af 3c ff 7e 8e 3d 81 2d b9 3d
       0.17174996 0.021443876 0.06957816 0.09041882
000350 bd a5 fa 3d bc 6e 8d 3d 01 35 5a 3d a9 aa 86 3d
       0.12238643 0.069058865 0.053273205 0.065755196
000360 1b 47 a5 3d 9c fd 6a 3c 99 fb e4 3b 54 88 b3 3c
       0.08070203 0.014342692 0.0069880006 0.021915592
000370 72 22 b1 3d 19 74 36 bb b0 45 44 3d de 48 91 bc
       0.08649148 -0.0027840196 0.04791802 -0.017734941
000380 a9 bd 9f 3d db b6 16 be 73 ed 3e 3e 48 e0 06 3e
       0.07799847 -0.14718191 0.18645267 0.13171494
000390 ad e0 d4 3d 6e 7d 32 3c a5 74 0b be 16 b1 fe bd
       0.10394416 0.010894163 -0.13618715 -0.1243612
0003a0 13 72 9c bb be a5 d0 3c 48 27 3f bd 81 38 15 3e
       -0.004774341 0.025469657 -0.04666832 0.14572336
0003b0 0b b3 5e bc f8 8e dc bd f1 90 d6 3d c2 56 94 3d
       -0.013592492 -0.107694566 0.10476864 0.0724311
0003c0 db 49 f3 3d d7 39 f4 3d 87 48 f1 bd 96 82 c7 3d
       0.11879321 0.119250946 -0.117814116 0.09741704
0003d0 93 09 01 be 7f 67 e1 3d 07 d8 c5 bd 21 32 2a 3d
       -0.12601309 0.110060684 -0.096603446 0.041551713
0003e0 09 f7 f5 bd e9 7d 17 3d 6d 13 cc 3d cd 68 af bc
       -0.12010009 0.03698531 0.09964643 -0.021412278
0003f0 cf b1 ab 3d c2 74 43 3c 11 a5 99 bd 7c e7 65 bd
       0.08383524 0.011929693 -0.07502187 -0.056128964

gru.bias_hh_l0 f4 [300]
000000 75 f9 a6 3c 11 92 0e 3e b6 de ed 3c 19 a9 cc 3c
       0.020382622 0.13922907 0.02903686 0.024982976
000010 63 17 57 3d 58 08 b0 3d ad 5f c0 3d a8 82 32 3e
       0.052512538 0.085953414 0.09393249 0.17432654
000020 a3 b0 ed bb 43 2a 23 3e 55 a1 93 3d a6 ed 8e bd
       -0.0072537228 0.1593409 0.07208506 -0.069789216
000030 5d 29 47 3e 09 21 15 3d 05 40 bf 3b 91 0f d5 3d
       0.19449373 0.036408458 0.005836489 0.1040336
000040 55 42 15 3e 4c c3 18 bd 2d 12 98 3d fb 07 58 bd
       0.14576085 -0.037295625 0.07425342 -0.052741986
000050 63 c9 12 3e 2b c7 9a 3d 0d d0 26 bc 15 f7 6a 3c
       0.14334635 0.075575195 -0.010181439 0.0143411355
000060 29 dc b4 3d ad 1d c3 3d 5e 9a f8 3d 98 8a c1 3d
       0.08831055 0.095271446 0.12138818 0.09450263
000070 a5 c3 b2 3d 3f c3 6c 3d d1 c0 52 bc d1 0f 0c 3d
       0.087287225 0.05780339 -0.012863354 0.03419477
000080 38 2d 3a bd b4 b5 f5 3d d6 23 63 bd 02 b3 59 3b
       -0.04545328 0.11997548 -0.055454098 0.003321827
000090 06 89 a1 bd 3b fd d0 3d a0 12 12 3e 42 78 73 3c
       -0.07887463 0.1020455 0.14264917 0.014860215
0000a0 25 3c ba 3d ec 97 24 3e d5 e7 00 3d ff 53 ca 3d
       0.09093503 0.16073579 0.031471092 0.09879302
0000b0 d2 e4 81 3d 4a 5c cb 3d 60 42 70 3c f9 7f 1d 3e
       0.06342472 0.09929712 0.0146642625 0.15380849
0000c0 30 7f 85 3d 23 57 31 3d 32 e9 61 3d 1b a0 0e 3e
       0.065184 0.04329599 0.055154033 0.13928263
0000d0 3f e5 74 3d 57 48 79 bb 66 d4 84 ba 5d 22 24 bb
       0.05978894 -0.0038037503 -0.00101341 -0.0025044896
0000e0 52 0c 16 3e 3a 9a ac 3b 7c d0 87 bc 7b 55 5a bd
       0.14653137 0.0052674087 -0.016578905 -0.053304177
0000f0 76 d3 45 bb 60 c0 9a 3c 2b 70 1a 3e 2f e8 d8 3d
       -0.0030185855 0.01889056 0.15081851 0.105911605
000100 9c 7f 86 3c 4e 33 f7 3d c5 09 1a 3d 34 08 a1 bc
       0.01641827 0.120703325 0.037606973 -0.019657232
000110 bf 1e 17 3e 99 a3 21 3e 5b 58 e6 bc a5 82 75 bd
       0.14757822 0.15785064 -0.028118303 -0.059939045
000120 31 2b a6 bd ba c4 55 bd 07 da 4e 3e ef 89 23 bd
       -0.08113707 -0.052189566 0.20200358 -0.039926466
000130 cb fd c9 3c f0 90 fb 3c ac 73 89 3c fb 3c c9 3d
       0.02465715 0.03070876 0.01677879 0.09826084
000140 73 3f 13 bc 86 b0 04 3e 40 c0 e7 bc 50 e1 8a bc
       -0.008987295 0.12957963 -0.028289914 -0.01695314
000150 1e d5 a4 bd a9 10 8b 3d de e2 af 3d 66 cd c1 bc
       -0.080484614 0.06790287 0.08588193 -0.023657512
000160 81 2c d0 3d 19 c1 45 3d f6 ba a8 3d 36 77 0c bc
       0.101647384 0.048279855 0.08238785 -0.008573344
000170 da 3e 70 bd c1 1c 4d 3e da 79 c2 bc 6a 40 3d 3c
       -0.05865369 0.200305 -0.023739744 0.011551002
000180 86 35 cf 3d 84 e7 d1 bb c7 73 db 3c 37 72 29 3d
       0.10117631 -0.0064057726 0.026788605 0.04136869
000190 5e ac 7c be 7b 7f 6b be a3 77 9b be c5 ad 6e be
       -0.24675128 -0.22997849 -0.30364713 -0.23308475
0001a0 be 5a 83 be 38 cf 70 be 52 85 b5 be d8 c5 a2 be
       -0.25655168 -0.23516548 -0.35453278 -0.31791568
0001b0 0d d0 58 be 41 f9 36 be c8 14 a3 be 38 c1 28 be
       -0.21173115 -0.1786852 -0.31851792 -0.16479957
0001c0 3a 02 1d be b9 78 67 be a4 31 58 be 48 89 b3 be
       -0.1533288 -0.22604646 -0.21112686 -0.35065675
0001d0 c4 85 af be 67 76 5d be ed b7 09 be bf 4b 82 be
       -0.34281743 -0.21627198 -0.13449068 -0.25448415
0001e0 45 49 8b be 19 a5 84 be 8d 82 5d be c4 25 53 be
       -0.27204338 -0.2590721 -0.21631832 -0.20619875
0001f0 d5 65 8f be 6e 76 5a be 4f 14 87 be dc 74 61 be
       -0.2800738 -0.2133424 -0.26382682 -0.22017235
000200 62 61 5d be 2d 46 29 be 6e d9 16 be aa 73 41 be
       -0.2161918 -0.16530676 -0.1473138 -0.18891779
000210 5b bc c8 be c5 74 a8 be e0 65 33 be e8 12 e4 bd
       -0.39206204 -0.32901588 -0.17519331 -0.111364186
000220 f2 94 9e be c4 df 0d be 1a 2a 96 be d1 7d 93 be
       -0.3097301 -0.13854891 -0.29328996 -0.28806928
000230 ab 83 9d be 99 36 2e be 9d db 8b bd 5e aa be be
       -0.30764517 -0.17013015 -0.06828997 -0.37239355
000240 96 28 f4 bd f5 d3 09 be 36 8c b6 be 09 81 3b be
       -0.11921804 -0.13459761 -0.35653847 -0.18310942
000250 ec 0f 50 be 8c 9c 1b be 2f 2e 88 be c3 32 5f be
       -0.20318574 -0.15196437 -0.26597735 -0.21796708
000260 4f 64 90 be 95 e9 a5 be 79 21 8a be 73 af bc be
       -0.2820153 -0.3240477 -0.26978663 -0.36852607
000270 a8 32 98 be c7 ff 06 be 48 d8 99 be 84 be bc be
       -0.29726148 -0.13183509 -0.30047822 -0.36864102
000280 6f 92 2e be ea f1 3e be d8 cc 82 bd 70 cf 92 be
       -0.17048047 -0.1864697 -0.06386727 -0.28673887
000290 f7 a4 80 be f8 9c b9 be 0e 7e 87 be 69 0e 5b be
       -0.25125858 -0.3625257 -0.2646336 -0.21392216
0002a0 2f 85 58 be 70 73 d3 be 0c 01 1a be 7c 27 4c be
       -0.21144556 -0.4129901 -0.15039462 -0.19936937
0002b0 75 72 8a bd b3 29 df bd 7d a2 7a be 6e 39 5d be
       -0.06760112 -0.10896625 -0.24476047 -0.21603939
0002c0 aa 70 84 be bf c1 ac be 64 0d e2 bd e4 a2 99 be
       -0.25867206 -0.33741567 -0.1103771 -0.30007088
0002d0 11 fb a9 be c6 d6 42 be 18 67 82 be be 23 2f be
       -0.3319936 -0.19027242 -0.2546928 -0.17103478
0002e0 f4 23 2b be 07 95 77 be 1c a4 2a be 61 a5 b9 bd
       -0.16712934 -0.24177943 -0.16664165 -0.09064747
0002f0 b4 07 86 be ca 03 3c be dc 5d 3c be 60 c7 71 be
       -0.26177752 -0.1836082 -0.1839518 -0.23611212
000300 4d ef 8c be 17 12 75 be 34 4f 4a be f0 a5 45 be
       -0.27526322 -0.23932682 -0.19756776 -0.19301581
000310 69 ca 14 be 0a 87 a8 bd 1a c1 76 be a8 bc 85 be
       -0.14530338 -0.08228882 -0.240971 -0.26120496
000320 17 59 08 3e af 9b b5 3d 3a 49 ba 3d 7f 8e 4b 3e
       0.13315235 0.08867585 0.09095998 0.19878577
000330 48 78 19 3e 92 b7 1c 3d 7d 51 7f 3e a9 da 25 be
       0.1498729 0.038261004 0.24933429 -0.16196693
000340 f9 18 e5 3d b5 af 34 bd 22 2d d7 bd d3 87 92 3d
       0.11186404 -0.04411288 -0.10506655 0.07154813
000350 ec 96 24 3e fd cb ea 3c 84 83 96 3d a5 e7 bc 3d
       0.16073197 0.028661722 0.07349303 0.0922387
000360 4d f4 7b 3d 86 b5 3b bc 6e 4b 87 3d 47 d4 fd 3b
       0.06151228 -0.011456853 0.06606184 0.0077462527
000370 1a e7 2f 3e e0 ee 0e 3e 62 f9 70 3d a7 b4 1f bc
       0.17178002 0.13958311 0.05883158 -0.009747661
000380 db 39 4a 3e 4f 0d 5a be f5 60 16 3e c3 68 18 3e
       0.19748633 -0.2129414 0.14685424 0.14883713
000390 e6 56 41 bc aa 8a a9 3d e4 c4 84 3d 20 62 72 bd
       -0.011800503 0.08278401 0.064828664 -0.05917561
0003a0 5f fe a0 3d ca 0f 1b 3e 78 43 36 bd 34 fa 58 bd
       0.078610174 0.15142742 -0.044497937 -0.052972987
0003b0 f3 39 f4 bc 57 92 38 3d b8 40 55 bd bd a8 8c 3d
       -0.029812789 0.045061436 -0.052063674 0.06868122
0003c0 fa 2c 97 3d 04 9a 1f 3e 2d b5 86 3d d8 79 d7 3d
       0.073816255 0.15586096 0.06577525 0.10521287
0003d0 42 bc 74 bc 47 d9 62 3c 16 08 e1 bd 9a 12 06 3e
       -0.014937462 0.013845748 -0.109878704 0.13093033
0003e0 58 77 bf bd a6 ef fd 3c 34 ef dc bc 02 59 1e 3e
       -0.09348935 0.030998062 -0.02696953 0.15463641
0003f0 86 5d 5c bd 93 48 77 bd c7 46 0e bd b1 f8 8f bd
       -0.05380013 -0.060371947 -0.034735467 -0.07029856

gru.weight_ih_l1 f4 [300, 100]
000000 88 f0 f1 bd 03 42 8b 3c c0 05 1f 3e 2a ec 30 3d
       -0.11813456 0.01699925 0.15529537 0.043193974
000010 33 a6 83 bd 4f 1b d9 bc ba 9c 50 3d 7a db 97 3d
       -0.06428184 -0.02650228 0.050930716 0.07414909
000020 cf c8 1e be 6e ea 48 be f5 b3 33 3c a0 31 fd 3c
       -0.1550629 -0.19620678 0.010968198 0.030907452
000030 77 58 ec 3d a4 b5 8b 3c 8b 68 51 be af 94 88 3c
       0.11540311 0.017054386 -0.20450036 0.01667246
000040 f5 90 47 3e f7 85 8b 3c 81 39 fc bd e9 19 24 be
       0.1948889 0.017031653 -0.123156555 -0.16025509
000050 23 70 36 be 80 3a 01 3d 65 89 92 bd 07 24 0c bc
       -0.17816214 0.03154993 -0.07155112 -0.008553511
000060 90 d4 53 bc b8 b1 d8 bc 2f 60 d7 3d 38 5a 8b bd
       -0.012929097 -0.02645193 0.105163924 -0.06804317
000070 06 10 fb 3d ea da 84 3e 44 b6 65 3c d7 e0 d2 bc
       0.122589156 0.25948268 0.014020506 -0.025741978
000080 fc d3 08 3e cb 16 15 bc 18 15 6b 3e fa 1e 73 be
       0.13362116 -0.009099673 0.22957265 -0.23742285
000090 2f e4 21 be a7 a7 93 3d 19 d0 d0 3d e7 96 93 bd
       -0.15809701 0.072097115 0.101959415 -0.07206517
0000a0 8c 3f 80 bd a7 68 06 be 45 dc b0 3c 31 97 88 be
       -0.062621206 -0.13125859 0.021589408 -0.2667785
0000b0 84 a0 e9 3d 8f 72 94 3d f7 c6 57 bd 2d 22 41 3e
       0.11407569 0.07248413 -0.052679982 0.18860693
0000c0 34 2d ce bd c4 84 7c bd 08 9a f5 3c 7f 9a cc 3d
       -0.100672156 -0.061650053 0.029980674 0.09990405
0000d0 1c aa b9 be 7f 4d 41 bd 08 7c 8a bd 85 0a 99 3d
       -0.36262596 -0.047193047 -0.06761938 0.074727096
0000e0 f4 c8 bc bb f0 b4 d1 3d db 18 73 3e 84 8c e8 3d
       -0.00576126 0.10239589 0.2373995 0.11354926
0000f0 a9 80 64 3d 16 fc 21 3e 75 e1 a7 3d fc 0b e6 bd
       0.055786762 0.1581882 0.081972994 -0.112327546
000100 c1 90 9c bc 63 a6 54 3a 5d 69 ec bd f4 fa 11 3d
       -0.019111993 0.0008111952 -0.11543534 0.03563972
000110 d9 92 74 bc eb e4 f9 3d 0f bb ae 3b f3 19 0c bd
       -0.014927589 0.12201866 0.0053323577 -0.034204435
000120 d1 8f be bd c1 11 3d bd d7 21 cc 3c b1 41 2d 3e
       -0.093047746 -0.04615951 0.02491848 0.1691959
000130 39 20 03 3e 83 78 07 3e 26 39 68 3d 18 c2 1e 3e
       0.1280526 0.13229565 0.056695126 0.15503728
000140 86 2c 42 bd f3 c7 d9 3d 07 73 7e 3e 57 3f f8 bc
       -0.047405742 0.106338404 0.24848567 -0.03030364
000150 f4 99 31 be 55 1a 3a bd 68 18 32 b8 fd 10 a5 bd
       -0.17343885 -0.04543527 -4.2461237e-05 -0.08059881
000160 cf 49 33 3e 21 b3 7b 3e 6e b8 4c be 9e 46 41 3d
       0.17508624 0.24580051 -0.1999223 0.047186486
000170 d8 ee 49 bd 43 48 66 3d 99 aa db 3d e7 34 6d bd
       -0.049300045 0.056221258 0.10725898 -0.05791178
000180 a8 a1 b6 3c ad 28 27 3d 8a b4 06 be 6c 2b f9 bc
       0.02229388 0.040810276 -0.13154808 -0.030416213
000190 9f c7 a4 3b 81 a4 6e 3d eb 13 3f be 64 90 08 be
       0.0050286795 0.058262352 -0.18659942 -0.1333633
0001a0 d8 cf ef 3d a4 b3 b7 3d 29 fa e0 3b 28 77 fd bd
       0.11709565 0.089698106 0.006865759 -0.12376243
0001b0 ad a8 ec bd b9 85 e4 bd 4f 27 82 3d 67 4d 9a 3d
       -0.1155561 -0.11158318 0.06355154 0.075342946
0001c0 9d ed 03 3e 7d c5 0c 3e 55 11 93 3d 55 52 64 3d
       0.12883611 0.13747211 0.0718104 0.05574258
0001d0 cb 2f 32 3e 96 8a 8a 3d d4 99 42 bd eb f1 68 bd
       0.17401044 0.067647144 -0.047509983 -0.056871336
0001e0 61 f5 70 3d 04 f1 02 3e 0e ed a1 3c 9b e0 aa 3c
       0.05882776 0.12787253 0.019766357 0.020859053
0001f0 74 68 d7 3d d5 b6 da 3d b9 57 44 3d b4 27 2e 3d
       0.1051797 0.10679404 0.04793522 0.042518333
000200 fe 30 41 3a 72 6b f6 3d d6 05 04 3e 8d 25 2b 3d
       0.0007369666 0.12032212 0.12892851 0.041783858
000210 78 52 ad bc 13 cb 27 be 89 6e 83 be 32 74 27 bd
       -0.021157488 -0.1638606 -0.2567027 -0.040882297
000220 de f6 2e be 59 e7 16 3e ed ad 1b 3d af d8 69 be
       -0.1708636 0.1473669 0.038007665 -0.22836564
000230 47 06 a5 3d 5f 1d ce 3d 08 cf 52 3c ce 94 fe 3c
       0.08057838 0.10064196 0.012866743 0.031076815
000240 aa 3b e4 bd 80 43 af 3d ab ee 25 be 2a 4e 41 be
       -0.111441925 0.085577965 -0.16204326 -0.18877473
000250 86 d5 0a bc 25 94 01 3d 73 5b 60 3e b7 c3 9c 3d
       -0.0084737595 0.031635422 0.21909885 0.07654517
000260 85 ca 8c bc dc 1a 02 be 35 ac 81 3e 56 7f 12 3d
       -0.017186413 -0.12705559 0.25326696 0.03576597
000270 8d fb fb 3d a7 62 87 be f4 1c 5f bd b8 ce ef bb
       0.12303839 -0.26442453 -0.05447097 -0.007318344
000280 a3 f4 2a bd 85 96 b1 3d 6d c0 29 3e 5a 5a 65 3d
       -0.04173721 0.086712874 0.16577311 0.05599437
000290 23 9c af 3c 06 a8 8e 3d df 96 7b bd 3b c8 9e bd
       0.021436756 0.06965642 -0.06142318 -0.07753035
0002a0 2f 7b 28 3c da 55 b8 3c 5c 2e 73 bd c4 91 16 bd
       0.0102832755 0.022501875 -0.059370384 -0.036760107
0002b0 87 a3 bf 3d 58 66 08 bd 76 89 71 3d 33 38 c8 bd
       0.09357362 -0.033300728 0.058968984 -0.09776344
0002c0 ac 5d e0 3d a1 27 ca 3d 18 54 11 3e 17 05 b7 3d
       0.109553665 0.0987084 0.14192235 0.08936518
0002d0 95 7f 81 3d e1 ab 27 3e 98 15 e2 bc ff 84 63 3e
       0.063231625 0.1637416 -0.027598187 0.22218703
0002e0 92 bb b2 bd 4f 6f 2a be 97 f4 9e 3d ca ca 17 bc
       -0.087271824 -0.16644023 0.077614956 -0.009264657
0002f0 64 f5 9e 3d f8 48 2c bd e1 96 35 3e ff a8 bf bd
       0.07761648 -0.042061776 0.17733337 -0.09358405
000300 07 b8 e1 bd 69 99 0a 3e 10 85 69 3e ff d2 a9 3c
       -0.110214286 0.13535084 0.22804666 0.020730494
000310 b9 97 be 3d 5e b2 28 3d 2e 0b b4 3d 57 e1 bb 3d
       0.093062826 0.04118573 0.08791195 0.091738395
000320 2f e9 01 3d 5e 0e 40 3e e0 aa af bc b1 86 18 be
       0.03171652 0.1875548 -0.021443784 -0.1489513
000330 9e 6a fc bc 77 53 59 bd c0 4c 89 ba 6e d0 68 be
       -0.030812558 -0.053058114 -0.0010475144 -0.2273576
000340 b7 b9 ef 3d db 1e 18 be 05 a5 f3 3d d7 18 8c be
       0.11705344 -0.1485552 0.11896709 -0.273627
000350 eb 15 41 bd cd 83 3b 3d be 0b 02 bd 20 35 fd 3c
       -0.047140043 0.045779992 -0.03174948 0.030909121
000360 11 5c 4b 3e 0b ad 9c bd 63 6d c5 3d 6a 40 34 bc
       0.1985934 -0.07650193 0.096400045 -0.011001686
000370 1f 33 26 be 92 fa ee bd 9d 0b aa 3d 08 5c a5 3e
       -0.16230439 -0.11668886 0.08302996 0.32296777
000380 43 a6 09 3e 2d a2 63 bd 6a 27 d3 3d b6 35 25 3e
       0.1344233 -0.055574585 0.10310252 0.1613377
000390 6f 82 6e be 21 cf a1 bc d2 59 4d bd ed 9d 09 3e
       -0.23291944 -0.019752087 -0.050134487 0.1343915
0003a0 68 f0 97 bd 29 80 cf bd 80 b5 87 3e a2 35 37 bd
       -0.07418901 -0.101318665 0.2650566 -0.044728883
0003b0 36 1d 3b bd ee f1 4b 3d fc 60 f3 bc c5 fc 9f 3e
       -0.045682155 0.04979127 -0.029709332 0.31247535
0003c0 ca 00 f9 bd ee 57 93 bd b9 d8 13 3d 9e 59 9e bd
       -0.121583536 -0.07194506 0.036095355 -0.07731937
0003d0 1d e7 9a bd a7 db 24 bb 54 46 28 bd 26 e5 85 be
       -0.075636126 -0.0025155337 -0.041082695 -0.2615139
0003e0 8c f7 06 bd d5 5f b8 bd 05 71 dc 3d 5e 74 62 bd
       -0.032950923 -0.090026535 0.10763744 -0.055286758
0003f0 50 e7 59 bd d8 03 38 be 7c 5d 3d bc 22 1b 81 3d
       -0.053199112 -0.17970216 -0.011557933 0.06304003

gru.weight_hh_l1 f4 [300, 100]
000000 08 fe 6d 3e 76 81 f0 bd 30 ea 80 bd 4c a8 0c be
       0.23241436 -0.11743443 -0.06294668 -0.13736075
000010 c4 77 7a 3d 2c 88 0b 3e db b3 16 3c 31 1d 46 3b
       0.061149374 0.13626164 0.009198154 0.0030229802
000020 6f b2 ed bc c2 dd 80 bd 5d 7c e5 bd d6 fb 04 3e
       -0.029015748 -0.06292297 -0.11205361 0.12986693
000030 1b cd 55 3e bb f3 85 3d 90 41 cf 3c ff 27 58 bd
       0.20879023 0.065406285 0.025299817 -0.05277252
000040 14 f3 49 3d 61 53 e5 3b ac a8 4e 3d 2e 8d 61 3e
       0.049304083 0.006998465 0.050453827 0.22026512
000050 d3 80 9b 3c 17 a4 ce bd dd aa 1b be cf ae c3 3d
       0.018982327 -0.100898914 -0.15201898 0.095548265
000060 c2 60 fe 3c 66 84 cd 3c b2 7f 9b bd 1f f3 cb 3d
       0.031051997 0.025087547 -0.07592715 0.09958481
000070 57 24 14 3c d6 46 06 be f8 ec f3 3d 89 e5 81 3d
       0.009041867 -0.1311296 0.119104326 0.063426085
000080 2d 92 b4 3b ed 6a 49 bd 1d f4 f3 bd 1c e4 00 be
       0.0055105896 -0.049174238 -0.11911795 -0.12587017
000090 b5 fa f4 3d ba 29 c8 3d fd e3 66 bd 2e ff 2b 3d
       0.11961881 0.09773584 -0.05636977 0.041991405
0000a0 a7 b2 e0 3c c2 13 00 3e a8 6b 8e bd 06 47 6e bc
       0.027428938 0.12507537 -0.069541276 -0.0145433005
0000b0 fe bf f0 3c d7 74 f7 bd c3 2e 4c 3e 3f 45 be 3d
       0.029388424 -0.12082832 0.19939713 0.092905514
0000c0 8f 7a 16 bd ff 07 d5 bc e8 7c 75 bd 35 c3 ca 3c
       -0.036737975 -0.02600479 -0.059933573 0.024751285
0000d0 e8 44 52 bd d1 80 36 3d 17 7f 40 3d 80 54 a8 3c
       -0.051335245 0.044556443 0.046996202 0.020548105
0000e0 62 98 06 be aa 23 5b 3d bf 08 74 3c 6c b6 db bb
       -0.13144067 0.05350081 0.014894663 -0.006705096
0000f0 22 3a 37 3b 74 5f a8 bc 62 ed 9b bd 6f d5 09 bb
       0.0027958234 -0.020553328 -0.076136366 -0.0021031757
000100 ca 81 1c bd 83 b2 ce 3d dc 42 47 3d 09 fd 5b bd
       -0.038209714 0.10092642 0.048647746 -0.05370811
000110 14 56 d2 3d 4b cc 78 bd e4 a9 44 3e b3 3d 26 bd
       0.10270324 -0.060741704 0.19205433 -0.040586185
000120 a4 65 c7 bc 83 9b 0d 3d 36 1b 70 3d f1 0c ea 3d
       -0.024340458 0.034572136 0.0586197 0.114282496
000130 e3 00 3b 3e 78 41 81 bd 60 a1 2e 3e 79 5b 18 3d
       0.18262057 -0.06311315 0.17053747 0.03719661
000140 f9 c3 9f 3c 2a 6c f4 3c 24 f6 74 3d 2d e6 88 3b
       0.019502627 0.029836733 0.05980505 0.0041778297
000150 79 e3 cd bc 88 db 0a 3d b8 08 91 3c 67 83 77 bd
       -0.025132881 0.033900768 0.017704353 -0.06042805
000160 df ed 91 bd 5a 7a 65 bd 8c 60 8f 3c 3c cb 94 bd
       -0.071254484 -0.056024887 0.017502092 -0.072653264
000170 21 8e 2b be 5c b6 e8 3c 40 c0 e1 bd 59 70 ff 3c
       -0.16753437 0.028407268 -0.11022997 0.031181501
000180 5b e4 24 3b 74 57 08 bd d6 5c 3b 3c e3 3f 82 3d
       0.0025160525 -0.033286527 0.011435708 0.06359842
000190 c3 4b 71 3e dd b9 25 3e e6 44 44 3e cc d5 10 3d
       0.23564057 0.16184182 0.19166908 0.035360143
0001a0 46 c3 f5 3d 4b 63 b1 bc 77 73 c2 3c 4b 30 a5 38
       0.12000136 -0.021653792 0.023736699 7.8768084e-05
0001b0 5e 17 ae 3d 51 69 d8 3d f0 c2 21 3d 75 16 85 bd
       0.08500551 0.105669625 0.039492548 -0.06498424
0001c0 37 69 6d bc 5f 30 86 be 43 81 93 bd bf c4 0b 3e
       -0.014490417 -0.2620878 -0.07202389 0.13649271
0001d0 ca dc 09 3e f1 43 b2 3d 7d ca 10 3d 23 e7 48 3e
       0.1346313 0.08704365 0.035349358 0.19619422
0001e0 d6 38 cb bd 56 be 8f bd 37 1b a8 bc d7 f7 24 bd
       -0.0992295 -0.070187256 -0.02052079 -0.04027542
0001f0 63 85 a7 3d 3a 39 6d bb 45 ab 04 3e 05 34 85 3d
       0.081797384 -0.003619744 0.12955959 0.065040626
000200 ac 1d 22 3d 1a 54 75 bd fd ae 47 3e 99 99 f8 bc
       0.03957908 -0.05989466 0.19500346 -0.030346679
000210 24 32 00 be 0c 3a 8c bd 2c e3 3f be 9d 40 88 3c
       -0.12519127 -0.06847009 -0.18739003 0.016632373
000220 6a 6f 5d 3c cb c4 0a bd ea aa 04 3d 7c 56 85 bd
       0.013515333 -0.033879083 0.03238956 -0.06510636
000230 a5 ab cd bb d0 7d 2d be d7 e1 9a bd c7 5d 56 bd
       -0.006276565 -0.16942525 -0.07562607 -0.052335527
000240 9d 14 ff 3d 62 7d 46 3d 9c d9 00 be f6 25 e8 bc
       0.124551035 0.048459418 -0.12583011 -0.028338414
000250 37 b0 96 bc 6b 2d 73 bc 84 1d 26 3e fb 08 55 3b
       -0.018394573 -0.014842371 0.16222197 0.0032506573
000260 37 cc 2a 3d 7e 6f e2 bd 93 55 19 bd a3 3c 04 be
       0.04169866 -0.11056422 -0.037435126 -0.12913756
000270 24 f8 77 bc e3 b0 3a bc f2 b0 71 3c 09 d6 dd 3d
       -0.015134845 -0.011394712 0.01475166 0.108318396
000280 68 bc 1b bc 87 06 18 be cf 55 f5 bd e7 74 bd 3d
       -0.009505369 -0.1484624 -0.11979257 0.09250813
000290 1e 05 29 bd 9a 73 dc 3d 58 f8 98 3d c1 a1 99 3d
       -0.041264646 0.10764237 0.07469243 0.07501555
0002a0 a1 92 aa 3c 0b 51 08 3e 23 46 73 bd e0 ac 34 bd
       0.020821871 0.13312165 -0.05939306 -0.04411018
0002b0 58 7e f5 3c 60 ba f8 3b 30 95 d2 bd 30 a9 03 be
       0.029967472 0.007590577 -0.102823615 -0.12857509
0002c0 04 9e 1d 3c 97 d9 2a 3d b5 15 a3 3d 0f 1a 9e bd
       0.009620193 0.041711416 0.07963125 -0.07719814
0002d0 9b a7 c6 bd c0 b5 2b bd 73 4c b3 bd 9c 4c 5e 3d
       -0.09699937 -0.041921377 -0.08754816 0.05427228
0002e0 a2 bb d7 3c 18 98 ec 3c 64 e6 91 3d ac b4 97 bd
       0.026334587 0.028881118 0.07124022 -0.07407507
0002f0 7e 50 1d 3d 99 75 ec bd 64 1d 6a bd 4c f7 ea 3c
       0.03840684 -0.115458675 -0.057156935 0.028682373
000300 98 29 c9 bd 70 57 9b 3d 90 67 40 3d 2f b1 c7 bd
       -0.098223865 0.07585037 0.046973765 -0.09750592
000310 a4 98 d1 3d 0d 1d fc 3c 84 35 97 3d 88 86 e8 bd
       0.10234192 0.030775571 0.07383254 -0.11353785
000320 81 41 9e bd 59 ae 03 be 2e 14 c6 bc 04 89 ae bd
       -0.07727338 -0.12859477 -0.024179544 -0.085222274
000330 99 73 4c bd fe b3 a3 3b a7 da f8 bc 57 b8 a7 bd
       -0.04991493 0.004995822 -0.030377699 -0.08189457
000340 25 20 a0 3d b1 4b 34 3e f8 f7 bd 3c 41 c1 e4 3d
       0.07818631 0.17606999 0.02318953 0.11169673
000350 2f eb c3 bc 46 b7 96 3d b0 49 a3 3d 6b a5 02 3e
       -0.023915855 0.073591754 0.07973039 0.12758414
000360 97 42 e8 3b 4c 8b fc 3c 81 66 14 be 19 90 a8 bd
       0.0070880163 0.03082814 -0.14492227 -0.082306094
000370 52 a6 52 3d 58 a8 88 bd 2b b8 d0 bd 7a ec 41 bd
       0.051428147 -0.06672734 -0.10191377 -0.047344662
000380 71 d6 d2 bd 2c ac 66 3d 14 16 bd bc e7 ed 57 bd
       -0.10294808 0.05631654 -0.023081817 -0.052717116
000390 26 26 45 bb 50 89 14 be 5a 8d 9d 3c 1b a4 33 3d
       -0.0030082553 -0.14505506 0.01923244 0.043857675
0003a0 ab db ca bc 65 0e 04 bd af f3 35 bd 7b fe 68 3d
       -0.024762949 -0.03224029 -0.044421848 0.056883316
0003b0 65 82 a9 3d 88 bf f6 bc 6c b8 7c 3e 17 d0 00 3d
       0.08276824 -0.030120626 0.24679726 0.03144845
0003c0 67 e1 21 3e a2 f2 ad bd 75 98 ed 3c 10 19 6d 3d
       0.1580864 -0.08493544 0.029003361 0.05788523
0003d0 fc 7f 29 be 2f 07 b6 3d 8d 04 fc bd 93 8f 86 3d
       -0.16552728 0.08888089 -0.123055555 0.06570353
0003e0 63 a4 0b be 2b 29 29 bd 61 8b 80 bd 10 ec b6 3d
       -0.13636927 -0.041299026 -0.062765844 0.08931744
0003f0 ab 9f 12 bd bc 53 14 be de d6 b7 bd c1 6e 3f 3d
       -0.035796802 -0.14485067 -0.089765295 0.046736483
