models/stock_rus_net_45kEpochs.ckpt (torch, 621279 bytes, 11 tensors)

encoder.weight f4 [167, 100]
000000 ac 82 6c bf d7 17 42 bf 88 8c 04 bf 41 2b 3a bf
       -0.9238689 -0.75817627 -0.51776934 -0.7272225
000010 0e 44 9d 3f ad 25 db bf 99 ec 0f bf ee 95 c1 bd
       1.2286394 -1.7120873 -0.56220394 -0.09452425
000020 6b 4f 0d bf eb a7 0b 3f 00 8d 96 be 07 9c e0 be
       -0.5519931 0.545531 -0.2940445 -0.4386904
000030 f9 b2 7b 3f 1a ee 56 bf da cc 39 3f c2 7d b5 3e
       0.98319966 -0.83957064 0.72578204 0.35447508
000040 69 55 96 bf 5e 5d a9 bf 6f ca 2f bf bd 1e c4 3f
       -1.1744815 -1.3231618 -0.68668264 1.532188
000050 42 b9 3d 3f 9b 78 5e bf e3 be be bd f8 95 6d bf
       0.74110806 -0.8690278 -0.093137525 -0.9280696
000060 66 e9 d3 3f 6b 09 fa 3f d5 d5 be bf d2 62 af bf
       1.6555603 1.9534124 -1.4909006 -1.3702033
000070 a2 b9 4e bf 57 37 a3 3e 27 00 ae 3f fa e3 cc 3f
       -0.80752003 0.31878158 1.3593796 1.6007073
000080 53 2f ea 3e 12 af d8 3e 15 24 2c be 75 0e 9f be
       0.4573923 0.42321068 -0.16810639 -0.31065717
000090 b7 ff b4 be 68 0b 7a bf 5e 8b 32 be bc 6e 5c be
       -0.35351345 -0.97673655 -0.17435977 -0.21526617
0000a0 aa 6e 6e bf 34 d1 ae 3f 75 6d a6 3a c8 6c 54 3f
       -0.9313761 1.3657594 0.0012697416 0.82978487
0000b0 9d 96 18 3e d4 df f4 bd ca c7 25 3d 6f 29 8c 3e
       0.14901204 -0.11956754 0.040473737 0.2737536
0000c0 7b 8b cb 3e b7 29 81 3e 03 b8 e2 bf 20 57 3a bf
       0.39754853 0.25227138 -1.7712406 -0.7278919
0000d0 77 e4 43 bf fd 90 9d 3e 4f 2c 73 bf 62 bc 03 c0
       -0.76520485 0.3077468 -0.94989485 -2.058373
0000e0 28 88 fa be 26 35 65 bf a4 42 34 bf b6 89 9a be
       -0.48932004 -0.89534223 -0.70414186 -0.3018319
0000f0 ec 6e 73 3f 0f 19 18 3f 21 4a 99 be 08 89 54 c0
       0.9509113 0.59413236 -0.29939368 -3.3208637
000100 35 a4 9e 3f bf f1 8f be 68 66 81 be a7 71 79 bf
       1.2393862 -0.28114125 -0.25273442 -0.97439045
000110 4a 8d 97 3f 16 7f 58 3f fb 2d c5 3e 39 c8 0c c0
       1.1839993 0.8456892 0.38511643 -2.1997206
000120 4a 26 52 bf a1 b6 ca bd 5b 14 14 be f5 26 66 bf
       -0.82089674 -0.09898115 -0.1446089 -0.89903194
000130 99 d9 64 bf 34 95 28 3e 76 2e a8 bf cf cc cc 3e
       -0.8939453 0.16463166 -1.3139179 0.40000007
000140 4f 3c 90 3f fa 7a 0a 40 e9 7a 30 3f c7 62 64 bf
       1.1268405 2.163756 0.68937546 -0.8921322
000150 b8 a7 b8 bf 61 d5 17 bf 72 9c ce bf cf 82 9e be
       -1.4426184 -0.59309965 -1.6141493 -0.30959174
000160 d6 3b 69 bf 22 59 35 3e 10 da ae 3e d8 d2 f0 bd
       -0.9110693 0.17709783 0.34150743 -0.11758965
000170 66 0c d0 bd 41 16 81 bf de 4b 34 40 6e 13 ad bf
       -0.10158615 -1.0084916 2.8171306 -1.3521554
000180 63 a0 a7 bf f5 b8 f3 3f 0d d7 d8 3e 3d ae 43 bf
       -1.3095821 1.904082 0.4235157 -0.7643774
000190 ac 0c 8a bf fe ce 89 3f da 9a ab 3e 31 ad dc be
       -1.0785117 1.0766294 0.3351658 -0.43100885
0001a0 7d c4 81 3d 89 f2 b7 3e 8d fa 63 3f e5 5d d7 3f
       0.06336305 0.35927227 0.89054185 1.6825529
0001b0 e2 6a 18 3e 00 18 7a bf 38 7e 03 c0 95 b5 96 bf
       0.14884523 -0.9769287 -2.0545788 -1.1774164
0001c0 db 8a 5a bd 5c b5 fd be eb d4 8e bf 27 2e 35 bf
       -0.05335508 -0.4955243 -1.1158727 -0.7077355
0001d0 2e a8 14 3f 20 4f b5 3e a5 92 9d bd 57 3f 8e bc
       0.5806912 0.3541193 -0.07693986 -0.017364187
0001e0 9f 16 aa be d9 e1 13 3f 30 e1 9f bd 51 78 32 c0
       -0.33220384 0.5776649 -0.07806623 -2.7885935
0001f0 e5 29 03 c0 54 bc 5b 3f be 81 5a 3f 92 3f 97 3e
       -2.049432 0.8583424 0.8535422 0.29540688
000200 54 9f c5 3f a2 14 86 bf 46 ae 92 3c 5e d7 0f 3f
       1.5439248 -1.0475047 0.017905366 0.56188
000210 23 25 41 3f f1 34 43 bf 7a 2b 2d 3c 79 c6 78 bf
       0.7544729 -0.7625266 0.010569448 -0.97177845
000220 ef 66 35 bf 07 6f 53 bf 31 02 88 3f 76 fa 27 be
       -0.7086019 -0.8259129 1.0625669 -0.16404137
000230 48 7c 4d bf 43 36 36 c0 8a 10 92 3f ad 39 83 bf
       -0.80267763 -2.8470619 1.1411297 -1.0251976
000240 b7 2a 4e 3f c3 ae 0e bf 30 05 30 bf 91 fd b9 bf
       0.8053393 -0.55735415 -0.68757915 -1.4530507
000250 55 55 98 bf 3b 9f c3 bf 6f 2b 90 bf 96 85 35 40
       -1.1901041 -1.5282968 -1.1263255 2.8362784
000260 4d 84 b2 3d a5 34 8a bf bb f6 34 3f 8e da 80 be
       0.087166406 -1.0797316 0.7068898 -0.25166744
000270 01 a5 c8 3e a7 d6 14 bf e8 99 f9 3e 75 1c 0a c0
       0.39188388 -0.58140033 0.48750234 -2.1579869
000280 4e 2c 5e 3d fa 1f ea be 94 2b 1d 3e bf 4a 1b 3d
       0.05424147 -0.4572752 0.15348655 0.03791308
000290 0d 7f 8d bf f6 e2 92 bf c7 b8 33 3d d6 79 3a bf
       -1.1054398 -1.1475513 0.04387739 -0.72842157
0002a0 3b 35 b5 3f 50 7f 1a bf ab af 85 bf ef eb 82 3e
       1.415687 -0.60350513 -1.0444235 0.25570628
0002b0 04 83 1b bf a6 5f 04 c0 2d 1d 51 bf 1b 6f 86 bf
       -0.6074679 -2.068338 -0.81685144 -1.0502657
0002c0 92 dd c3 bd 7f ac c1 bf fa 59 ae bf b8 60 7c be
       -0.095637456 -1.5130767 -1.3621209 -0.2464627
0002d0 86 a6 9c 3f 2e 5b 2e 3f af 56 87 3e 1b 16 3d 3f
       1.2238319 0.6810788 0.26433322 0.73861855
0002e0 8d 3c ae 3f 4b 10 b2 be 25 e7 80 3e 39 b4 90 bf
       1.3612229 -0.34778056 0.2517635 -1.1305
0002f0 d9 d3 3e be 63 92 29 3f 92 26 70 be 6d 2d 98 be
       -0.18635501 0.66238993 -0.23452213 -0.29722157
000300 9c 6a 28 bf ed ac 63 3f 62 a2 ab 3f c3 85 dd be
       -0.65787673 0.8893574 1.340893 -0.43266115
000310 7d ff dc bd 3d 28 b5 bf a9 3e 31 3f a3 a6 8a 3f
       -0.10790918 -1.4152905 0.69236237 1.0832103
000320 91 77 0c bf 21 f2 3f bf 1f 55 74 3e d3 53 4d 3f
       -0.54869944 -0.74978834 0.23860596 0.8020603
000330 ca 8e db be ab 45 96 bf 3e 23 b9 3f ab 70 2f bf
       -0.42882377 -1.1740011 1.446388 -0.6853129
000340 87 06 64 3f e3 be 30 3f ba fe d1 be 76 c2 90 3d
       0.8907246 0.6904127 -0.41014653 0.070683405
000350 f1 80 f2 3e 4d 77 19 3f 8b 38 ce 3f 96 38 9e be
       0.47364 0.59947664 1.6111006 -0.30902547
000360 87 1c 90 3f de 02 41 3d f0 03 45 3f 1c 1b d9 be
       1.1258706 0.047121875 0.76959133 -0.42403495
000370 64 7f 27 bf 93 8b 82 bf 19 ff 5d 3f de 87 d2 bf
       -0.6542876 -1.0198845 0.86717373 -1.6447713
000380 d6 9f 8d bf 0d cb 17 3e bf 6c 75 3f c3 ad 27 40
       -1.1064403 0.14823551 0.9586906 2.6199806
000390 62 36 5a bf 16 d2 fc 3e e8 fc 66 be c6 bb 13 3f
       -0.8523923 0.49379033 -0.22557414 0.57708395
0003a0 b2 49 77 bd 01 0b bf 3f a0 91 99 3f 4d 3d 31 be
       -0.060373016 1.4925233 1.1997566 -0.1730854
0003b0 2a 1e cf 3e cc e1 a3 3f 59 09 35 40 f8 41 0d bd
       0.404527 1.2803283 2.8286955 -0.03448674
0003c0 5a 24 02 3f 8e bd 32 be 51 85 1c bf b8 7e 59 3e
       0.5083672 -0.17455122 -0.61140925 0.21239746
0003d0 ce 7d 4a bf 95 2e 58 bf 2d 23 2c be 03 fb 19 3f
       -0.7909821 -0.8444608 -0.16810293 0.6014864
0003e0 1b 83 22 bf 82 3c df 3d 43 16 bd be 84 49 34 3f
       -0.634813 0.10900213 -0.36931047 0.70424676
0003f0 95 16 e8 3e 63 59 71 3f bd f8 c8 3f f9 cb 89 be
       0.4532973 0.9427702 1.5700909 -0.2691343

gru.weight_ih_l0 f4 [300, 100]
000000 73 9a c1 3d 3e ad 33 3e 71 8b 05 bd 88 a8 cd bd
       0.09453287 0.17546555 -0.032603685 -0.100419104
000010 a2 01 32 3d b6 35 53 3e 36 c5 8a bd b1 27 d0 bd
       0.04345859 0.20625958 -0.06775896 -0.101638205
000020 01 0b a8 3b bd 07 0d bd fb 33 eb 3c e9 f5 be bc
       0.005128265 -0.034431208 0.02871131 -0.023310618
000030 60 1c 44 3d fe d3 56 be ea 6b 17 bd c1 0b 05 be
       0.047878623 -0.20979306 -0.03696815 -0.12992765
000040 b7 1c 9a 3d 94 bd e3 bb 0e 51 c7 3d ad d6 5a 3c
       0.07525008 -0.0069500897 0.09732257 0.013356847
000050 ec 82 f2 3d 85 33 97 3b d0 26 3a bd 8c b4 6a bc
       0.118413776 0.004614296 -0.04544717 -0.014325272
000060 1c 97 bf bd b1 b7 66 3d 9f af 3e bd a6 15 8d 3d
       -0.09354994 0.056327526 -0.046554204 0.06888895
000070 48 38 65 3d ec 19 87 bd c8 8a 82 bd b7 a2 f7 bc
       0.055961877 -0.06596741 -0.06374127 -0.030228956
000080 30 63 bf bd cc 7c ce 3c 91 20 59 3c 5d e6 50 bc
       -0.093450904 0.025205992 0.013252393 -0.012750235
000090 a1 af 40 be e2 6d fd 3c 93 6b 1b 3e 7a 73 e2 bd
       -0.18816997 0.030936185 0.15177755 -0.11057182
0000a0 0a bc dc 3c 54 e5 ed 3d 19 4b 72 bc ce d8 1b be
       0.026945133 0.116160065 -0.0147884125 -0.15219423
0000b0 56 68 fc bb 0e 7f 05 be f3 d1 c0 3c e7 ba 12 bd
       -0.0077028675 -0.13036749 0.023537612 -0.035822775
0000c0 d8 c7 b2 bd 1a 73 2c be fe c8 f3 bd f7 f1 b9 3d
       -0.087295234 -0.16840783 -0.119035706 0.09079354
0000d0 f3 2f 9e bd db cf cb bd c8 26 49 be 4d 61 b9 3d
       -0.07723989 -0.09951755 -0.196437 0.09051762
0000e0 1c de 86 bc e5 b5 3b bd 32 92 53 bd ff cf 9f bd
       -0.016463332 -0.045827765 -0.051653095 -0.07803344
0000f0 00 27 b6 bd b1 1c cd 3d 3b b3 de 3d 9d da 8d 3d
       -0.088941574 0.10015238 0.10874029 0.06926463
000100 36 68 e8 3b a3 f4 c6 bb 28 c3 10 be 45 1e 7c be
       0.007092501 -0.0060716434 -0.14136946 -0.24620922
000110 ff 02 65 bd 50 d0 05 bd d3 8c 09 be fc b0 aa bd
       -0.05591106 -0.032669365 -0.13432626 -0.08334538
000120 a6 0c 05 be f9 9e 6c be 5e 90 cb 3d 84 06 c5 bb
       -0.12993106 -0.23107518 0.09939645 -0.0060127396
000130 45 28 d4 bc ff 31 6a be d2 c9 86 bd 2f 80 5e bd
       -0.025898108 -0.22870634 -0.06581463 -0.054321464
000140 cd f4 98 bd 05 75 bf bd ce dc 10 3d ff 06 09 bb
       -0.07468567 -0.093484916 0.035366826 -0.002090871
000150 b3 e1 5f 3e f6 65 24 3c e9 1d 2b be 1d 7f 60 3c
       0.21863441 0.010034075 -0.16710629 0.013702181
000160 e2 ec 51 3d 10 0e db 3c d4 2b c0 3d 1c b1 6f bd
       0.0512513 0.026740104 0.093833596 -0.058518514
000170 12 97 39 bd a6 11 86 3d e9 d2 eb 3c e0 03 bf bd
       -0.045310088 0.06546335 0.028787093 -0.09326911
000180 2a dc 39 bc d9 f7 41 bc 4d 54 59 be e1 2c 70 3d
       -0.011343995 -0.011838877 -0.21223564 0.05863655
000190 4e eb 7b bd 77 41 ed 3d 2d 76 d7 3d af 3f cd 3d
       -0.0615037 0.11584752 0.10520587 0.10021912
0001a0 90 84 31 3d 8e b0 72 bc 68 65 d6 3d 24 5e e1 3c
       0.043339312 -0.014812602 0.104685605 0.02751071
0001b0 8f ee 3b 3d 90 43 80 3d 8f 28 94 bc de e8 a8 bd
       0.045881804 0.062628865 -0.018085746 -0.08247541
0001c0 83 9c 84 bd 80 30 4b bd 9d 37 36 be 69 5b 36 3d
       -0.06475165 -0.0496068 -0.17794652 0.04452077
0001d0 2d d2 0d 3c e8 ba 1e 3e f2 79 da bd 86 66 81 3d
       0.008656067 0.15500987 -0.106677905 0.06318383
0001e0 24 94 71 bd 56 58 a3 bd 79 1b 52 bd 07 09 af bc
       -0.05897917 -0.07975833 -0.05129573 -0.02136661
0001f0 51 24 0a 3d e1 e9 95 3d 2c 35 8d 3d c1 35 ab bc
       0.03372604 0.073199995 0.06894907 -0.020899655
000200 92 5c 9a 3d f0 36 bb bc b7 15 1c 3e f2 9a bc 3d
       0.07537188 -0.022853345 0.15242659 0.09209241
000210 7e 59 b8 3d 53 58 97 3c 29 b1 d0 bd fb 62 47 bc
       0.09001444 0.018474733 -0.101900406 -0.012169595
000220 e3 de 8e 3d c6 56 fe bc fa 54 14 3d c2 ae 99 3d
       0.06976106 -0.031047236 0.036213852 0.075040355
000230 15 73 cd 3d 6b df b0 3d 17 53 27 3c 37 f4 ad 3c
       0.10031716 0.086363636 0.010212681 0.021234615
000240 5a 02 40 bd c7 3b 23 3e 14 4d 6d bd 64 31 9a bc
       -0.046877243 0.15940772 -0.057934836 -0.01882238
000250 ce f4 11 3e 66 c4 17 3c d9 ac b6 3d db 03 ff 3b
       0.14253542 0.009263134 0.08919687 0.007782442
000260 e6 0a 18 3e 3b df 05 3e 03 a6 a7 3d 79 01 b7 3d
       0.14847907 0.13073437 0.08185961 0.08935828
000270 f3 51 c5 3c ca 72 d0 bd 69 36 22 3e 0f a0 b4 3c
       0.024086928 -0.10178144 0.15841068 0.022048978
000280 e6 19 d2 bd 49 af 12 be e9 90 8f bc 39 80 de bc
       -0.10258846 -0.14324678 -0.017525153 -0.02716075
000290 87 7f 4a 3d 30 09 f6 3d 1e ef 20 be b2 ac 86 bd
       0.049438026 0.12013471 -0.15716216 -0.06575908
0002a0 6c 85 b1 3c 93 09 dc bd 36 65 26 be 5d 9c f5 bc
       0.021670066 -0.10744014 -0.16249546 -0.029981786
0002b0 51 e5 dc 3c df 16 30 be 61 2c 19 bd 12 b7 07 bc
       0.026964815 -0.17196225 -0.03739584 -0.008283393
0002c0 ce 8f 93 bd 82 6f 3e bd 4a 8c 6d bd 91 a6 56 bd
       -0.07205163 -0.04649306 -0.05799512 -0.052404944
0002d0 90 e7 4e 3e fe 4f 31 3d 0a 67 c7 3d b0 d4 b2 3d
       0.20205522 0.043289177 0.0973645 0.08731973
0002e0 b4 fd 76 be ea 2e 2b 3d b6 4c bf 3d b7 e1 6f bd
       -0.24120218 0.041792788 0.09340803 -0.058564868
0002f0 ab f8 6d 3d 0a b3 8d 3d bf 41 07 bd a0 8b d0 3d
       0.058098476 0.069189146 -0.033021685 0.10182881
000300 9a 90 36 bd 09 af 46 3e 10 f0 92 3d 74 5d 78 3d
       -0.044571497 0.19402708 0.071746945 0.060636
000310 63 b6 29 be f1 06 8c bd d6 ff eb 3d f0 43 d4 3d
       -0.16573481 -0.068372615 0.11523406 0.103645205
000320 20 79 86 3d 61 80 a8 bb 66 23 40 3e 95 91 a7 3d
       0.065660715 -0.005142257 0.18763503 0.081820644
000330 94 4b 22 3c b3 88 2a 3d bd 12 60 3d 18 7a 3f bc
       0.009905715 0.041634273 0.05470537 -0.011686824
000340 44 48 33 bd 01 b6 13 3e 65 ac 1a 3c e9 8f 47 3d
       -0.04377009 0.14424898 0.009440516 0.048721228
000350 87 66 ea bd c5 2d 2d 3d d3 f4 27 3d c1 c3 12 bd
       -0.11445337 0.042279977 0.041004967 -0.035831217
000360 fb bb ca bd 7a 2b 05 3e 28 f1 96 39 2e 7b c6 bd
       -0.09899136 0.13004866 0.00028789905 -0.096914634
000370 29 b3 c5 bd a3 1f 80 3d fa 2a 26 bd 97 e3 53 3c
       -0.09653313 0.06256034 -0.04056833 0.01293268
000380 98 94 03 3e b4 3f 94 bd bf c3 01 3d b5 0d 66 bc
       0.12849653 -0.07238713 0.03168082 -0.014041354
000390 ed 11 0b 3c 81 ec 8f 3c a6 ae 33 bc a5 4b 83 bd
       0.008488161 0.017568829 -0.010966932 -0.064109124
0003a0 ac a9 c1 3d fa a2 bc bd 3c fb 60 3b 5f 80 d0 bd
       0.094561905 -0.09210773 0.0034329435 -0.10180735
0003b0 eb 52 5e 3d 6b 30 3a 3e b1 a4 12 bd e0 4d 15 3e
       0.054278295 0.18182532 -0.035801593 0.14580488
0003c0 1c 9d ed 3d 6e d1 b2 3c de 7f b7 3c e7 b2 ff 3d
       0.11602232 0.02182838 0.022399839 0.12485295
0003d0 25 0f be bd 6c 16 d2 3d 1f 80 6d bd d8 d0 66 bd
       -0.09280232 0.10258183 -0.057983514 -0.056351513
0003e0 b0 a8 0d 3e 77 9c 20 3d 2d 2f ac 3d d2 f6 92 3d
       0.1383388 0.039211717 0.084074356 0.071759835
0003f0 66 ba 66 3c b6 30 12 3d 04 00 97 3d ad c5 db 3d
       0.014082527 0.035690986 0.0737305 0.10731063

gru.weight_hh_l0 f4 [300, 100]
000000 eb db 38 3d 9e 49 34 3e 14 d2 da bd 22 e9 f4 3d
       0.045131605 0.17606208 -0.106846005 0.11958529
000010 c5 6e ec bd 01 08 98 3c 4d bb 4a 3d f5 c8 92 bd
       -0.11544565 0.018558504 0.04949503 -0.07167236
000020 03 d5 e1 bd 95 29 0c 3d 08 c8 dc bb be 4e 14 3d
       -0.11026957 0.034219343 -0.006737713 0.036207907
000030 dd c1 ff bc db 5f 80 3d aa 7c de bd dd 0c 0b 3a
       -0.03122037 0.06268283 -0.108636215 0.0005304346
000040 02 dc bc bd 96 22 ba bd e7 dc 99 3d 01 14 09 be
       -0.09221651 -0.09088628 0.07512837 -0.13386537
000050 60 cc b8 bb 88 67 df bd 1c 40 59 bd 84 68 99 3c
       -0.005639598 -0.10908419 -0.053039655 0.018726595
000060 6b 71 e9 3b f2 bc 40 3d 67 60 77 bd 2c 16 46 bc
       0.007124116 0.047055192 -0.06039467 -0.012090247
000070 18 9c 9d 3d 41 41 bb 3c 6f eb c0 3c 8d 48 31 3d
       0.07695788 0.022858264 0.023549763 0.04328208
000080 77 8a bf 3c b8 38 21 bc cf 09 92 bd 35 7c d0 3d
       0.023381455 -0.009840183 -0.07130777 0.101799406
000090 d4 22 d6 bd 9b 34 bf 3d 62 d1 d3 bd 1e 3f b9 39
       -0.10455862 0.093362056 -0.10342671 0.00035332976
0000a0 7c 17 de bc 80 19 92 3c a0 84 42 bb c0 0f 97 bd
       -0.027110808 0.017834425 -0.0029681101 -0.07376051
0000b0 81 31 97 3c b0 89 0e 3e c7 2f e4 3b 17 6e c3 bd
       0.018456222 0.13919711 0.0069637033 -0.09542482
0000c0 cd 46 53 bd 6b c4 a5 bc c1 e6 8c bd b9 cb c4 bd
       -0.051581193 -0.020235261 -0.0687995 -0.096091695
0000d0 eb 92 5e 3c 71 4c 5d 3d ac f5 ab 3c 04 ac 8c bc
       0.013584833 0.05402798 0.020991169 -0.017171867
0000e0 94 08 34 3d 12 3f 57 3d db 0e 9f bd 65 49 df 3c
       0.043953493 0.052550383 -0.07766505 0.027256677
0000f0 29 ae 36 bc d8 4b 13 be 7c cd 5e bd 47 00 a0 bd
       -0.011149921 -0.14384401 -0.054395184 -0.07812553
000100 d4 cc bb 3d b8 44 34 bc 6b 11 d0 3d 11 f3 d1 bc
       0.09169927 -0.011002712 0.10159572 -0.025628598
000110 b3 cd da 3d c6 5f 9a 3c 55 e0 d3 bd 8c 99 18 3d
       0.10683765 0.018844496 -0.10345522 0.03725581
000120 d0 f0 a3 bd 76 90 df 3d 65 f9 46 bd 1b 3e e6 3c
       -0.08004916 0.109162256 -0.048577685 0.028105786
000130 57 55 0d 3d 7f c8 b8 3d 4d 51 45 3d 6b 8f a7 bd
       0.034505215 0.090226166 0.048173238 -0.08181652
000140 6d 89 f7 bd 6a 4d 2a bd 53 0d 30 bc 4e ca 02 3e
       -0.12086759 -0.041577734 -0.010745364 0.12772486
000150 de 47 45 bc f0 38 32 bc c5 94 03 3d 6f ab ab 3c
       -0.01204106 -0.010877833 0.0321243 0.02095577
000160 97 c0 59 bd a4 bf b8 3c 96 6e d3 3d 6c 6e 4a 3d
       -0.053162184 0.022552319 0.10323827 0.049421713
000170 08 94 f2 bd 2a 96 1a bd 2b 03 0c 3d e5 92 19 3a
       -0.11844641 -0.037740864 0.03418271 0.0005858376
000180 0c b9 ab 3c 54 30 b1 bd 75 4b 46 bd 09 0e f5 bc
       0.02096226 -0.08651796 -0.048411805 -0.029913919
000190 e9 88 75 bd e1 16 16 3e 51 ce 11 3d 97 d3 07 bd
       -0.05994502 0.14657165 0.03559715 -0.033160772
0001a0 4c f2 9d 3d 37 a1 ce bd b7 56 0e bd 41 51 d1 bd
       0.0771223 -0.10089343 -0.034750666 -0.10220576
0001b0 cf f1 c3 bc 70 ae bd 3c 7b b3 d8 bc 4a a7 cc bb
       -0.023919014 0.023154467 -0.02645277 -0.0062455283
0001c0 15 ec 84 3d 04 dc 4a 3c a6 4e bd bd 39 cf 47 3c
       0.064903416 0.012381557 -0.092435166 0.012195402
0001d0 15 16 5f bc 8c 26 2e bc cb 05 f0 3b ac c2 1c bd
       -0.013616105 -0.0106293075 0.0073249093 -0.03827159
0001e0 9d e5 e8 bc af bc c5 bd d4 d8 59 bd 9a db ce 3d
       -0.0284298 -0.09655129 -0.0531853 0.101004794
0001f0 a7 01 94 3b 2a 35 b9 3c 63 3c 2d be 8d da d2 3d
       0.0045167985 0.022608358 -0.16917567 0.102955915
000200 10 37 9d bb 71 04 c2 bd 71 75 38 bd 5e e9 60 bd
       -0.0047978237 -0.094735034 -0.045033876 -0.054910056
000210 df 57 9e 3d 8b 7c 54 bd ad e3 db 3c f8 f0 82 3d
       0.07731604 -0.051876586 0.026841963 0.063936174
000220 ac af f9 bd 12 bf 03 3d 20 64 5d bc ed 59 c7 3d
       -0.1219171 0.03216464 -0.013512641 0.09733949
000230 b3 a5 14 3d b5 60 bf 3d a5 d5 4b bd 1b 67 21 bd
       0.036290836 0.09344617 -0.049764294 -0.03940497
000240 1a db 09 be 8d f3 7c 3c f3 8c 58 3d f3 55 80 bc
       -0.13462487 0.015438926 0.052868795 -0.015665984
000250 40 ff d2 bc cf 0b e7 bc fb 10 12 3d 6f 21 80 3c
       -0.025756478 -0.028203873 0.035660725 0.015640942
000260 08 1e 34 3d 18 60 e1 bd 7a 73 8a 3c b1 37 11 bd
       0.043973953 -0.110046566 0.016900767 -0.035453502
000270 56 4c ec 3c cb d1 f4 bc 2c 5c db 3c 80 71 ba 3d
       0.028844994 -0.029885193 0.02677735 0.0910368
000280 97 7b 06 bd 39 84 03 bd 8a 99 0c be 99 4f 04 3c
       -0.03283271 -0.03210852 -0.13730446 0.008075618
000290 aa 60 e7 3c 85 04 36 be ec b8 b3 bc 40 92 15 bd
       0.028244335 -0.17775162 -0.021938764 -0.036516428
0002a0 bf bc 9a bd 89 e4 29 bd 72 21 e8 bd a7 50 62 3d
       -0.07555532 -0.041477714 -0.11334504 0.055252697
0002b0 35 a4 60 3d a0 e4 c7 bd d7 18 c1 3c fe 44 42 bb
       0.0548441 -0.09760404 0.023571415 -0.0029643173
0002c0 7d fe e7 bd 62 b8 9e bd 9c 13 10 be 56 65 97 3d
       -0.11327837 -0.07750012 -0.1406998 0.07392375
0002d0 cb 21 fa bd 42 d0 5b 3d 56 8b c8 3d 5b 75 83 3d
       -0.12213477 0.053665407 0.09792201 0.06418868
0002e0 33 2b 89 3c c2 5e 98 3d b8 4b 81 bc a0 b0 88 3d
       0.016744232 0.074399486 -0.015783176 0.066743135
0002f0 8e be 74 3c 07 14 a0 3d 19 ca 88 bd 34 77 b5 bd
       0.01493801 0.0781632 -0.06679172 -0.08860627
000300 d2 98 c5 3d 76 ab 40 3a 34 02 6e 3d 00 50 9e 3d
       0.09648289 0.00073497684 0.05810757 0.077301025
000310 3c 5b 8e 3c f1 c9 eb bd 76 76 36 bd 6d cf d6 bd
       0.017377488 -0.11513127 -0.044546567 -0.10488782
000320 77 dc 9c 3c b7 35 72 bc 8a a9 c8 bd e4 40 f8 3d
       0.019148095 -0.014783314 -0.09797962 0.12121752
000330 c5 92 5b 3a f1 37 67 bb d5 5d 82 bd 0b 16 ee bc
       0.00083760574 -0.0035281146 -0.06365553 -0.029063245
000340 3a 16 eb bc 2f c6 cd 3b 77 48 32 3e d1 2f 8a bd
       -0.028697122 0.006279729 0.17410456 -0.067474015
000350 81 4d 32 bd d5 81 89 3d d7 3e a6 3d a5 21 8a 3c
       -0.043530945 0.067142166 0.081174545 0.016861746
000360 38 c2 11 bd 4a f5 96 3c 36 8b d2 bc 73 3b 80 bd
       -0.035585612 0.01842751 -0.025701147 -0.06261339
000370 16 e7 36 bd b2 d3 9d bd d2 18 8b bd c5 00 e2 bd
       -0.044653974 -0.07706393 -0.067918435 -0.11035303
000380 ca 9f 00 be 64 f8 81 bd 7c 56 13 be 02 69 2b 3e
       -0.12560955 -0.06346205 -0.1438846 0.16739276
000390 44 76 3e 3d 23 14 9e 3d 5a 73 0c 3d 7b b1 d6 3d
       0.046499506 0.077186845 0.034289695 0.104830705
0003a0 f0 62 2b bd 37 0c 09 be cb d9 9e 3d a9 4a f3 bd
       -0.0418424 -0.13383566 0.077563845 -0.11879475
0003b0 9e 1e e5 bb f3 a6 8d 3d 99 46 d0 bd 5a 41 df bb
       -0.0069921752 0.06916609 -0.101697154 -0.0068132104
0003c0 43 fe 1c 3e 54 4e 40 3d 25 ed 75 bd 7d 49 3c 3d
       0.15331368 0.0469497 -0.06004061 0.04596852
0003d0 5d bc 12 be c1 ed 83 bb 3a 55 8f bd 7e 9c a0 3d
       -0.14329667 -0.004026145 -0.069986776 0.078423485
0003e0 49 05 69 bc ab 9f ea bc ca a3 70 bd 96 0e 5f bd
       -0.0142224515 -0.028640589 -0.05874995 -0.05445727
0003f0 3c 15 6e bd ad db bf bc ae 99 96 3d dd e0 94 bc
       -0.05812572 -0.02342018 0.07353531 -0.01817363

gru.bias_ih_l0 f4 [300]
000000 d5 8f 13 3d 41 1b 74 3b 08 cd ce 3d c4 22 55 bd
       0.03602584 0.003724769 0.100977 -0.05203511
000010 0f 04 18 3e f4 99 0e 3d a9 03 12 3d 26 53 ab 3d
       0.14845298 0.03481479 0.03564802 0.08365469
000020 5e 73 c4 bc fd 97 02 3e 62 bd 8d 3d 58 08 81 3d
       -0.023980793 0.12753291 0.069208875 0.063004196
000030 f6 c5 cb 3d 90 f5 12 bc fc 58 c0 3b 9d 75 57 bd
       0.099498674 -0.0089696795 0.0058699828 -0.0526024
000040 2c 6b c8 3d a6 35 38 3e 75 2b a9 bc 18 06 ac 3b
       0.097860664 0.17989215 -0.020650605 0.00524975
000050 fb 4c e8 3d 09 30 9f 3d 90 06 05 3e 8c 44 ad 3d
       0.11342808 0.07772834 0.12990785 0.0846034
000060 c0 4d 20 3c df b1 7f 3d 16 97 0a bc 0e c8 87 3d
       0.009784162 0.06242549 -0.008458873 0.06629954
000070 99 fe 12 3e ee b5 41 3b d4 27 94 3d 14 d4 6b bd
       0.14354934 0.0029557901 0.07234159 -0.0575753
000080 69 f7 88 bd 8a 1d 1b 3e 38 ac 94 3d eb 3b df 3d
       -0.06687815 0.15147987 0.072594106 0.109001
000090 76 fb 08 3d 8b 0b 92 3d ca fd 0e bd 0e 20 6c ba
       0.033442937 0.07131108 -0.03491 -0.0009007462
0000a0 b1 87 ea 3c 83 69 a6 ba 67 67 92 bd c8 b2 9b 3c
       0.028629156 -0.001269624 -0.07148629 0.019006148
0000b0 91 6e ce 3c c6 a6 30 3e 6c 79 74 3d 57 ee 13 bd
       0.025199207 0.17251119 0.05968611 -0.03611597
0000c0 5c 13 08 3d bd c8 dc 3d 09 89 46 3d 9d 99 ba 3d
       0.033221588 0.10780475 0.04847053 0.09111331
0000d0 a4 24 73 3c 15 f9 af b9 cf df 70 3d bc 63 b4 3d
       0.014840279 -0.00033564182 0.05880719 0.08808085
0000e0 a5 53 8c bc 58 a9 fb 3d ae a6 ac 3d a8 35 e5 3d
       -0.017129729 0.12288159 0.08430229 0.11191875
0000f0 13 c1 12 3e d8 f5 db 3d 41 4f 31 bd 8c 99 2a 3e
       0.14331464 0.1074025 -0.043288473 0.16660136
000100 a3 d6 d9 3c 6a 49 1c 3d f1 f3 1c 3d e4 0e 4d 3c
       0.026591605 0.03815595 0.03831858 0.012515757
000110 0a 7a 88 3d 31 93 6f 3d b2 3b 29 3d 21 6b a7 3d
       0.06663902 0.058489982 0.041316696 0.0817473
000120 38 00 cb bc f4 9d 2c 3e ff c9 4d bd 19 2c 93 3d
       -0.024780378 0.1685713 -0.050241467 0.07186145
000130 4a fe 3c bd c1 61 8f 3d ef 59 81 3d 68 56 74 bd
       -0.046140946 0.07001067 0.063159816 -0.059652716
000140 0b 05 88 3d b4 05 0b bd 35 d2 24 3e 3e 85 11 3d
       0.06641587 -0.033940986 0.16095813 0.03552746
000150 08 9e f4 3d 04 a7 64 3d 97 38 07 3e 20 11 56 3d
       0.119442046 0.05582334 0.13205181 0.052262425
000160 c9 b9 c5 3c 1e 90 7b bd 23 8e 85 b9 02 59 68 3d
       0.02413644 -0.061416738 -0.00025473637 0.05672551
000170 cc a9 e5 3d 16 d4 48 bd d8 8f a0 3d 46 b7 0f 3e
       0.11214027 -0.049030386 0.07839936 0.14034757
000180 ce 50 d3 3d 76 25 43 3e b8 8d 6d 3d 25 0c 3d bd
       0.10318147 0.19057259 0.05799648 -0.04615416
000190 4a 34 e5 bd 5e ff d3 bd 1f 0a 0a be 97 d3 87 bd
       -0.11191614 -0.10351442 -0.13480423 -0.066321544
0001a0 a9 52 15 be 26 dc 53 be 36 02 da bd 93 cf 79 be
       -0.14582314 -0.20689449 -0.10644953 -0.2439559
0001b0 28 e5 0c be d3 ef 7e be aa d1 7c be 6c b7 d3 bd
       -0.13759291 -0.24896173 -0.24689355 -0.10337719
0001c0 03 84 49 be f9 7d ee bd 0b 82 83 be 02 de 2e be
       -0.19679265 -0.11645121 -0.25685152 -0.17076877
0001d0 cd a7 9f be e1 ba 28 be 3a d5 08 be 0e 2e 84 be
       -0.3118271 -0.16477539 -0.1336259 -0.25816387
0001e0 5b c5 73 be 47 0c 7c be eb 3f 47 be fb 6c f4 bd
       -0.23805754 -0.24614058 -0.19457977 -0.11934849
0001f0 c7 fb 00 be a2 b6 a2 bd 90 c8 77 be 7c 23 e9 bd
       -0.12596045 -0.07944991 -0.24197602 -0.11383721
000200 5a 50 90 be 9f de 79 be 51 5a ac bd fe 08 6c be
       -0.28186303 -0.2440133 -0.08415664 -0.23050305
000210 05 b4 36 be f9 27 0b be 50 e5 ec bd bf 9e d6 bd
       -0.1784211 -0.13589467 -0.115671754 -0.10479497
000220 ee b7 16 be 63 4c 62 be b7 fe bd bd 49 d5 35 be
       -0.14718601 -0.22099452 -0.092770986 -0.17757143
000230 28 27 72 be b4 69 8e bc 17 1d 09 be ca 65 3e be
       -0.2364775 -0.017384388 -0.13390003 -0.18593517
000240 f0 e7 ea bd 74 4f de bd ae dd 65 be 1b 21 50 be
       -0.1147002 -0.10854998 -0.22447845 -0.20325129
000250 15 2c 64 be 0a 4a 06 bd 4b 58 53 be fd ec 56 be
       -0.22282441 -0.032785453 -0.2063915 -0.20988841
000260 b8 82 6a be 5d bf 75 be 42 94 ab be 94 88 0e be
       -0.22901428 -0.2399878 -0.3351155 -0.13919288
000270 70 ef 43 be c7 7e 9c be 34 aa 48 be 69 ae 64 be
       -0.19134307 -0.30565473 -0.19596177 -0.22332157
000280 80 07 98 be d7 f3 70 be ef 5b 08 be 08 92 78 be
       -0.29693222 -0.23530518 -0.1331632 -0.24274457
000290 ee 61 6c be 8b 91 5c be 80 bf 28 be d8 10 55 be
       -0.23084232 -0.21539895 -0.16479301 -0.20807207
0002a0 cb 44 5b be a0 02 67 be b6 50 8a be 44 b7 b4 bd
       -0.21412961 -0.22559595 -0.27014703 -0.08824018
0002b0 32 54 da bd 8c 04 83 be c2 6a 04 be f9 94 e1 bd
       -0.1066059 -0.25589406 -0.1293135 -0.110147424
0002c0 39 39 f1 bd d4 87 4e be 24 55 40 be 19 8b 5b be
       -0.117784925 -0.20169002 -0.18782479 -0.2143978
0002d0 df 15 15 be 48 21 69 be 7a 01 a3 be cd 8a 24 be
       -0.14559124 -0.22766602 -0.31837064 -0.16068573
0002e0 32 79 13 be e5 46 0c be f8 ae b4 be 32 6b 24 be
       -0.14401701 -0.13698919 -0.3528974 -0.16056517
0002f0 3b 71 87 be cb 83 a7 be 92 13 43 be 71 14 30 bd
       -0.26453575 -0.32717738 -0.19050434 -0.042988244
000300 cc d5 5a be 9a ef 3e be db 70 b1 be 35 74 9e be
       -0.2137062 -0.18646088 -0.34656414 -0.30948034
000310 a3 78 af be 0a 86 80 be e7 5c 97 bd c3 cb 7e be
       -0.34271726 -0.25102264 -0.073907666 -0.24882416
000320 c6 11 bf 3d d0 25 94 3d b0 ac 04 be 81 1d 9c bd
       0.09329562 0.07233775 -0.129565 -0.07622815
000330 76 24 7d bd 13 45 89 3d 8b 70 02 bb ad b6 3a 3c
       -0.06180235 0.06702628 -0.0019903507 0.011396092
000340 61 9d 13 3e a7 0a 3b bd 16 51 f3 3d 70 2c b0 bd
       0.14415504 -0.045664456 0.118807 -0.08602226
000350 56 c1 18 bd fc 2d b4 3c 40 97 11 bd 01 74 c9 bd
       -0.037293755 0.021994583 -0.035544634 -0.09836579
000360 48 f0 24 3c 10 eb 0e 3d 10 da 0a 3e 11 e2 04 be
       0.010067053 0.03489214 0.13559747 -0.12976862
000370 4b 94 11 be 70 37 af bd 1c d1 86 3d 1d e4 70 bd
       -0.14216726 -0.08555496 0.06582853 -0.058811296
000380 81 79 7e bd 18 5b 97 3d 77 f2 e3 bb 57 cb c9 3d
       -0.062127594 0.07390422 -0.0069563943 0.09853237
000390 eb 1a 59 3b 0e 47 07 be a4 af 9a bc 61 33 e3 bd
       0.0033127617 -0.13210699 -0.01888258 -0.11093784
0003a0 4b ae b8 3d 5d 3f 85 3d f4 39 a8 3c a2 08 f9 bb
       0.09017619 0.06506226 0.020535447 -0.007599906
0003b0 3e aa 3a 3d bc 75 5a 3e ae 82 30 bd b6 63 07 3e
       0.04557251 0.21333975 -0.043093376 0.1322163
0003c0 e9 84 1e 3e a4 4a 19 3e 36 b6 12 3b 4a 6b b5 bd
       0.15480389 0.1496988 0.0022386438 -0.088583544
0003d0 0c e4 a5 bd 53 2e 3b be 9f 5b a0 bb ef 93 44 3d
       -0.08100137 -0.1827939 -0.0048937346 0.047992643
0003e0 03 1e 07 be 44 ba 86 3c 81 f7 27 bd d4 e4 99 3b
       -0.13195042 0.01644624 -0.041007522 0.004696468
0003f0 46 6a fe bd 2a 81 39 be df 44 be 3d 75 5f 4d bc
       -0.12422614 -0.18115678 0.0929048 -0.012534966

gru.bias_hh_l0 f4 [300]
000000 c6 9d e5 3d 2a ef dd 3d 29 7b 50 bd de b3 81 bd
       0.112117335 0.108366325 -0.050898705 -0.06333135
000010 ad 43 4d 3c 91 05 78 3d b4 c6 ce 3d 5d 48 9b 3d
       0.012528342 0.060552184 0.10096493 0.075821616
000020 dd 0a 37 bd 15 04 a2 3d 4d 47 e6 3c 77 b2 8b 3d
       -0.044688094 0.07910935 0.02811017 0.06821149
000030 61 21 85 3d c8 91 bc 3d d9 7b 27 3e 73 b4 cc bd
       0.06500507 0.09207493 0.16355838 -0.099953555
000040 60 8c e3 bc d5 aa 11 3e e5 21 3e bd 7e cd b0 3d
       -0.027776897 0.14225323 -0.046419043 0.086329445
000050 bb 2f 28 3e 78 e9 34 3d 6a 65 00 3d a4 28 78 bd
       0.16424458 0.044167966 0.031346716 -0.060585633
000060 fd c6 eb 3d 1f ac c1 bc 44 6c d1 3b 80 96 2e 3d
       0.115125634 -0.023641644 0.00639108 0.042623997
000070 62 04 26 3c 1a fd eb 3d 69 35 b0 3d a6 2b 40 3d
       0.010132881 0.11522885 0.08603937 0.046916626
000080 0e 83 77 3d 58 d5 96 3c 1a 1d da 3d b5 07 44 3d
       0.060427718 0.018412277 0.10650082 0.047858912
000090 90 1a 75 3c 7b 3d 12 3c 73 be 56 3d ad 96 1c 3d
       0.014959946 0.008925791 0.05242772 0.038229633
0000a0 1f f0 0d 3e f0 8e a1 bc f6 6a 56 3c a5 48 d1 3d
       0.1386113 -0.019721478 0.013087025 0.10218934
0000b0 7c 46 10 3e c2 55 d0 3d b8 40 11 3d a6 fd 35 3d
       0.14089388 0.10172607 0.03546211 0.04443135
0000c0 f7 ba de 3d 4a b9 03 3d 8f 95 29 bd ed 91 c2 3d
       0.108755045 0.032159127 -0.041402396 0.095004894
0000d0 01 34 0a 3e 6e 53 07 3c c1 ea 81 3d ed 7f 41 3d
       0.134964 0.008259637 0.06343604 0.04724114
0000e0 55 de 99 3c cb 67 d2 bc 59 d5 ef 3d 5b 42 1a 3e
       0.018782774 -0.025684258 0.11710615 0.15064375
0000f0 0a 7f 9a 3d dd b4 97 3c 5f cf d5 3d 15 2a be 3d
       0.07543762 0.01851886 0.104399435 0.0928537
000100 19 48 12 3e b6 28 9b 3c 72 f0 1a 3e a0 67 3d 3d
       0.14285316 0.01894031 0.15130785 0.046241403
000110 dd 11 8a 3d 59 b6 0c 3d f0 63 3b 3e 4e 74 ea bc
       0.067416884 0.034353588 0.18299842 -0.028619912
000120 1d e2 ca bc a7 f5 d2 3c 70 b7 0d 3e 7a ca df 3d
       -0.024766022 0.025751902 0.13839507 0.10927291
000130 18 80 d5 3d db 47 3d 3d 3a f8 41 bc 92 94 8a 3d
       0.104248226 0.046211105 -0.011838967 0.06766619
000140 48 bb 51 bd a4 f5 fd 3d 59 39 bb 3d dc de 28 3c
       -0.051203996 0.12400368 0.091417976 0.01030704
000150 10 45 a1 3d e3 8d 98 3d 33 3a b9 3d 51 67 fb 3c
       0.07874501 0.07448938 0.09044304 0.030688914
000160 30 95 ae 3d f4 25 9b bc 65 94 38 3d 31 04 08 3e
       0.08524549 -0.018938996 0.045063395 0.13282849
000170 a5 6e c1 3d f5 4a 98 3d f5 f3 df 3d e0 35 71 3d
       0.09444932 0.07436172 0.10935203 0.05888927
000180 95 d1 79 3d b9 e3 7b 3d 1c b2 08 3e fe 8c 88 3d
       0.06099089 0.06149647 0.13349193 0.06667517
000190 42 c5 34 be 4d f9 8d be 7d a6 bf bd de 1e 79 be
       -0.17653373 -0.27729264 -0.09357927 -0.24328181
0001a0 00 a4 3b be 1c 1d b2 bd 1e fd b7 bd e8 bd cb bd
       -0.1832428 -0.086969584 -0.08983825 -0.09948331
0001b0 7a 24 43 be db 7a 34 be 9e 74 ff bd c4 16 26 be
       -0.19056883 -0.1762499 -0.12473415 -0.16219622
0001c0 45 7a 29 be 81 8b a0 bd ad 4b 73 be 95 3a ac bd
       -0.16550548 -0.07839108 -0.23759337 -0.08409611
0001d0 27 e2 6b be ca 16 90 bd e8 dd 69 be f6 5b 42 be
       -0.23035489 -0.07035597 -0.22838557 -0.18980393
0001e0 a1 2f 0f be 93 78 34 be 3a 52 2c be e7 b6 fa bd
       -0.13983013 -0.1762412 -0.16828242 -0.12241917
0001f0 d8 96 1b be ca 59 57 be 85 5e 59 be 4d 59 63 be
       -0.15194261 -0.21030346 -0.21227463 -0.22202034
000200 32 7c 62 be b6 71 26 be 5b f7 97 bd 76 89 14 be
       -0.22117689 -0.16254315 -0.07420226 -0.14505562
000210 ab 65 81 bd 53 21 e8 bc be 35 26 be 39 cf b1 bd
       -0.0631822 -0.028336203 -0.16231439 -0.08682103
000220 11 82 1d be 5b 3e b1 be 66 92 b1 bd 19 11 82 be
       -0.15381648 -0.34617886 -0.086705014 -0.2540367
000230 55 4e 8e be 30 7e 2f be f9 a0 2b be bb 8f 11 be
       -0.27794138 -0.1713798 -0.16760625 -0.14214985
000240 70 38 5a be 39 6b 2d be a4 33 3c be 16 d7 52 be
       -0.21310592 -0.16935433 -0.18379074 -0.20589861
000250 42 66 2f be 1e 02 04 be d6 93 94 bd 06 09 2f be
       -0.17128852 -0.12891433 -0.0725476 -0.17093286
000260 ea 63 67 be 46 54 8f be 15 e3 af be 0a bc 97 bd
       -0.22596708 -0.27993983 -0.34352937 -0.074089125
000270 32 b2 7f bd 13 a5 25 be 5a 63 0f be 0a 95 60 be
       -0.0624258 -0.16176252 -0.14002743 -0.21931854
000280 e1 50 aa be b9 cc 23 be dd f0 e1 bd 2f 71 5e be
       -0.3326483 -0.15996064 -0.11032269 -0.21722864
000290 66 68 a4 be 82 24 81 be 49 49 b1 be 0c 77 62 be
       -0.321109 -0.25223166 -0.34626225 -0.22115725
0002a0 8a 28 83 be a9 a7 27 be 28 c1 af be 49 20 15 be
       -0.25616866 -0.16372551 -0.34327054 -0.14563097
0002b0 c2 ca 74 be bf 2b 99 be 51 7f 17 be 2d e7 3e bc
       -0.23905471 -0.29916188 -0.14794661 -0.011651796
0002c0 85 d7 4e be 24 c6 37 be a0 87 bf bd a1 cb 9d be
       -0.20199402 -0.17946678 -0.0935204 -0.3081942
0002d0 a9 97 22 be c1 df d7 bd 14 dd 0e be 48 92 99 be
       -0.15878166 -0.105407245 -0.13951522 -0.29994416
0002e0 af 30 28 be ca 2d 5f bd cb ce a4 be 3c 41 5c be
       -0.16424821 -0.054487027 -0.3218902 -0.2150926
0002f0 0e 32 09 be 2d 05 a2 be 9c 3c 86 be 92 89 f6 bc
       -0.13398 -0.31644574 -0.26218116 -0.030094896
000300 70 e5 85 be ca 1b 08 be 03 c2 73 be 11 52 8f be
       -0.2615161 -0.1329185 -0.23804478 -0.279923
000310 88 99 58 be d3 17 41 be af 58 7f be 0b e8 40 be
       -0.21152318 -0.18856744 -0.24936174 -0.18838517
000320 a1 28 eb 3d 09 27 c7 bc b0 65 d9 bc 65 df cf 3d
       0.11482359 -0.024310606 -0.026537746 0.10150031
000330 6a 50 d7 bc b2 f0 8b bb 25 ab f7 bc b6 e0 5b bd
       -0.026283462 -0.0042706365 -0.030232975 -0.053681098
000340 7e 45 29 3e d4 c4 1c be 61 32 09 3e 2c 92 7e 3c
       0.16530415 -0.15309459 0.13398124 0.01553778
000350 4f 72 bc bd d6 39 b9 3c f0 f2 12 3e 4b eb d9 3d
       -0.0920149 0.022610586 0.14350486 0.10640582
000360 40 3c d3 3d 85 d7 14 3e 1c 57 b1 3c 47 ba cb bd
       0.10314226 0.14535339 0.021647982 -0.09947639
000370 71 98 bd bd 2f 36 6c bd 3c cc 06 be 56 6d 6a bd
       -0.092575915 -0.05766886 -0.13163847 -0.057233177
000380 eb d0 a2 3d 90 d7 0b bd 24 a4 7d bd d6 34 24 3e
       0.07950004 -0.034141123 -0.061924115 0.1603578
000390 8b 60 d4 3d 63 65 01 3d e8 72 58 bd bb 2b 13 bd
       0.103699766 0.03159083 -0.05284396 -0.035930376
0003a0 ff b8 4f 3d ea 47 b5 bd 42 83 c7 3d 13 b2 46 be
       0.050713535 -0.08851607 0.09741832 -0.19403867
0003b0 02 71 8a 3c 09 66 ec 3d 5d fb 5b be ac 98 a5 bd
       0.01689959 0.11542899 -0.21482606 -0.080857605
0003c0 eb 45 9b 3e ef f4 cd 3b 4e 6c 1a bd 8f ef 49 3d
       0.3032678 0.006285302 -0.037700944 0.049300727
0003d0 45 95 f0 bc 2f a5 ee bd cd 98 a4 3d d8 a9 d1 3d
       -0.029368052 -0.116526 0.08036957 0.10237473
0003e0 e1 9b 05 be 43 f0 d3 bd 2b ab 11 3d af 95 ff bc
       -0.13047744 -0.10348561 0.03556363 -0.031199304
0003f0 1b 29 82 bd c9 86 d3 bd 12 a3 ec bb 4e 81 93 bd
       -0.063554965 -0.103284426 -0.007221588 -0.07202397

gru.weight_ih_l1 f4 [300, 100]
000000 0b bd 35 bd 57 e0 49 bd 7b 7c b8 3d 6c 0c 33 bd
       -0.04436974 -0.049286213 0.09008118 -0.04371302
000010 7d 98 e1 3d 1b 35 a5 bd d4 90 87 bd fa 6d 92 bd
       0.11015413 -0.0806677 -0.06619421 -0.071498826
000020 f7 ac 42 3c 25 a3 8f bd 63 2b 50 3d 08 f0 fa bc
       0.011882058 -0.07013539 0.050822627 -0.030632034
000030 3a 6e 9e bc 04 f9 65 3d 57 6a 3a be de f5 db 3c
       -0.01933967 0.056145683 -0.18204628 0.026850637
000040 b3 08 2f be 8a e2 a0 bd 28 40 52 bd 15 e5 68 bd
       -0.17093162 -0.07855709 -0.051330715 -0.056859095
000050 96 e1 bd 3d 2c d4 20 3e f7 a5 bf bb 03 f0 86 3d
       0.09271543 0.15705937 -0.005848642 0.06588747
000060 37 18 a0 3d 6a 6d 6b 3d 52 f4 26 3e 65 62 e2 3d
       0.078171186 0.057477392 0.16304138 0.110539235
000070 95 44 f7 3c 4d dc 38 3d 83 d1 da bd ab 16 99 bc
       0.03018407 0.04513197 -0.106844924 -0.018687567
000080 a7 8a a3 bd 44 ee 3f 3e cd f6 bf 3d 42 f5 da bd
       -0.0798543 0.18743235 0.093732454 -0.106913105
000090 d2 b7 ab 3b 5a 5e 73 3d 04 11 32 bd a8 14 21 3e
       0.005240419 0.059416153 -0.04347326 0.15730536
0000a0 3d ae a9 bd 15 aa 10 be bb 4f c4 bd 4c 8b 17 3e
       -0.082851864 -0.14127381 -0.0958552 0.14799231
0000b0 12 a0 fa 3d 68 21 82 bd 9d d1 c0 3d 41 cd 60 be
       0.12237562 -0.06354028 0.094149806 -0.21953298
0000c0 c1 ed 8f 3d d5 17 9a bd 88 54 a6 bc 56 0b b9 3c
       0.0702777 -0.07524077 -0.02030398 0.022588413
0000d0 73 d9 0e 3e 04 4b 02 3e 0c 4d 86 bc bb 4d 88 3d
       0.13950138 0.12723929 -0.01639416 0.06655451
0000e0 e5 97 a7 3d 24 ce 45 3d 03 f0 8e bd e6 10 e2 bd
       0.081832685 0.048292294 -0.06979372 -0.11038379
0000f0 aa c1 08 3c ab a3 b1 3d df b5 01 3d 6e c5 c2 bd
       0.008346954 0.08673795 0.031667586 -0.09510313
000100 13 e5 c5 bd 54 fb fc 3d ea 36 a3 bd e8 1b 62 bb
       -0.09662833 0.123526245 -0.079694584 -0.0034501497
000110 d2 28 05 3d 69 98 68 bd 0b 1a 63 3d 65 e9 d5 bd
       0.032509632 -0.056785975 0.05544476 -0.10444907
000120 dd 32 d9 3d 01 30 c3 3c 08 7f 25 3c 46 04 88 3c
       0.106054045 0.023826601 0.010101087 0.0166036
000130 7f 67 6a 3d ac 88 b9 3c 03 c2 c1 3b 6c fc 65 bd
       0.057227608 0.022648178 0.0059130206 -0.05614893
000140 21 dc 42 3d 2d 59 b7 bd 70 01 b5 bd 69 b0 08 be
       0.047573213 -0.08952556 -0.08838165 -0.13348545
000150 55 fd d9 bd e8 c2 50 bd 7b d6 96 bd 97 63 ae 3d
       -0.106440224 -0.050967127 -0.07365128 0.08515089
000160 0d c4 87 3c 16 ac cc bd 12 b6 61 3d df 53 b6 3d
       0.016572976 -0.0999376 0.055105276 0.08902716
000170 92 bc 97 3d dd dd c3 3d 12 85 f4 3b 02 37 81 3d
       0.07409014 0.095638014 0.0074621523 0.0630932
000180 01 e3 93 3d e1 b3 f2 3c eb 23 1d 3e 37 48 5b bb
       0.07221032 0.029626789 0.15345733 -0.0033459791
000190 07 28 5f be 97 a7 05 be 68 af ef 3d 35 b6 92 3d
       -0.21792613 -0.13052212 0.11703378 0.071636595
0001a0 6f 74 a0 bd 8b e2 4c 3d 96 e0 2d be 78 ce 7a bd
       -0.07834708 0.050020736 -0.16980204 -0.06123206
0001b0 0a de f2 bd 4f 9b de 3c 76 f3 da 3d 1e 6a 07 be
       -0.11858757 0.027173666 0.10690968 -0.13224074
0001c0 05 f6 92 bc 14 dc 24 bc 54 0a 52 3c 36 0d f3 3c
       -0.017939577 -0.010062236 0.012819845 0.029669385
0001d0 db 68 ef bc a7 24 15 bd d3 96 c4 bc 82 ee a4 bd
       -0.029224804 -0.036411908 -0.0239977 -0.08053304
0001e0 65 21 f6 3d b3 10 ae 3c d6 4f fa 3d c1 31 0c bd
       0.12018088 0.021248197 0.12222259 -0.034227137
0001f0 7c 97 f0 3d c2 37 52 bd ab 34 2f bd 98 7c 2e bd
       0.11747643 -0.051322706 -0.042774837 -0.04259929
000200 b6 66 81 3c 08 13 01 3e 82 51 38 bd 59 da 30 bc
       0.015796047 0.12604916 -0.044999607 -0.010794246
000210 3a 07 9e 3d db 6d 10 bb ec 89 1e 3e a3 d7 39 3e
       0.07716222 -0.0022038135 0.154823 0.18148665
000220 70 f5 95 bd 6c a5 3e 3e 79 3f 92 3d 23 63 c6 3c
       -0.07322204 0.18617791 0.07141013 0.024217194
000230 50 8e 86 3d 66 1c 42 bd e1 bf 17 be 27 44 cf 3d
       0.06570113 -0.047390364 -0.1481929 0.10120421
000240 00 d1 28 3e c3 04 26 3c bc 33 d1 3d cd 6f 2e 3d
       0.16485977 0.010132971 0.10214946 0.04258709
000250 81 d7 d2 bd ce 3d c1 bd af 83 27 3e a5 8e 75 be
       -0.1029501 -0.094356164 0.16358827 -0.23980196
000260 94 e3 f4 3c 45 af b4 bd 5f 8e 1d 3e fe 94 9d bd
       0.029893674 -0.088224925 0.15386342 -0.07694434
000270 1a 75 a9 3c d4 71 04 3e b1 2e 93 bc 11 67 39 3c
       0.020685721 0.12934047 -0.0179666 0.011316077
000280 1a 40 9e bd c8 24 85 b8 da 59 a5 bd ea f4 99 3c
       -0.0772707 -6.348785e-05 -0.080737785 0.018793542
000290 b2 e3 a2 3d 0f f9 97 bd b0 27 c5 3c 36 b7 dd bd
       0.07953586 -0.07420551 0.024066776 -0.1082596
0002a0 6a 6d d5 bd d7 15 e2 3d 79 b0 9e bc 3c 06 7d bc
       -0.1042126 0.11039322 -0.019371258 -0.015443381
0002b0 82 45 b4 3d f0 46 2a 3e d9 f8 45 bd 3d bb 06 be
       0.0880232 0.16628623 -0.048333023 -0.13157363
0002c0 c8 ad 4d bd fd 97 b7 bd d2 5b 7f 3c 20 7d f2 3c
       -0.05021456 -0.08964536 0.0155858565 0.02960068
0002d0 ad a6 ad 3d 52 b6 5a 3d 57 0c e9 3d 14 4e 8b 3d
       0.084790565 0.05339653 0.11379307 0.068020016
0002e0 88 e7 87 3d dd 93 44 3d 65 10 b1 3d 70 7f a8 bd
       0.06635958 0.047992576 0.08645705 -0.08227432
0002f0 bc cb ca 3d 10 9d 2b 3c 99 4b 50 3d e9 22 12 3e
       0.099021405 0.010474458 0.050853346 0.1427113
000300 f1 bf bc 3d 7c d9 9c bd 45 93 ca 3d 65 b0 a6 3d
       0.092162974 -0.07658669 0.09891371 0.08139113
000310 a0 c5 c9 3c b7 bb e2 ba 25 7d 24 3b 7b 21 6c bd
       0.024630368 -0.0017298375 0.0025099006 -0.057649117
000320 ba c3 11 bd b7 c5 a0 3d 5b 81 91 bd 3f c1 dc bd
       -0.03558705 0.07850211 -0.07104751 -0.10779046
000330 8d 7b bc bd 67 40 fc 3d 7e 05 dd 3c 12 fc ea 3c
       -0.09203253 0.12316971 0.026980158 0.02868465
000340 af 1f 38 3d 75 36 25 be cd 4c 54 bc 76 51 9f 3d
       0.04495209 -0.16134055 -0.012957764 0.07779209
000350 4f 94 59 be ec f1 2a 3d 79 34 2d 3c f6 e9 d6 bd
       -0.21247981 0.04173462 0.0105715925 -0.10493843
000360 c8 19 89 3d c1 1d 04 3e bf 72 07 be f2 52 9d 3d
       0.066943705 0.12901975 -0.13227366 0.07681836
000370 2c e1 5c 3d 71 79 0a 3d d6 32 78 3c 31 c7 6e 3b
       0.053925678 0.03380722 0.015148839 0.0036434645
000380 45 4f 2e 3e bf 84 84 3d 0f c1 92 3d 17 2a e1 3d
       0.17022426 0.06470632 0.07165729 0.10994356
000390 ce 61 ce 3a f4 a1 b7 bd af f6 06 3b 2a 7d 40 3c
       0.0015745701 -0.08966437 0.0020593812 0.011748591
0003a0 ac 4e 12 3e 56 23 03 3d 9d fe d5 bc 1b 85 ec 3d
       0.14287823 0.03201612 -0.026122386 0.11548825
0003b0 b9 0f ec 3a 08 d8 9e bd 86 43 21 bc 64 d9 96 bd
       0.0018010057 -0.077560484 -0.009842759 -0.07365683
0003c0 3c 81 47 3c 47 50 65 3d 5a e2 bf 3d ec a2 63 3e
       0.012176808 0.05598476 0.09369345 0.22230119
0003d0 d3 49 a7 3a 94 20 bd 3d 24 c8 08 3e 0b 1d 0f 3d
       0.001276309 0.092347294 0.13357598 0.034939807
0003e0 08 0c ea 3c 54 ed c7 bd d6 70 e5 bb 19 7d 4c 3d
       0.02857019 -0.097620636 -0.0070019765 0.04992399
0003f0 60 30 63 3d 0f e4 6c 3d 58 7b 92 bd 6d 6b 09 be
       0.055466056 0.05783468 -0.07152432 -0.13419886

gru.weight_hh_l1 f4 [300, 100]
000000 94 82 80 3d c1 0d cc 3d 2a 11 cf 3d a4 f0 18 3d
       0.06274906 0.09963561 0.10110696 0.037338868
000010 95 13 80 3b e3 3c 50 3c ed cc 91 3d 6f 31 41 3d
       0.0039085844 0.012709829 0.071191646 0.047166284
000020 7c dc 91 3d 75 9c 2a bd 3a a1 40 bd 89 2d d3 3d
       0.07122132 -0.041653115 -0.047028758 0.103114195
000030 d4 66 93 3d c8 41 ec bd ae bd 40 3d dc 18 a7 3c
       0.07197347 -0.11535984 0.047055893 0.020397596
000040 57 92 09 bd 5e 4e 13 bd 95 cf 83 bd ff c0 85 3d
       -0.033586826 -0.03596341 -0.064360775 0.06530952
000050 50 5d 91 3d 3a 1b 8e bd 20 48 9e 3d 6a 46 c3 bc
       0.07097876 -0.06938787 0.077286005 -0.023837287
000060 7e b8 f0 3c bc c2 58 bd 9a f9 ad bd fd da 37 3d
       0.029384848 -0.05292009 -0.08494873 0.044886578
000070 cf be c1 3c 1c 3b 53 3d 6b c9 8e 3d af 2f 61 bc
       0.023650555 0.051570043 0.06972011 -0.013744279
000080 fe 9f 28 3c 72 db f2 3c 50 75 46 3c 9e 2c 71 bd
       0.010292051 0.029645655 0.01211293 -0.05888044
000090 b6 1e b0 3d 4c 7f b4 3a 2e a0 e4 3d b8 46 c3 3d
       0.08599608 0.0013770848 0.11163364 0.09534973
0000a0 68 f8 94 3d 42 13 e5 bc 5e 46 e4 3c 3d 3a ae bd
       0.07273942 -0.027963284 0.027865585 -0.08507202
0000b0 02 57 9a 3d d9 36 24 bd a1 d5 7c bc 95 95 af 3c
       0.07536127 -0.04009137 -0.0154317925 0.021433631
0000c0 2f aa 25 3d 79 cb 9d 3d 26 47 bb bc bb 01 2f bd
       0.040445503 0.07704825 -0.022861075 -0.04272626
0000d0 84 9a 8b bd c4 62 45 3d 6b 78 49 3d ef 1e 99 3d
       -0.06816581 0.048189893 0.049187105 0.07476603
0000e0 75 40 e7 bc 7d 1b 81 bd e8 a4 c8 bd 2a 96 2e 3d
       -0.028228978 -0.06304071 -0.09797078 0.042623676
0000f0 e4 60 be 3c 7f 2f 46 bc 24 4d 09 bd ee 22 a9 3a
       0.02323956 -0.012096285 -0.033520833 0.0012904087
000100 02 d9 94 bd ec 3a 04 3d ea 42 7f 3d 88 e5 87 bd
       -0.072679535 0.032282755 0.062319674 -0.066355765
000110 8d 5b fc bb e0 b2 ab 3b b9 33 af 3d 93 71 b1 3d
       -0.0077013434 0.0052398294 0.08554787 0.08664241
000120 a7 76 00 3d 24 17 cf bc 36 51 d9 bc b1 f8 a4 bd
       0.031363156 -0.025279589 -0.026527982 -0.080552466
000130 4a 76 18 3d 62 f0 df bc 24 7c 77 ba ec e0 da 3c
       0.037222184 -0.027336303 -0.00094408006 0.02671858
000140 98 53 b4 3d e4 f6 2e bd 26 ec 41 3c 1d c1 a2 bc
       0.08805007 -0.042715922 0.011836087 -0.019867474
000150 16 8d c3 bd 4d 43 8f bd 0a b2 78 3c 10 43 f2 bc
       -0.095483944 -0.069952585 0.015179167 -0.029572994
000160 c7 d0 ac bc 7f 7d 30 bd 7d a5 d3 3c cc 89 03 bd
       -0.021095647 -0.043088432 0.025835747 -0.032113835
000170 cf d9 14 3d 60 94 df bc 71 5c 9a 3c f8 83 f7 3c
       0.03634053 -0.02729243 0.018842908 0.030214295
000180 ee e9 32 bd 23 f9 a9 bd ee 2b ab 3c 92 c0 16 be
       -0.043680124 -0.08299472 0.02089497 -0.14721897
000190 f8 a6 91 bd 59 ed a7 bc 03 8c b0 bb 1a 90 b1 bb
       -0.07111925 -0.020498918 -0.0053877844 -0.0054187896
0001a0 c5 b4 8d 3d f8 4b a9 38 ac 79 bf 3b a8 67 81 bd
       0.06919245 8.072698e-05 0.005843362 -0.06318599
0001b0 2a 47 a9 bd 01 62 a9 3d fa 4b a9 3d bd 07 68 bd
       -0.082655266 0.08270646 0.082664445 -0.056648005
0001c0 b9 d6 e6 bd 11 26 82 bd 5d 4a 2f 3d d7 5c 04 3c
       -0.11271424 -0.06354917 0.042795528 0.008078775
0001d0 db 66 57 bd 1a 7c 57 bc fd 79 a0 3b 3a de 15 3d
       -0.052588325 -0.013152147 0.0048973546 0.036588885
0001e0 8a 94 85 bd 45 d1 f5 3d 11 55 3f bc 9e f3 35 3d
       -0.06522472 0.120028056 -0.011677996 0.044421785
0001f0 93 1f 08 3e 2e 21 fb bd e3 8c c7 bd f3 13 c9 bc
       0.13293295 -0.12262188 -0.09743669 -0.024545645
000200 0e 30 06 bd d1 b9 0d bd f3 a8 bf bb 0e ed 4a 3c
       -0.032760672 -0.034601036 -0.0058489977 0.01238562
000210 3c 08 c3 3d 0f b7 e7 bc b4 80 0d bd 29 25 04 3e
       0.09523055 -0.028285531 -0.03454657 0.129048
000220 b8 96 d2 3c 89 48 1a 3d 49 38 c0 3d 4c 96 a8 bc
       0.025706634 0.03766683 0.093857355 -0.02057948
000230 c3 70 50 bd c1 94 5f bc 8b 7f 0e bc 1a c7 61 3d
       -0.050888788 -0.013646306 -0.008697401 0.05512152
000240 4c ca 0b bc 72 67 6c 3d 48 38 0d 3e a6 a9 b5 3d
       -0.008532118 0.05771584 0.13791001 0.088702485
000250 5d 57 69 bd f7 a2 11 3d ae 83 03 bb ca 79 02 3c
       -0.05696808 0.035555806 -0.00200675 0.007963607
000260 7a 25 d3 bc 89 4e a7 bb 10 fa de bc b7 7d 99 3b
       -0.025774706 -0.0051057977 -0.027218848 0.004684176
000270 30 8d 4b bc 10 71 ea bc 32 10 ff bb e8 14 fe 39
       -0.012423798 -0.028618366 -0.007783913 0.00048462232
000280 e8 af aa bd 05 c3 3a bd 86 5f 07 bb 75 ad 93 3d
       -0.08334333 -0.04559614 -0.0020656302 0.07210819
000290 1c 50 d9 bd 90 e4 19 be 5a 37 2f bd c2 f4 c5 3b
       -0.10610983 -0.15028596 -0.042777397 0.0060411403
0002a0 41 d1 91 3d 5b 95 71 ba fc 4b ca bc 76 56 81 3d
       0.0711999 -0.0009215676 -0.024694435 0.06315319
0002b0 30 1f ad 3c 2b 3c 47 bd 86 1b 08 3e e9 75 81 3d
       0.021133035 -0.048641365 0.1329175 0.06321318
0002c0 ec 67 72 3d 11 cd bc bb 37 17 a2 3d ec 52 12 3d
       0.05918114 -0.0057617505 0.07914584 0.03572361
0002d0 c0 00 23 bd 28 d4 ac bd 94 78 72 bc 27 d7 f3 3d
       -0.039795637 -0.08438903 -0.014799256 0.119062714
0002e0 68 00 1e bd 2f 1a 83 bd 67 8f 64 bd c8 82 5c 3d
       -0.038574606 -0.064014785 -0.05580082 0.05383566
0002f0 38 cb cb bd 75 c8 ec 3a 82 23 03 be 59 2f 04 3d
       -0.0995087 0.0018065112 -0.12806514 0.032271717
000300 3d 50 bd bd 82 33 62 bd 49 6f e9 bc ec be ce bd
       -0.0924382 -0.055224903 -0.028495448 -0.10095009
000310 57 6f 55 3d 05 b1 96 3d ac ad 2d 3d c4 52 30 3d
       0.052108135 0.073579825 0.042401955 0.04304768
000320 7c a8 88 bd c1 e8 89 bd c2 1e 5d 3d 6f 3a 29 3e
       -0.06672761 -0.067338474 0.05398441 0.16526197
000330 ac 9f 84 3d 16 c7 3e bd 57 9e a4 3d 52 64 d6 3d
       0.064757675 -0.046576582 0.080380134 0.10468353
000340 37 a7 60 3d eb 05 22 3e 42 9b ec bd 81 1d 45 3d
       0.05484697 0.1582257 -0.115530506 0.04812384
000350 97 13 9d bc 38 fb 83 bd 1e 49 53 bc b2 3a 63 bc
       -0.01917438 -0.064444005 -0.01289585 -0.0138689745
000360 1d a6 4f bd 75 9c 0d bc 4a 3e 9f 3d 0e 48 ed bd
       -0.050695527 -0.008643259 0.077755526 -0.11586009
000370 a5 93 20 3d ec 9c 58 3d 20 92 5c 3d 61 95 61 3d
       0.039203305 0.052884027 0.053850293 0.0550741
000380 99 25 5a 3d ec ea 30 3d 74 ee ce 3c 5d 64 b9 3c
       0.053258512 0.04319279 0.025260188 0.022630865
000390 51 b5 a4 3d 03 77 a8 bd 4a 68 94 bd 50 a1 d5 bd
       0.08042396 -0.08225825 -0.07246454 -0.104311585
0003a0 49 62 75 3d db fe a1 bc d8 b1 a9 3d 60 0d f0 3d
       0.059908185 -0.019774845 0.08285874 0.11721301
0003b0 6f ac 5d bc 34 50 73 bd 2a ed 48 bd 3d be c2 3d
       -0.013529881 -0.05940266 -0.049054302 0.09508941
0003c0 56 42 43 bd 52 a0 43 3c 7c 01 ad bd 26 04 13 be
       -0.047670685 0.011940079 -0.08447549 -0.14357051
0003d0 3d 3c 2f bd 46 71 77 3d 08 86 d1 bd 2b 78 cb bd
       -0.042782057 0.06041076 -0.102306426 -0.099350296
0003e0 3e 5c 01 3e 8d 8f 14 3e 23 61 b6 bd 36 97 be bc
       0.12632844 0.14507885 -0.08905246 -0.023265462
0003f0 df 15 73 bd 1c 13 a2 bd b3 ab 5a 3d be 43 c0 3c
       -0.05934703 -0.07913801 0.0533864 0.023469802
