models/stock_model.ckpt (torch, 565087 bytes, 11 tensors)

encoder.weight f4 [97, 100]
0	0x3fc88fbe	1.5668867
1	0xbf9eb631	-1.239935
2	0xbf290e71	-0.6603766
3	0x3f214e43	0.6301004
4	0x3f91a0ce	1.1377199
5	0x3ebe8a04	0.37214673
6	0xbfd60e07	-1.6723031
7	0xbd81e5a6	-0.0634263
8	0x3f6cbfd8	0.9248023
9	0xbec99077	-0.3936803
10	0x3f47a088	0.77979326
11	0xbf9fb970	-1.2478466
12	0xbc0fb8c5	-0.00877208
13	0xbf3e4b9b	-0.74334115
14	0x3f0ec9c9	0.5577665
15	0x3ee086e7	0.43852922
16	0xbffc7552	-1.9723303
17	0xbf7c2535	-0.98494273
18	0x3f8d1c20	1.1024208
19	0xbed12a7b	-0.40852723
20	0x3d3daa56	0.046305023
21	0x3ecb4c45	0.39706627
22	0x3f21dc5b	0.6322686
23	0xbf491de5	-0.7856124
24	0xbfd73d40	-1.6815567
25	0x3ff26afb	1.8938898
26	0x3e77e43f	0.24208163
27	0x3fcf994f	1.6218661
28	0xbeb16185	-0.34644714
29	0x3e4b219e	0.19837043
30	0xbf71cd61	-0.9445401
31	0xbf04b022	-0.5183126
32	0x3f95c02a	1.1699269
33	0xbf1b2766	-0.6060699
34	0xbfc59d72	-1.5438673
35	0xc02add01	-2.669739
36	0xbf23d6d7	-0.63999695
37	0xbfcde4db	-1.6085466
38	0xbee9983f	-0.45623967
39	0x3f8a986e	1.0827768
40	0x400c0fe6	2.1884704
41	0x3f16c6b8	0.5889697
42	0x3ec72f8d	0.38903466
43	0xbeda0a24	-0.42585862
44	0x3e9e612e	0.30933517
45	0xbe1538fe	-0.14572522
46	0x3f024bf5	0.5089715
47	0xbfa4e847	-1.2883385
48	0x3f49b368	0.7878938
49	0xbf1cb726	-0.6121696
50	0x3ddd8939	0.10817189
51	0xbf1a46ba	-0.6026417
52	0xbe8468ed	-0.25861302
53	0x3d8471ab	0.06466993
54	0x4018974c	2.3842344
55	0xbf97de61	-1.186474
56	0xbcd66b0b	-0.026174089
57	0xbfd4b0fb	-1.661651
58	0x3f4e072c	0.80479693
59	0x3f142c5f	0.57880205
60	0xbf99374c	-1.197
61	0xbf3ca9aa	-0.73696387
62	0xbf806f20	-1.0033913
63	0xbe8635d6	-0.2621295
64	0x401a459e	2.410499
65	0xbf1af2a4	-0.6052649
66	0x3f7e8abe	0.99430454
67	0xbfb2bfd5	-1.3964792
68	0x3fe61ae8	1.7976961
69	0x3f9abdc0	1.2089157
70	0xbde42820	-0.11140466
71	0xbf61e5dc	-0.8824136
72	0xbf694d71	-0.9113379
73	0xbf32afee	-0.697997
74	0xbfdc5671	-1.721388
75	0x3e92603c	0.28589046
76	0x3f7279b8	0.9471698
77	0xbf2d2f8c	-0.67650676
78	0x3fcb3242	1.5874712
79	0x3f01ba52	0.5067493
80	0xbff63549	-1.9235011
81	0xbefdb328	-0.49550748
82	0xbf38031e	-0.71879756
83	0xbe917784	-0.28411496
84	0xbf8e391a	-1.1111176
85	0xbf51e3f9	-0.81988484
86	0x3fa48838	1.2854071
87	0x3f66436c	0.8994663
88	0x3f8213cd	1.0162293
89	0x3e914bff	0.28378293
90	0xbf905334	-1.1275392
91	0x3fa80133	1.3125366
92	0xbd27b665	-0.04094543
93	0x3f7dfbfb	0.99212617
94	0x3fe76f77	1.8080891
95	0xbfa7b94c	-1.3103423
96	0xbf73e459	-0.95270306
97	0x3fb56e34	1.4174256
98	0x3f9da3f5	1.2315661
99	0x3ef70426	0.48245353
100	0xbd9457c1	-0.072433
101	0x3f8ed8e9	1.1159946
102	0x3e9e2f1a	0.3089531
103	0xbfc0146e	-1.5006235
104	0x3ef1bbe5	0.47213665
105	0x3f2e7415	0.6814588
106	0x3f64c77b	0.89366883
107	0x3fb7a1c8	1.4346247
108	0x3d996f5c	0.07491943
109	0xbf47bfd8	-0.78027105
110	0xbf61d112	-0.8820964
111	0xbf2f0f5f	-0.6838283
112	0x40033ed8	2.0507107
113	0xbff08039	-1.878913
114	0xbc0d6b54	-0.008631546
115	0xbda96090	-0.08270371
116	0xbf1cccf1	-0.61250216
117	0xbf614d7e	-0.8800887
118	0xbf1934f3	-0.5984642
119	0xbe9be8d1	-0.30451062
120	0xbe0e44ef	-0.13893484
121	0x3f8b4553	1.0880531
122	0xbe1e341c	-0.15449566
123	0xbf3f8ef6	-0.74827516
124	0xbeb828f6	-0.3596875
125	0xbed5c985	-0.4175531
126	0x3f843410	1.0328388
127	0x3f02876d	0.50987893
128	0x3f9816f8	1.188201
129	0x3e9b6868	0.30353093
130	0xbf189c08	-0.59613085
131	0x3f5735c6	0.84066427
132	0xbf639eeb	-0.88914365
133	0xbf97da0b	-1.1863416
134	0x3e8b279e	0.27178663
135	0x3fa21bb8	1.2664709
136	0xbdeed993	-0.11662593
137	0xbf4b8741	-0.79503256
138	0xbffdc2e2	-1.9825099
139	0xbe9dfc91	-0.30856755
140	0xbfb02040	-1.3759842
141	0xbea56c4c	-0.32309186
142	0xbfb58464	-1.4181027
143	0xbf41f499	-0.7576385
144	0xbfae5d1b	-1.3622164
145	0x3e084291	0.13306643
146	0x3f360703	0.7110445
147	0xc048223e	-3.12709
148	0xbfcb0e52	-1.5863745
149	0x3f891436	1.0709293
150	0xbe7f6721	-0.24941684
151	0x3f06f259	0.52713543
152	0x3f18ca5e	0.5968379
153	0x3fc0fb5d	1.507671
154	0xbf9faf74	-1.2475419
155	0x3ed8823b	0.42286858
156	0xbf81a524	-1.0128522
157	0x3c0d3433	0.008618402
158	0xc0090369	-2.1408331
159	0xbe1c55aa	-0.15267053
160	0xbfa92008	-1.32129
161	0xbedb043b	-0.42776665
162	0xbfdb4fba	-1.7133706
163	0x3fd88e56	1.6918437
164	0xbfb443a3	-1.4083141
165	0x3f6d55f2	0.9270927
166	0xbfa894c9	-1.3170406
167	0xbf1330e9	-0.57496506
168	0x3eb2701f	0.34851167
169	0x400c518c	2.1924772
170	0xbfec9cdb	-1.8485368
171	0x3e9e849b	0.30960545
172	0x3ec6eb7d	0.38851538
173	0x3ea9b830	0.33148336
174	0xbe8b79ac	-0.27241266
175	0x3e918fa8	0.28429914
176	0xbf705f7b	-0.9389569
177	0x3f4aaaab	0.7916667
178	0x3fe260aa	1.768575
179	0xbf84ea6e	-1.0384042
180	0x3f33a7a4	0.70177674
181	0xbfa2c3fd	-1.2716061
182	0xbff902f2	-1.9454024
183	0x3f7c13f3	0.9846794
184	0x3ed05c26	0.40695304
185	0xbb69c6af	-0.0035671403
186	0x3f1976c7	0.59946865
187	0xbd958696	-0.07301061
188	0xc00aa332	-2.1662107
189	0x3f9e68df	1.2375754
190	0xbf3eb058	-0.7448783
191	0x3f862e8f	1.0482959
192	0x3fbb7938	1.4646368
193	0xbf63481f	-0.88781923
194	0x3f7be588	0.9839711
195	0xbf5e75fc	-0.8689878
196	0x3fa94c87	1.3226479
197	0xc01c1360	-2.4386826
198	0x3facd734	1.3503175
199	0xc01b3b81	-2.4255068
200	0xbf051820	-0.51989937
201	0x3faf6840	1.370369
202	0xbfd04f31	-1.6274167
203	0xbf64ae92	-0.89328873
204	0x3f413313	0.7546856
205	0x3e37802b	0.17919986
206	0x3d8b6d14	0.068079144
207	0x3fc90c99	1.570697
208	0xbf6ea6ae	-0.93223083
209	0x3fbfddfc	1.4989619
210	0xbf0be111	-0.546403
211	0xbf9253de	-1.1431844
212	0x3ff28a1e	1.89484
213	0x3ea84653	0.32866153
214	0x3f831b0a	1.0242627
215	0xbe474b0c	-0.19462222
216	0x3fa5f870	1.2966442
217	0x3ebbcbd6	0.36678952
218	0x3e9ffe5f	0.31248757
219	0x3fda7126	1.706578
220	0xbf653f5c	-0.89549804
221	0x3f3a48ee	0.7276753
222	0xbf9c076d	-1.2189766
223	0x3e6fbbb0	0.23411441
224	0xbfe79600	-1.8092651
225	0xc030c98a	-2.762301
226	0x3f6169a0	0.88051796
227	0x3d75bdf9	0.059995625
228	0x3e79e2e4	0.24402958
229	0x3f3808be	0.7188834
230	0xbf383129	-0.7195001
231	0x3f6cd397	0.9251036
232	0xbdb7f021	-0.08981348
233	0xbf080c18	-0.53143454
234	0xbe5f8c08	-0.21830761
235	0x3f1b1b82	0.6058885
236	0xbf767d09	-0.9628454
237	0x4002991d	2.0405953
238	0x3f4a2f1d	0.7897814
239	0x3c812c87	0.015768303
240	0xbfda84de	-1.7071798
241	0x3ea00f5c	0.31261718
242	0x3e131cb1	0.14366414
243	0x3d3255ab	0.04353873
244	0xbe1bbd60	-0.1520896
245	0xbf977368	-1.1832094
246	0x3f00c7cf	0.50304884
247	0x3c36b48d	0.011151445
248	0x3f420d47	0.7580151
249	0x3f209f7c	0.62743354
250	0xbf756c01	-0.95867926
251	0xbfe6f498	-1.8043394
252	0xbf7c5e1a	-0.9858109
253	0x3ebbaa79	0.36653498
254	0xbf9fea6e	-1.2493417
255	0x3f6ba80d	0.920533

gru.weight_ih_l0 f4 [300, 100]
0	0x3e490e8f	0.1963446
1	0x3ddb3de1	0.10705162
2	0xbe0f4916	-0.13992724
3	0x3e038053	0.1284192
4	0xbd8c915d	-0.06863663
5	0x3d76e01e	0.06027233
6	0x3d75ff04	0.060057655
7	0x3c7a9f50	0.015296772
8	0xbdffc45f	-0.12488627
9	0xbd85e5e8	-0.06537992
10	0xbcec269c	-0.028827004
11	0xbdfcecef	-0.12349879
12	0x3e515eb0	0.20446277
13	0x3cba460c	0.02273848
14	0xbc628f65	-0.013828133
15	0x3d8f7f7b	0.07006737
16	0xbd8aba51	-0.06773818
17	0x3d11cb72	0.03559441
18	0x3cc70de1	0.02429861
19	0x3d9e4e37	0.07729762
20	0xbe94fa52	-0.2909723
21	0xbd854fc1	-0.065093525
22	0xbcad4ee0	-0.021155775
23	0xbe4e2dfc	-0.20134729
24	0xbc2f8067	-0.010711766
25	0xbc96426e	-0.018342223
26	0xbe3cf481	-0.18452646
27	0x3e7efe53	0.24901704
28	0x3b6ac714	0.0035824226
29	0x3d485c6d	0.04891627
30	0xbccdaa07	-0.02510549
31	0x3b60c657	0.0034297907
32	0xbd417e5c	-0.047239646
33	0xbe08b071	-0.13348557
34	0xbda6b1ec	-0.08139405
35	0x3daec994	0.08534542
36	0xbe05ae54	-0.13054782
37	0x3e3def4d	0.18548317
38	0xbc7f4cae	-0.015582247
39	0x3dfaca56	0.12245624
40	0xbdfa0516	-0.12208001
41	0x3d9f2955	0.07771555
42	0xbdb85c9a	-0.09002037
43	0xbde36084	-0.11102393
44	0xbd635af9	-0.05550668
45	0x3cb7bea7	0.022429777
46	0x3d9317a7	0.07182246
47	0xbe09147d	-0.13386722
48	0x3e224217	0.15845524
49	0x3d4a1ef0	0.04934591
50	0x3d6fcc17	0.058544245
51	0xbd2734e1	-0.040821914
52	0x3d290e45	0.041273374
53	0x3c174a29	0.00923399
54	0x3dc93577	0.09824651
55	0xbd06d500	-0.032917976
56	0xbda1c8cf	-0.07899629
57	0x3dc81db4	0.097712904
58	0x3e18c777	0.1491984
59	0xbdb3c9f9	-0.087787576
60	0x3dac739a	0.08420487
61	0xbcbc5484	-0.022989519
62	0xbd255aec	-0.040369913
63	0xbd6d69e3	-0.05796231
64	0xbd98f64f	-0.07468855
65	0x3e928048	0.28613496
66	0xbd94d1c3	-0.072665714
67	0xbb0e9f3d	-0.0021762394
68	0xbe2637d7	-0.16232239
69	0xbda45598	-0.08024138
70	0x3d86004a	0.06543024
71	0x3d918b66	0.07106666
72	0xbdd42ab0	-0.103597045
73	0x3de02159	0.109438606
74	0x3b81e3ca	0.003963922
75	0x3de58a00	0.11207962
76	0xbc715982	-0.014730813
77	0xbd1590a1	-0.036514882
78	0xbe15a58d	-0.14613934
79	0x3e355870	0.17709517
80	0x3dc5d226	0.09659223
81	0xbd358587	-0.044316795
82	0xbe7e8337	-0.24854742
83	0xbde97a6c	-0.11400303
84	0xbe5db155	-0.21649678
85	0x3cec3a76	0.02883647
86	0xbdee5142	-0.116365924
87	0xbde0356d	-0.1094769
88	0xbe285ca9	-0.16441597
89	0x3d9cd105	0.07657055
90	0xbc32eead	-0.010921163
91	0xbcecd4ca	-0.02891006
92	0xbe0a0d9c	-0.13481754
93	0x3cc503f7	0.024049742
94	0xbe0217da	-0.12704411
95	0x3d3c9ca1	0.04604781
96	0x3e032188	0.1280576
97	0xbe44aada	-0.192058
98	0x3d3005ec	0.042974398
99	0xbe30993c	-0.17245954
100	0x3c9c8fe9	0.01911159
101	0x3d295575	0.041341264
102	0x3dc96382	0.09833433
103	0x3cc56fa6	0.02410109
104	0xbdb75f70	-0.0895375
105	0x3e809085	0.2511026
106	0xbe140b36	-0.14457402
107	0xbe4e8660	-0.20168447
108	0xbdb1f76c	-0.0868977
109	0x3dadea01	0.08491898
110	0x3da234d6	0.07920234
111	0xbd8625c9	-0.06550176
112	0xbd752394	-0.059848383
113	0x3e58781d	0.2113957
114	0x3d7aefbb	0.06126378
115	0x3b4211a3	0.0029612563
116	0x3c49532e	0.012287898
117	0xbda266b5	-0.07929746
118	0xbbcc4bf0	-0.0062346384
119	0x3e4fd9c0	0.20297909
120	0xbde86d66	-0.11348991
121	0xbe0736f8	-0.13204563
122	0x3e442a8a	0.19156852
123	0xbeac6765	-0.33672634
124	0xbd982019	-0.07427997
125	0x3de25260	0.11050868
126	0xbe2a664e	-0.16640589
127	0x3e131373	0.14362888
128	0xbe18118c	-0.14850444
129	0xbc671b34	-0.014105607
130	0x3cee0981	0.029057266
131	0xbd16f66c	-0.0368561
132	0xbdf38431	-0.11890448
133	0x3de603f8	0.11231226
134	0xbe03e0cd	-0.12878723
135	0xbe41034c	-0.18848914
136	0x3df6c61c	0.12049505
137	0x3de6f005	0.11276249
138	0x3d1707b7	0.03687259
139	0x3ddc5a95	0.10759465
140	0x3e0ce5a8	0.13759482
141	0x3d622794	0.055213526
142	0xbda00e02	-0.07815172
143	0xbd9838ac	-0.07432684
144	0x3bdde93f	0.00677219
145	0xbc3ce35a	-0.011528814
146	0xbddc481b	-0.107559405
147	0x3c10bd6d	0.008834225
148	0x3e22517b	0.15851395
149	0xbdff9ede	-0.124814734
150	0x3df9a93d	0.12190483
151	0x3e08c27b	0.13355438
152	0x3d97caee	0.07411753
153	0x3e549c59	0.20762767
154	0x3dc0ad63	0.09408071
155	0x3e2dd4a7	0.16975652
156	0x3d1b8393	0.037967276
157	0xbcc5bab5	-0.02413688
158	0xbe6a6a0a	-0.22892013
159	0xbddc4a7d	-0.10756395
160	0xbdbd21e7	-0.09234982
161	0xbe930eb9	-0.2872217
162	0x3e1be642	0.15224555
163	0xbe388c6c	-0.18022317
164	0x3e7cc785	0.24685486
165	0xbd986ae2	-0.07442261
166	0x3e4f7015	0.202576
167	0x3c97dd3b	0.018538108
168	0xbdb187e6	-0.08668499
169	0xbe2b6070	-0.16736007
170	0x3dcacc62	0.09902264
171	0xbd71b9e1	-0.05901516
172	0x3e43b348	0.19111359
173	0xbe921c46	-0.28537196
174	0xbdc864cc	-0.097848505
175	0x3e5a940a	0.21345535
176	0xbda312cd	-0.0796257
177	0xbe507064	-0.20355374
178	0xbdf68fd3	-0.12039151
179	0xbba42d4f	-0.005010284
180	0x3d39d71f	0.04537117
181	0x3e1a2a46	0.15055189
182	0x3cce5d02	0.025190834
183	0x3d853c46	0.06505637
184	0xbd3b5c6f	-0.04574245
185	0xbd8a4018	-0.06750506
186	0xbd352ffa	-0.044235207
187	0x3df91ae1	0.1216333
188	0x3c40105a	0.0117226485
189	0x3bd6a6df	0.0065506543
190	0xbde1d132	-0.11026229
191	0xbe084dc4	-0.13310915
192	0xbbfe7e4a	-0.0077665197
193	0xbd4b7de2	-0.049680598
194	0xbd255754	-0.040366486
195	0x3d541cf0	0.05178541
196	0x3cbfc66f	0.02341005
197	0xbcb1df60	-0.021712959
198	0xbdf0a43b	-0.117500745
199	0xbe8f950c	-0.280434
200	0xbe35e3c1	-0.17762662
201	0x3d9c18a2	0.07621886
202	0x3d8cb0f6	0.0686969
203	0x3e0caab8	0.13736999
204	0x3ce31524	0.027720042
205	0x3b21319d	0.0024596222
206	0x3dcdd491	0.100503094
207	0x3d80dcb0	0.06292093
208	0xbde0323c	-0.109470814
209	0x3cdaf1ac	0.026726566
210	0xbd455652	-0.048178025
211	0xb9ba4396	-0.0003552704
212	0xbcd9cfc5	-0.02658833
213	0x3dcb3349	0.09921891
214	0x3c5dbe64	0.013534162
215	0xbe84de4f	-0.25950858
216	0x3cb23f51	0.021758707
217	0x3dcd4475	0.10022823
218	0x3e2276ec	0.15865678
219	0x3e32c541	0.17458059
220	0xbda09a60	-0.07841945
221	0x3e5d6d22	0.21623662
222	0xbdcdcc27	-0.100487046
223	0xbd62fdbc	-0.05541776
224	0x3b7dc70c	0.0038723378
225	0xbe36c076	-0.17846856
226	0xbda4e1c4	-0.08050874
227	0xbdc34471	-0.095345385
228	0xbe59a746	-0.21255216
229	0xbe322c8c	-0.17399806
230	0x3dbc1189	0.09183032
231	0x3d414f3f	0.047194716
232	0xbddf642d	-0.10907779
233	0x3b961f7e	0.004581391
234	0xbddfad7c	-0.109217614
235	0xbe038259	-0.12842692
236	0x3d315be2	0.043300517
237	0xbde5f9fe	-0.11229323
238	0xbdbcd521	-0.092203386
239	0x3d22cb1e	0.03974449
240	0x3df603b2	0.120124236
241	0x3d3110ff	0.0432291
242	0xbd4f3a22	-0.05059255
243	0x3c22fc8f	0.00994791
244	0x3c94a89c	0.018146805
245	0x3d7d0a68	0.061777502
246	0x3d95570b	0.07291993
247	0xbd277f04	-0.040892616
248	0xbe1a17f4	-0.150482
249	0x3e2bd193	0.16779165
250	0xbd6fde11	-0.05856139
251	0xbdccf371	-0.1000737
252	0xbde87975	-0.11351291
253	0xbdc06caa	-0.09395726
254	0xbd8151f4	-0.063144594
255	0x3e4becae	0.19914505

gru.weight_hh_l0 f4 [300, 100]
0	0x3c2bf414	0.0104952045
1	0x3d163b13	0.03667743
2	0x3e6f156b	0.23348014
3	0x3b8fd0dc	0.0043889116
4	0xbd2748e6	-0.040841006
5	0xbd7f41d3	-0.062318634
6	0xbd8e572a	-0.06950219
7	0x3e999510	0.29996538
8	0x3ce4ea3d	0.027943725
9	0x3dbec6cb	0.093152605
10	0x3e0904f4	0.13380796
11	0x3dd3d14f	0.10342657
12	0xbe3e8d01	-0.18608476
13	0xbc7ec33c	-0.015549477
14	0xbdb1bf18	-0.08679026
15	0x3c19425e	0.009354202
16	0xbde778e6	-0.113023564
17	0x3d94562e	0.07243
18	0x3d52ec66	0.05149498
19	0x3ddfe7fa	0.10932918
20	0xbe6b3c39	-0.22972192
21	0x3df94b56	0.12172572
22	0xbe0619af	-0.13095735
23	0x3e5f3d24	0.21800667
24	0x3b398278	0.0028306525
25	0x3d895ab2	0.06706752
26	0xbd72c724	-0.059271947
27	0xbd745910	-0.05965525
28	0x3aa82345	0.0012827894
29	0xbac9004c	-0.0015335171
30	0x3abe5052	0.0014519787
31	0xbcbea1f5	-0.023270587
32	0x3d4694cb	0.048481744
33	0x3c9deae3	0.019277042
34	0x3e15a0af	0.14612077
35	0xbce356c4	-0.027751334
36	0xbc9feff3	-0.019523596
37	0x3d44b0e5	0.048020262
38	0xbddfb39b	-0.10922929
39	0x3cd5fd82	0.026121859
40	0x3dcb96b0	0.09940851
41	0xbe03729e	-0.12836692
42	0x3d4310a7	0.047623303
43	0xbde0343e	-0.109474644
44	0xbdde241e	-0.108467326
45	0xbdc97935	-0.098375715
46	0x3c84cbce	0.016210463
47	0xbe81b4a2	-0.25333124
48	0x3c069213	0.008213538
49	0x3c86c178	0.016449675
50	0xbc95633a	-0.018235791
51	0xbd0e5502	-0.03474904
52	0xbda1c0df	-0.07898115
53	0x3de70316	0.112798855
54	0xbce25f97	-0.027633471
55	0xbde80eb6	-0.11330931
56	0x3c5a11a1	0.013309867
57	0x3cde1987	0.027111782
58	0x3d8d058b	0.06885823
59	0xbace3710	-0.0015732963
60	0xbe1dcce7	-0.15410195
61	0xbe4f942a	-0.20271364
62	0xbdcbcb9e	-0.09950946
63	0xbe578ad9	-0.2104906
64	0xbd384bd2	-0.044994183
65	0xbd8f5f85	-0.07000641
66	0x3daa0a4b	0.083027445
67	0xbe2b5dad	-0.16734953
68	0xbc8c7b70	-0.017148703
69	0xbde10ad2	-0.10988392
70	0xbe1d39cb	-0.15354078
71	0xbd3b1ad3	-0.04567988
72	0xbd61e5b2	-0.055150695
73	0x3df40b08	0.119161665
74	0x3e5f9af4	0.21836454
75	0x3ba8947a	0.005144653
76	0x3d37c7f3	0.04486842
77	0x3d121b26	0.035670422
78	0x3db806d2	0.08985676
79	0xbc886236	-0.016648393
80	0x3cc4ed78	0.024039015
81	0xbdb86660	-0.090039015
82	0xbd8e5a1f	-0.06950783
83	0x3d373221	0.04472554
84	0xbd00620f	-0.031343516
85	0x3d904d81	0.07046033
86	0x3c9d80ea	0.01922651
87	0xbdae749a	-0.08518334
88	0x3d7573af	0.059924778
89	0xbc58cfd9	-0.0132331485
90	0x3d4666ce	0.048437886
91	0x3c0e4c68	0.008685209
92	0xbea523d2	-0.3225389
93	0x3e20230a	0.15638366
94	0x3e1a320a	0.15058151
95	0x3db5c87b	0.08876129
96	0xbd926c25	-0.07149533
97	0xbe8ea9f5	-0.27864042
98	0x3d5b0818	0.053474516
99	0xbe77c729	-0.24197067
100	0x3e89cdb5	0.26914755
101	0x3d2d75a9	0.042348538
102	0xbdaae9ea	-0.08345397
103	0x3e2acee5	0.16680487
104	0xbe630a4d	-0.22171898
105	0x3dbce351	0.09223045
106	0x3cb7c9a6	0.02243502
107	0xbb4bef36	-0.0031117923
108	0xbd816e37	-0.0631985
109	0xbd8d72f0	-0.06906688
110	0x3e6f6d5f	0.23381566
111	0x3d3f7832	0.046745487
112	0xbdcff4b7	-0.101540975
113	0x3d9d581c	0.07682821
114	0xbbba1f48	-0.0056799985
115	0x3da761d6	0.081729576
116	0xbcf6792b	-0.030087074
117	0xbd4848d2	-0.04889757
118	0x3e3c6b9f	0.18400429
119	0xbe1a2ab8	-0.15055358
120	0x3dd9f88f	0.10643112
121	0x3d8e3660	0.06943965
122	0xbed1d1aa	-0.40980273
123	0xbd997f61	-0.07494999
124	0x3e3b435b	0.18287413
125	0xbd325090	-0.04353386
126	0x3e099702	0.13436511
127	0xbe4e0022	-0.20117238
128	0xbd7c6385	-0.061618347
129	0x3d81df07	0.06341367
130	0xbe068b74	-0.13139135
131	0x3d93fb42	0.07225658
132	0x3e160dd2	0.1465371
133	0x3d43cb1e	0.04780113
134	0xbdbba37f	-0.09162044
135	0xbdb25fd0	-0.08709681
136	0xbdea0c3f	-0.11428117
137	0xbeb2641e	-0.34842008
138	0x3d3941b1	0.045228664
139	0x3c99069b	0.018679908
140	0x3ddd6a63	0.10811307
141	0xbd1aa735	-0.037757117
142	0xbd517ea7	-0.051146176
143	0xbe91c2ee	-0.28469032
144	0x3d3af320	0.04564202
145	0x3aefa515	0.0018283451
146	0x3db86a0f	0.09004604
147	0x3e608bb5	0.21928294
148	0xbe00f9fd	-0.12595363
149	0x3d3182b0	0.043337524
150	0xbdab4a03	-0.08363726
151	0xbec165e9	-0.37773064
152	0xbd83633e	-0.06415413
153	0x3c0a9f3c	0.008460816
154	0x3d7928f4	0.06083007
155	0x3d17896d	0.036996294
156	0x3db764de	0.08954786
157	0xbccc63fd	-0.024950022
158	0xbdaedb53	-0.085379265
159	0xbca0d27e	-0.01963162
160	0xbdeb26bb	-0.114819966
161	0xbe807eba	-0.25096685
162	0xbe8b68e6	-0.2722847
163	0x3c3fa151	0.011696176
164	0xbd4559c0	-0.048181295
165	0xbd8ec962	-0.069720045
166	0x3e277d0e	0.16356298
167	0xbe2d6248	-0.16932023
168	0x3b40e52c	0.0029433472
169	0x3bef4f3b	0.007303146
170	0x3c8c627b	0.017136803
171	0x3e3c65fb	0.18398277
172	0xbe42514f	-0.1897633
173	0x3e600fd8	0.21881044
174	0x3c7b5a9c	0.015341427
175	0x3c2b4089	0.010452398
176	0xbd45061a	-0.048101522
177	0x3e67f480	0.22651863
178	0xbe3e558a	-0.18587318
179	0xbdf3e58b	-0.11909016
180	0xbc9da687	-0.019244445
181	0xbc85129e	-0.016244229
182	0xbd991c40	-0.074760914
183	0xbd8a3c38	-0.06749767
184	0x3d912f12	0.07089056
185	0xbd8c2201	-0.06842423
186	0x3e37471d	0.17898221
187	0x3c867bf2	0.016416524
188	0xbdf9a21c	-0.12189123
189	0x3e19199e	0.14951178
190	0xbd65b02c	-0.056076214
191	0x3d6050f1	0.05476469
192	0xbbbab3d9	-0.005697709
193	0x3e8973cf	0.26846167
194	0x3e35c62a	0.17751375
195	0x3e391eeb	0.180782
196	0xbe1f3fb0	-0.15551639
197	0xbe1d5413	-0.15364103
198	0x3cdcbdce	0.026945975
199	0xbddbb64b	-0.10728129
200	0x3dc9b555	0.098490395
201	0xbddcb82f	-0.10777318
202	0x3cc70d50	0.02429834
203	0x3d31d859	0.043419216
204	0x3e3d5718	0.18490255
205	0x3e109538	0.14119422
206	0xbd640c3a	-0.055675723
207	0x3c757328	0.014981069
208	0x3e1bcb82	0.15214351
209	0xbdf5680e	-0.119827375
210	0xbdeb36fa	-0.11485095
211	0xbd9926c2	-0.074780956
212	0xbcb1df25	-0.021712849
213	0xbd53d115	-0.051713068
214	0x3c9f39a9	0.019436674
215	0xbde41b10	-0.11137974
216	0x3d4f3eaf	0.05059689
217	0xbdf7d38b	-0.121008955
218	0xbd40b44f	-0.047046956
219	0x3c06d0de	0.008228509
220	0x3c55d918	0.013052247
221	0xbdcca2a9	-0.099919625
222	0x3c61d2ad	0.013783139
223	0x3c1692ba	0.009190256
224	0xbc465ea0	-0.012107521
225	0x3d3f96ca	0.046774663
226	0x3afdc3e2	0.0019360746
227	0xbcc37249	-0.023858206
228	0x3d82a193	0.06378474
229	0xbabec9b5	-0.0014555963
230	0xbd115097	-0.035477247
231	0xbdb929c2	-0.09041168
232	0x3e4f58f3	0.20248775
233	0xbe3ecff6	-0.18634018
234	0x3db03b9b	0.08605119
235	0xbc94fb26	-0.018186163
236	0xbde81744	-0.113325626
237	0x3cba24d8	0.022722647
238	0x3e076538	0.13222206
239	0xbde9ee78	-0.114224374
240	0x3dade234	0.084904104
241	0xbde7e3ff	-0.11322784
242	0x3d87d882	0.066330925
243	0x3d8705ab	0.06592878
244	0x3d8991ce	0.06717263
245	0xbe4899b1	-0.19589879
246	0xbe298498	-0.16554487
247	0x3c23a222	0.009987386
248	0xbe098d9e	-0.13432929
249	0x3c805a48	0.01566805
250	0xbdbb5d3d	-0.09148643
251	0xbd665042	-0.056228884
252	0xbe37537a	-0.17902938
253	0x3cb2fb59	0.021848368
254	0x3d90912e	0.07058941
255	0xbe531ef2	-0.20617273

gru.bias_ih_l0 f4 [300]
0	0xbbf1a2d8	-0.007374149
1	0x3cd540e8	0.026031926
2	0xbd371c0c	-0.044704482
3	0x3d83dfa2	0.06439139
4	0xbd9bbf22	-0.07604815
5	0x3c696607	0.014245517
6	0x3de33413	0.11093917
7	0x3d6a2778	0.057166547
8	0x3cfecc29	0.03110321
9	0xbd8fb0b5	-0.07016126
10	0xbd69cf07	-0.057082202
11	0x3dc7eddc	0.09762165
12	0xbbc20371	-0.0059208204
13	0xbc0041ef	-0.00782822
14	0x3debe1a9	0.11517651
15	0x3d449278	0.047991246
16	0x3d0b7251	0.034044567
17	0x3dedaa79	0.11604781
18	0x3dd58148	0.10425049
19	0xba361833	-0.0006946355
20	0x3dd9706d	0.10617147
21	0x3e208c8b	0.15678613
22	0x3e04f593	0.12984304
23	0x3dc27723	0.0949538
24	0x3db430fd	0.08798406
25	0xbd6d869e	-0.05798971
26	0x3e0a5a85	0.13511093
27	0x3df5f254	0.12009111
28	0xbdb6d26e	-0.08926855
29	0xbca8ec07	-0.02062036
30	0xbd5037b1	-0.05083436
31	0x3c185b10	0.009299055
32	0x3d910ce2	0.07082535
33	0x3db94c48	0.090477526
34	0x3c84b2b6	0.016198497
35	0x3d081982	0.03322745
36	0xbc88a822	-0.016681734
37	0x3e034ee0	0.12823057
38	0x3d64603d	0.055755842
39	0x3e279e2c	0.16368932
40	0xbbce75cf	-0.006300665
41	0x3d7e24b0	0.062046707
42	0x3cc09079	0.02350639
43	0x3d93691e	0.07197784
44	0xbd2f60cc	-0.042816922
45	0x3d5bf4b5	0.053700168
46	0x3c1edd60	0.009696335
47	0x3d735ced	0.059414793
48	0x3c8747a2	0.01651365
49	0x3c0dbeda	0.00865146
50	0x3daee053	0.0853888
51	0x3e2dca7d	0.16971774
52	0xbdbfbfdb	-0.093627654
53	0x3c4877e5	0.012235616
54	0x3df5042f	0.119636886
55	0xbd56a216	-0.05240067
56	0x3a46ed61	0.0007588473
57	0x3df913b0	0.12161958
58	0x3dd1d2ba	0.10245271
59	0x3dcc765f	0.09983515
60	0x3cd55483	0.026041275
61	0x3da0b5d8	0.07847184
62	0x3d70c35b	0.058780055
63	0x3e0a0943	0.13480096
64	0x3d321a4e	0.043482117
65	0x3db99e60	0.09063411
66	0x3cf47ec3	0.029845601
67	0xbceffeb1	-0.029296251
68	0xbccd4a34	-0.025059797
69	0x3dc46597	0.09589689
70	0x3e04e6ea	0.12978712
71	0x3cf2aa9b	0.029622367
72	0xbccbfc1e	-0.024900492
73	0x3d2f3301	0.04277325
74	0xbb3b5bd0	-0.002858866
75	0x3c12e876	0.008966556
76	0x3cbeaa9b	0.02327471
77	0x3cd0beae	0.025481548
78	0x3da26fc1	0.079314716
79	0xbd9e300f	-0.0772401
80	0xbaaa0947	-0.0012972736
81	0x3cfaca60	0.030614078
82	0xbd832c2a	-0.06404908
83	0xbd1fadf4	-0.038984254
84	0x3d47f21b	0.048814874
85	0xbd631f0d	-0.055449534
86	0x3d8907ef	0.06690966
87	0xbd61ef35	-0.055159766
88	0x3d1c4ee5	0.038161177
89	0x3d18cbde	0.037303798
90	0x3c8be211	0.01707557
91	0x3d5782a2	0.052614816
92	0x3d06d8db	0.032921653
93	0x3d36fe86	0.044676326
94	0x3da6ca27	0.08144026
95	0xbce47b4d	-0.027890826
96	0x398a0424	0.00026324496
97	0x3cc0d29e	0.02353793
98	0xbbb13b36	-0.00540867
99	0x3d5241c1	0.05133224
100	0xbddc806c	-0.10766682
101	0xbe8cd550	-0.27506495
102	0xbe5bcb87	-0.21464358
103	0xbe29a932	-0.16568449
104	0xbe94f60e	-0.29093975
105	0xbdf3b686	-0.11900048
106	0xbe8fda39	-0.28096178
107	0xbe173352	-0.14765671
108	0xbe227b00	-0.15867233
109	0xbe0b8b3a	-0.1362733
110	0xbd383132	-0.04496879
111	0xbea9297f	-0.33039472
112	0xbe9067c2	-0.2820416
113	0xbe7a7a8c	-0.2446081
114	0xbe1afaa1	-0.1513467
115	0xbe566364	-0.20936352
116	0xbe1c8049	-0.15283312
117	0xbe85fc3a	-0.26168996
118	0xbe4e96b1	-0.20174672
119	0xbe1dcc2a	-0.15409914
120	0xbde6de47	-0.11272865
121	0xbe435340	-0.19074726
122	0xbe426fe6	-0.18987998
123	0xbeb63a71	-0.35591462
124	0xbe2f7842	-0.17135718
125	0xbe7de7d3	-0.24795465
126	0xbe02abc4	-0.12760836
127	0xbe70c296	-0.23511729
128	0xbe38cfd3	-0.18048029
129	0xbe5c55bc	-0.2151708
130	0xbe4659bb	-0.19370167
131	0xbde892b8	-0.113561094
132	0xbe81e9d5	-0.25373712
133	0xbe271c71	-0.16319443
134	0xbe43eddf	-0.1913371
135	0xbe3dff5b	-0.18554442
136	0xbe42b0b0	-0.19012713
137	0xbe53eea1	-0.20696498
138	0xbe8e50a0	-0.27795887
139	0xbe6994e8	-0.2281071
140	0xbe7cae13	-0.24675779
141	0xbeb3c3d7	-0.3511035
142	0xbd9e6cfc	-0.07735631
143	0xbe084836	-0.13308796
144	0xbe95ff7f	-0.2929649
145	0xbea0fa6a	-0.3144105
146	0xbe592e78	-0.21209133
147	0xbe204918	-0.15652883
148	0xbe785a21	-0.24253131
149	0xbe28df8a	-0.16491523
150	0xbe29ea86	-0.1659337
151	0xbe548818	-0.2075504
152	0xbdce2883	-0.10066321
153	0xbe9b2b9e	-0.30306715
154	0xbe0a1666	-0.13485107
155	0xbe6b2ba6	-0.2296587
156	0xbe54dec1	-0.20788099
157	0xbec87ad2	-0.39156204
158	0xbec23279	-0.37929133
159	0xbea44d39	-0.32090166
160	0xbde1923d	-0.11014221
161	0xbe08137b	-0.13288681
162	0xbdff11ef	-0.124545924
163	0xbe8f9b5b	-0.28048214
164	0xbea91d53	-0.33030185
165	0xbd4c9d09	-0.049954448
166	0xbe4f9c78	-0.20274532
167	0xbd54b7df	-0.051933166
168	0xbe870570	-0.26371336
169	0xbcbd0310	-0.02307275
170	0xbea10f8b	-0.3145717
171	0xbe2d9062	-0.16949609
172	0xbec88479	-0.3916357
173	0xbe8d67c1	-0.2761822
174	0xbe757247	-0.23969375
175	0xbe3c72da	-0.18403187
176	0xbe92928c	-0.2862743
177	0xbe7ad74a	-0.24496189
178	0xbe338515	-0.17531236
179	0xbe97a892	-0.29620796
180	0xbe3111a4	-0.17291886
181	0xbe676a03	-0.22599034
182	0xbe0b8ff8	-0.13629138
183	0xbea9fefa	-0.33202344
184	0xbea36075	-0.31909528
185	0xbde9225e	-0.11383508
186	0xbde08987	-0.10963731
187	0xbe4f7f21	-0.2026334
188	0xbe064625	-0.13112696
189	0xbeab8cdc	-0.33505905
190	0xbe9c8ee4	-0.30577767
191	0xbe71f0ef	-0.23627065
192	0xbeb15656	-0.34636182
193	0xbe4e9f74	-0.20178014
194	0xbe4dfb2b	-0.20115344
195	0xbe79c3b3	-0.2439106
196	0xbe5826ce	-0.21108553
197	0xbe55fedc	-0.20898002
198	0xbda68cea	-0.08132346
199	0xbe9a711b	-0.30164418
200	0x3da48d60	0.08034778
201	0xbdbb693d	-0.09150932
202	0x3dc655b6	0.09684317
203	0xbde538e4	-0.11192492
204	0x3ce43080	0.027855158
205	0x3da72db5	0.08163015
206	0xbe28c7f3	-0.16482525
207	0x3dbac0c7	0.091188006
208	0x3b4e2495	0.003145491
209	0x3c9252e4	0.017861791
210	0xbc6079a8	-0.01370088
211	0xbd94b284	-0.07260612
212	0xbe5f3a6a	-0.21799627
213	0xbd292713	-0.04129703
214	0x3d20d272	0.039263196
215	0x3cb121fc	0.02162265
216	0x3cae44e3	0.021273082
217	0xbe677d70	-0.22606444
218	0xbccf3483	-0.025293594
219	0xbdee46bb	-0.116345845
220	0x3d0b0a0d	0.033945132
221	0x3e33646d	0.17518778
222	0x3d23e0f2	0.040009446
223	0x3dabf5a7	0.08396464
224	0xbe31b27d	-0.17353244
225	0xbcdf2dda	-0.027243543
226	0xbd4d68b9	-0.0501487
227	0xbdfe3a09	-0.12413413
228	0xbcae2a7f	-0.021260498
229	0x3de3f227	0.11130171
230	0x3daf7979	0.08568091
231	0xbcbc1a01	-0.022961618
232	0x3d99e4fd	0.07514379
233	0xbca0a528	-0.019610003
234	0xbe2ec5f4	-0.170677
235	0xbe410a38	-0.18851554
236	0xbdb896b8	-0.09013122
237	0x3c950e92	0.018195424
238	0xbcf3e626	-0.02977283
239	0x3db30de0	0.08742881
240	0xbe170a9f	-0.14750145
241	0xbd9d93eb	-0.07694229
242	0x3d535e10	0.051603377
243	0x3dd3b563	0.10337331
244	0xbe2713a6	-0.16316089
245	0xbe2862c1	-0.16443922
246	0x3df7e0c3	0.12103417
247	0x3cc347d5	0.023837963
248	0xbd266db7	-0.040631976
249	0xbd876cbe	-0.06612538
250	0xbd1dd6ee	-0.03853505
251	0x3d305e6d	0.0430588
252	0xbe081f1b	-0.13293116
253	0x3d8e4f66	0.06948738
254	0xbd9f6c38	-0.07784313
255	0xbd77f2c2	-0.060534246

gru.bias_hh_l0 f4 [300]
0	0x3dea4ceb	0.11440452
1	0x3e18165a	0.14852276
2	0x3d22d4bb	0.039753657
3	0xb909ee7a	-0.00013154178
4	0xbda526a7	-0.08064013
5	0xbb6e46e5	-0.0036358174
6	0xbd11628e	-0.03549438
7	0x3e063917	0.13107716
8	0x3d344cba	0.044018485
9	0xbd8604a6	-0.06543855
10	0x3b038fbd	0.0020074688
11	0x3d248560	0.04016626
12	0x3e058574	0.1303919
13	0x3adeb57b	0.0016991341
14	0x3da69376	0.08133595
15	0x3bc1ead4	0.0059178863
16	0x3aad4ea4	0.0013222289
17	0x3e520040	0.20507908
18	0x3b9b42bf	0.0047381814
19	0xbbe641a2	-0.007026867
20	0xbc62de5b	-0.013846959
21	0xbc4f5188	-0.012653716
22	0x3db0542e	0.08609806
23	0x3dde934a	0.10867937
24	0xbd2710df	-0.040787574
25	0x3cbd2c3a	0.023092378
26	0x3e03adbf	0.12859248
27	0x3e33bfde	0.1755366
28	0x3da58bc6	0.080833
29	0x3dbdc8bd	0.092668034
30	0xb9c74350	-0.0003800639
31	0xbd253a4f	-0.04033881
32	0x3d0fc293	0.03509767
33	0xbd30dddb	-0.043180328
34	0x3e069fff	0.13146971
35	0x3e0f33a7	0.13984548
36	0x3da1cf45	0.07900862
37	0x3df928a5	0.121659555
38	0xbc2f36e3	-0.010694238
39	0x3d0995eb	0.03359024
40	0x3ce69419	0.02814679
41	0xbda6d9a9	-0.08146984
42	0x3e1eb493	0.15498571
43	0x3d85fd85	0.06542496
44	0xbd438ea4	-0.047743455
45	0xbde2b347	-0.11069351
46	0x3da09f28	0.07842857
47	0x3d2908c4	0.041268125
48	0x3ddcf085	0.10788063
49	0xbd3d5564	-0.046224013
50	0x3cd0adb6	0.025473457
51	0x3df40f73	0.11917009
52	0xbdd305af	-0.103038184
53	0x3e12519a	0.14288941
54	0x3e018078	0.12646663
55	0x3d5db291	0.054125372
56	0x3d81b8c0	0.063340664
57	0x3e4d1e40	0.2003107
58	0xbbc7e389	-0.0061001224
59	0x3e03d766	0.12875137
60	0xbd46898e	-0.048471026
61	0x3d340a21	0.043954972
62	0x3e2452b1	0.1604717
63	0xbbc7a2f3	-0.006092423
64	0x3d5ba61b	0.053625207
65	0x3db17342	0.08664562
66	0x3c9de468	0.019273952
67	0x3d0e7e58	0.03478846
68	0x3d67cc8e	0.056591563
69	0x3d914e7e	0.07095049
70	0x3e067d8b	0.13133828
71	0x3e04c51c	0.12965816
72	0x3d8488f4	0.06471434
73	0x3d8cc5f7	0.06873696
74	0xbd03dcef	-0.03219312
75	0xbbb61e21	-0.005557791
76	0x3b402fbc	0.0029325327
77	0xbdfd73dd	-0.12375615
78	0x3e087a98	0.13328016
79	0x3d6ab425	0.057300705
80	0x3da154a2	0.078774706
81	0x3c509529	0.012730875
82	0xbdd02fa9	-0.101653405
83	0xbcc166e7	-0.023608638
84	0xbd79fefa	-0.06103418
85	0x3d5f30be	0.054489844
86	0x3d2e8891	0.04261071
87	0xbcff8743	-0.031192428
88	0x3d8b8b0d	0.06813631
89	0xbd6dbe66	-0.058042906
90	0x3d615c8a	0.055019893
91	0x3e20adb9	0.1569127
92	0x3d80db13	0.06291785
93	0xbb7e80e5	-0.0038834151
94	0xbd8347fe	-0.06410216
95	0x3d5fc20e	0.054628424
96	0xbd0e379d	-0.034721006
97	0x3e0c72dd	0.13715692
98	0xbcd8b1cc	-0.026451968
99	0xbc82f37d	-0.015985245
100	0xbe5c904b	-0.21539418
101	0xbdfc442b	-0.123176895
102	0xbe80dfcb	-0.2517074
103	0xbe1abd71	-0.15111329
104	0xbe461d28	-0.1934706
105	0xbe34d90f	-0.17660926
106	0xbe4c8b36	-0.1997498
107	0xbe3d58bd	-0.18490882
108	0xbe46cebc	-0.194148
109	0xbe24e7af	-0.16104005
110	0xbde04e2d	-0.10952411
111	0xbe968fcc	-0.29406583
112	0xbe734ec4	-0.23760515
113	0xbe2baa17	-0.16764103
114	0xbdf56c74	-0.119835764
115	0xbe41719f	-0.18891
116	0xbe446988	-0.19180882
117	0xbe3e9a64	-0.18613583
118	0xbe64209a	-0.22278062
119	0xbe117e68	-0.14208376
120	0xbe435e26	-0.19078884
121	0xbe15079c	-0.14553684
122	0xbe82506c	-0.25451982
123	0xbe97916b	-0.29603133
124	0xbe359a8e	-0.17734739
125	0xbe5ad80b	-0.21371476
126	0xbe630ec1	-0.22173597
127	0xbe49a86f	-0.19693159
128	0xbe4ecd6c	-0.2019555
129	0xbe38c59d	-0.18044133
130	0xbe54a42f	-0.20765756
131	0xbe52fc59	-0.20604075
132	0xbe1b7977	-0.15183054
133	0xbe3ae222	-0.18250325
134	0xbeae1fd9	-0.34008673
135	0xbead7df2	-0.3388515
136	0xbe4d6a07	-0.20059977
137	0xbe4d3983	-0.2004147
138	0xbe67001a	-0.22558632
139	0xbd92028a	-0.071293905
140	0xbda9e791	-0.08296121
141	0xbeb8b739	-0.36077288
142	0xbd77cad3	-0.060496163
143	0xbe628003	-0.22119145
144	0xbe49cdac	-0.19707364
145	0xbe882d07	-0.26596853
146	0xbe4164c8	-0.18886101
147	0xbe815260	-0.2525816
148	0xbea57f36	-0.32323617
149	0xbe05f2c4	-0.13080889
150	0xbe755c1b	-0.23960917
151	0xbeac8f9b	-0.33703312
152	0xbdeeeb2e	-0.11665951
153	0xbe27f47e	-0.1640186
154	0xbe9ca081	-0.30591205
155	0xbe8eda5c	-0.2790097
156	0xbe9e1d31	-0.30881646
157	0xbe759fc2	-0.23986724
158	0xbe5f1ec1	-0.21789075
159	0xbe3eabf4	-0.18620282
160	0xbe08bdd4	-0.13353664
161	0xbe8d76b2	-0.2762962
162	0xbe7eb651	-0.24874236
163	0xbde58668	-0.112072766
164	0xbe9511b4	-0.2911507
165	0xbdead2ac	-0.11465964
166	0xbe827b5b	-0.25484738
167	0xbe19c8bb	-0.15017979
168	0xbe8a720d	-0.2704014
169	0xbe02ddc3	-0.12779908
170	0xbe02c4f0	-0.12770438
171	0xbd48b430	-0.048999965
172	0xbe9919e3	-0.29902562
173	0xbe63efef	-0.22259496
174	0xbe911fa7	-0.2834446
175	0xbe276ac0	-0.16349316
176	0xbe1d2337	-0.15345465
177	0xbe510cf6	-0.204151
178	0xbe2021f4	-0.15637952
179	0xbe565e82	-0.2093449
180	0xbe00fd0f	-0.12596534
181	0xbe321de3	-0.17394213
182	0xbe5a5d28	-0.21324599
183	0xbe9bcf4a	-0.30431587
184	0xbedae713	-0.4275442
185	0xbe11f3cc	-0.14253157
186	0xbdd88df9	-0.10573954
187	0xbe91da42	-0.2848683
188	0xbdeb58e9	-0.11491568
189	0xbe2e4ece	-0.17022249
190	0xbe68dff4	-0.22741681
191	0xbe47fb10	-0.19529366
192	0xbe656254	-0.2240079
193	0xbe846283	-0.25856408
194	0xbe6046fd	-0.2190208
195	0xbe868645	-0.26274315
196	0xbe1d0d91	-0.15337206
197	0xbe4bff83	-0.19921689
198	0xbe78a065	-0.24279936
199	0xbe633977	-0.2218989
200	0x3ccc5747	0.02494396
201	0xbe5cb6b3	-0.21554069
202	0x3dcd48ff	0.100236885
203	0xbe4764f8	-0.1947211
204	0xbbf87a2d	-0.007582924
205	0xbd1d563a	-0.03841231
206	0x3cd2affb	0.02571868
207	0x3dfe28e6	0.124101445
208	0x3d0a0abb	0.03370164
209	0xbddde89c	-0.10835382
210	0x3cef1bc1	0.029188039
211	0x3dac96c1	0.084271915
212	0xbe4cadd3	-0.19988184
213	0xbdad8ebe	-0.084744915
214	0x3dea1371	0.114294894
215	0x3da1d7fc	0.07902524
216	0xbcf14ae8	-0.029454663
217	0xbe0c5dd3	-0.13707666
218	0x3b3df418	0.0028984603
219	0xbd519867	-0.051170733
220	0x3e0f0bb1	0.13969304
221	0x3d4b3ac3	0.049616586
222	0x3d85bc9c	0.06530115
223	0x3e07a4a4	0.13246399
224	0x3e12b655	0.14327367
225	0xbdc5f1b2	-0.0966524
226	0xbe32c2a3	-0.1745706
227	0xbdbb6c97	-0.09151571
228	0xbc24a3e1	-0.010048837
229	0x3b1407e9	0.0022587723
230	0x3d0a5810	0.03377539
231	0xbdeb41ab	-0.114871345
232	0xbc2b87b9	-0.0104693705
233	0x3df8e8f2	0.12153806
234	0xbda13499	-0.0787136
235	0xbdadde6d	-0.0848969
236	0x3c31e042	0.01085669
237	0xbd6e3a4a	-0.058161058
238	0xbdf4ab78	-0.119467676
239	0x3e2fb273	0.17157917
240	0xbdda16f9	-0.10648913
241	0xbd32ccca	-0.043652333
242	0xbcc48d52	-0.023993168
243	0xbdfb9bcf	-0.122855775
244	0x3cb3bde9	0.021941142
245	0xbda5d8ed	-0.08098016
246	0x3d15188f	0.036400374
247	0x3cbd08eb	0.023075541
248	0xbd9c9321	-0.0764525
249	0xbd9c76a6	-0.07639818
250	0xbd294e20	-0.04133427
251	0xbd7b21fd	-0.06131171
252	0x3d898fd3	0.067168854
253	0xbc4d4329	-0.012528219
254	0xbe651a5d	-0.22373338
255	0x3d370811	0.044685427

gru.weight_ih_l1 f4 [300, 100]
0	0x3b2c44b3	0.0026286065
1	0x3e35a930	0.17740321
2	0x3e50b382	0.20380977
3	0x3dc21be9	0.0947798
4	0xbd7f7868	-0.062370688
5	0x3df2767e	0.11839007
6	0x3d1c2aec	0.03812687
7	0x3defc4b2	0.117074385
8	0xbda1bd87	-0.078974776
9	0x3d99fdda	0.075191215
10	0x3d1d9b26	0.03847804
11	0x3ea27e51	0.31736997
12	0x3cd30d31	0.025763126
13	0xbe5025e5	-0.20326956
14	0x3d006217	0.031343546
15	0xbd56a893	-0.05240686
16	0xbde29c5f	-0.11064982
17	0xbd4a1930	-0.049340427
18	0xbdd18325	-0.10230092
19	0x3dc91565	0.09818534
20	0xbd1dbc16	-0.03850945
21	0xbcf92478	-0.030412897
22	0xbdf56d10	-0.11983693
23	0x3c8f1583	0.017466312
24	0xbe022ea9	-0.12713112
25	0x3d8983b3	0.06714573
26	0xbe17b8d3	-0.14816599
27	0xbd9dab33	-0.07698669
28	0xbdab329d	-0.08359263
29	0x3d32b9fb	0.043634396
30	0x3c16133a	0.009159857
31	0x3e174871	0.14773728
32	0xbd8693b0	-0.06571138
33	0x3ea225cf	0.3166947
34	0x3d4659e2	0.048425563
35	0x3e4be908	0.19913113
36	0x3de03bec	0.10948929
37	0x3baa4412	0.005196103
38	0x3d6c73ea	0.05772773
39	0xbd8c0bfe	-0.06838225
40	0xbd57610f	-0.052582797
41	0xbd258f68	-0.040419966
42	0x3e74f86e	0.23922893
43	0x3e9c43cc	0.30520475
44	0x3e3da56b	0.18520133
45	0x3db69963	0.08915975
46	0x3d988fac	0.07449278
47	0xbdfdd87d	-0.123948075
48	0x3ca94b7f	0.020665882
49	0xbdc2785b	-0.09495612
50	0x3d8d41c9	0.06897313
51	0x3e948d34	0.2901398
52	0x3d1ab824	0.037773266
53	0x3e082e23	0.1329885
54	0xbddf8b6d	-0.10915265
55	0x3d1de71f	0.038550492
56	0x3cda4cd1	0.026647957
57	0xbdefe6c9	-0.11713941
58	0x3d86d653	0.06583848
59	0x3d6a1136	0.05714532
60	0xbd82e658	-0.06391591
61	0xbcc309af	-0.023808328
62	0xbe434d66	-0.19072494
63	0xbd809181	-0.06277753
64	0xbe04d8d7	-0.12973343
65	0xbe0691e7	-0.13141595
66	0xbd36d0b3	-0.044632625
67	0x3c1fa03e	0.009742795
68	0x3dcb17e9	0.0991667
69	0xbe0271c8	-0.12738717
70	0x3d99c9b1	0.07509173
71	0xbcebfde1	-0.028807582
72	0xbd6c4335	-0.05768128
73	0xbe4608f6	-0.19339356
74	0x3d985baf	0.07439362
75	0xbce845fb	-0.028353682
76	0xbe615c86	-0.22007951
77	0x3e8cbb78	0.27486777
78	0xbdf4a609	-0.11945731
79	0xbe21ab4e	-0.15788004
80	0xba58aae2	-0.00082652096
81	0xbd67d872	-0.056602903
82	0x3ebe85ba	0.372114
83	0x3e2517b5	0.16122325
84	0xbd248749	-0.04016808
85	0x3cec8c07	0.028875364
86	0xbdd56812	-0.104202405
87	0xbe164b4d	-0.14677162
88	0xbe022881	-0.12710764
89	0x3d34059f	0.043950673
90	0xbd6c4039	-0.057678435
91	0xbe1165eb	-0.14199035
92	0xbe4c7648	-0.19966996
93	0xbd8ef3bd	-0.06980083
94	0x3d6f5d0f	0.058438357
95	0x3d8b7791	0.06809915
96	0xbdc3a23a	-0.09552427
97	0xbbd54da7	-0.006509501
98	0xbddee46c	-0.10883412
99	0xbce3f404	-0.027826317
100	0x3ab53cfb	0.0013827378
101	0x3abc5fb6	0.0014371786
102	0x3e0f1f83	0.13976865
103	0x3d2291cf	0.039689835
104	0x3dd3fde7	0.103511624
105	0xbd45118e	-0.048112445
106	0x3df22fbe	0.11825512
107	0x3eeef62f	0.46672198
108	0x3cb1e079	0.021713482
109	0xbb29eccb	-0.0025928493
110	0x3e401e6b	0.18761604
111	0x3db52f87	0.08846956
112	0xbe30e580	-0.17275047
113	0x3dbb5980	0.0914793
114	0x3d065b26	0.03280177
115	0x3d812ca5	0.063073434
116	0x3d132a2c	0.03592889
117	0x3dad383f	0.08457994
118	0xbbaded3a	-0.0053078206
119	0xbe6eab2f	-0.23307489
120	0xbd8b70a9	-0.068085976
121	0x3d8f96d0	0.07011187
122	0xbdde5c6a	-0.1085747
123	0x3d37a6af	0.044836696
124	0x3da49bf3	0.080375575
125	0x3da8decf	0.08245622
126	0x3e987d98	0.2978332
127	0xbdd2cea0	-0.10293317
128	0x3c303251	0.010754184
129	0x3e31cffe	0.17364499
130	0x3e541ea2	0.2071481
131	0x3e902af4	0.2815777
132	0x3d196cb3	0.03745718
133	0xbe4d031c	-0.20020717
134	0x3dc015d8	0.09379166
135	0xbd022829	-0.03177658
136	0x3e079df4	0.13243848
137	0xbd08258c	-0.033238932
138	0x3e98ec21	0.29867652
139	0xbd0dfc72	-0.03466458
140	0xbc80ba28	-0.015713766
141	0xbce5845f	-0.028017221
142	0x3e38d4c0	0.18049908
143	0x3c5e41c1	0.013565482
144	0x3d71e446	0.05905559
145	0xbdb3a67b	-0.08771988
146	0x3dea14d6	0.114297554
147	0x3d81bbb0	0.06334627
148	0xbe3548b2	-0.17703512
149	0x3d3c7d1e	0.04601776
150	0xbd4b9df3	-0.04971118
151	0x3ddb9bcb	0.107230745
152	0x3c959ff8	0.018264756
153	0xbdcf5cfd	-0.10125158
154	0xbd512231	-0.051057998
155	0xbeacc972	-0.3374744
156	0xbd9016fc	-0.07035634
157	0xbcf89639	-0.03034507
158	0x3e45a008	0.19299328
159	0xbd0b3add	-0.033991683
160	0x3cfd4a5c	0.030919246
161	0xbdb087ab	-0.086196266
162	0x3dd653b7	0.10465186
163	0x3dba801d	0.09106467
164	0xbdcbd19a	-0.09952088
165	0x3e30633b	0.17225353
166	0x3d21ff93	0.039550375
167	0xbdd16845	-0.10224966
168	0x3e03aff4	0.1286009
169	0x3dcb2520	0.099191904
170	0xbd4bf6c1	-0.04979587
171	0x3dabaaf0	0.08382213
172	0x3da16f9f	0.07882618
173	0x3e698be3	0.22807269
174	0x3d5461c0	0.051851034
175	0xbe17ad62	-0.14812234
176	0xbe3d355a	-0.18477383
177	0x3de57683	0.11204245
178	0xbe1654e9	-0.14680828
179	0xbe514379	-0.20435895
180	0x3da481c7	0.080325656
181	0x3e0aabdf	0.13542126
182	0x3e2102a4	0.15723664
183	0xbdd2f5af	-0.10300767
184	0xbce886f2	-0.02838466
185	0x3cb865af	0.022509424
186	0x3bc13d82	0.005897225
187	0xbe169cb3	-0.14708214
188	0xbe1b5957	-0.15170799
189	0x3e2c472d	0.16824026
190	0xbe8f838c	-0.2803005
191	0xbd53144a	-0.05153302
192	0x3da60d3b	0.08107992
193	0x3cc9b945	0.024624476
194	0x3d65aeda	0.056074955
195	0xbda37327	-0.07980948
196	0x3dfcc4b5	0.123422064
197	0x3c84da6a	0.01621743
198	0xbdb1d639	-0.08683438
199	0xbe855bbc	-0.2604655
200	0x3e3d2a5e	0.18473193
201	0x3e56011f	0.20898865
202	0xbdd0254a	-0.10163362
203	0x3e49d07a	0.19708434
204	0xbd2b2c4a	-0.041790284
205	0x3e0455b8	0.12923324
206	0xbe834059	-0.2563503
207	0xbdc5f24f	-0.09665357
208	0x3e1f18e7	0.15536843
209	0x3da54547	0.08069854
210	0x3e68d3de	0.22737071
211	0x3dc4df6b	0.09612926
212	0x3d336953	0.043801617
213	0xbe209f5b	-0.1568579
214	0x3dce51e8	0.10074216
215	0xbd4d6693	-0.05014665
216	0xbe01a548	-0.12660706
217	0xbd1aa74c	-0.037757203
218	0xbc6a0fff	-0.01428604
219	0xbce87b4e	-0.028379109
220	0x3dda6bbd	0.10665081
221	0x3e09e255	0.13465245
222	0xbe08ca5d	-0.13358445
223	0xbd80138b	-0.062537275
224	0x3e832de3	0.25620946
225	0xbe11e3fa	-0.14247122
226	0xbd4e5a74	-0.05037923
227	0xbd9bbae5	-0.07604007
228	0x3c0550fc	0.008136984
229	0xbcaa6a75	-0.020802716
230	0x3ad80d78	0.0016483506
231	0xbde6983d	-0.11259506
232	0x3d3eae97	0.04655322
233	0xbe34d946	-0.17661008
234	0xbdb0c2d8	-0.086309135
235	0x3d276b64	0.0408739
236	0x3b6fbe22	0.0036581834
237	0xbe196d59	-0.14983119
238	0xbeb683f7	-0.35647556
239	0x3d4d9286	0.050188564
240	0x3cad31b2	0.02114186
241	0xbdd05962	-0.101732984
242	0x3dba12f1	0.09085644
243	0x3d806875	0.062699236
244	0xbd554476	-0.052067243
245	0xbc9f39bd	-0.019436711
246	0xbe2f48ef	-0.17117666
247	0x3f018e33	0.50607604
248	0x3d3f0c80	0.04664278
249	0xbdd01812	-0.10160841
250	0x3c5a95cf	0.013341381
251	0x3c25b6db	0.010114397
252	0xbdae26b8	-0.08503479
253	0x3da2723f	0.07931947
254	0xbdc7f925	-0.097643174
255	0x3e80d813	0.25164852

gru.weight_hh_l1 f4 [300, 100]
0	0xbca83d89	-0.020537155
1	0xbe06b87c	-0.13156313
2	0x3dd40fe1	0.10354591
3	0x3df0beb6	0.11755125
4	0xbe5c76c3	-0.21529679
5	0xbe0d230f	-0.13782905
6	0xb9ced0a4	-0.0003944683
7	0x3d3a9d3a	0.0455601
8	0x3e1a62de	0.15076777
9	0x3d1667b2	0.036719985
10	0x3e0bb41f	0.1364293
11	0x3ae2fdca	0.0017318067
12	0x3dd64b36	0.10463564
13	0xbd73eda3	-0.0595528
14	0xbc09939b	-0.008397008
15	0xbe15a073	-0.14611988
16	0x3e23536a	0.15949789
17	0x3d87a300	0.06622887
18	0x3bc26a0c	0.005933052
19	0x3e1b822f	0.1518638
20	0xbc07771c	-0.008268144
21	0xbd7e8272	-0.06213612
22	0xbe35f8d0	-0.17770696
23	0xbdf6c615	-0.120495
24	0xbe421266	-0.18952331
25	0x3c88642e	0.016649332
26	0x3d2d304e	0.042282395
27	0xbdd7c404	-0.10535434
28	0xbe076fb0	-0.13226199
29	0x3d5e6d45	0.054303426
30	0x3e090d94	0.13384086
31	0xbd3bba83	-0.04583217
32	0x3bed9713	0.0072506755
33	0xbe2f345b	-0.17109816
34	0x3d6e16f7	0.05812737
35	0xbccd9c25	-0.02509887
36	0x3db967d7	0.09053009
37	0x3d03155c	0.03200279
38	0xbbb8faac	-0.005645117
39	0xbdb9f384	-0.0907965
40	0xbd529961	-0.051415805
41	0x3cf8e277	0.030381424
42	0x3d1eb6a5	0.038748402
43	0xbd9d998f	-0.076953046
44	0x3b9535a3	0.004553513
45	0xbc551e88	-0.0130077675
46	0xbaefc424	-0.0018292707
47	0x3e2b88c4	0.1675139
48	0xbdde52b8	-0.10855621
49	0x3d8097b1	0.06278933
50	0xbe03e238	-0.12879264
51	0xbe5efecd	-0.21776886
52	0x3d55fdc1	0.05224395
53	0x3d27939e	0.040912263
54	0xbd6279d5	-0.05529197
55	0x3dba6138	0.09100574
56	0xbe23beee	-0.15990803
57	0x3e8d56ad	0.2760519
58	0x3d9059df	0.070483916
59	0x3c928a9c	0.01788836
60	0x3d92c90a	0.071672514
61	0xbdbe7f94	-0.09301677
62	0xbd4317d3	-0.047630142
63	0xbd3e434b	-0.046450894
64	0x3d7f74e2	0.062367328
65	0xbdcf205f	-0.10113596
66	0x3dca5783	0.09879973
67	0xbdf6919c	-0.120394915
68	0x3c9987f4	0.018741585
69	0x3a8dcd72	0.0010818674
70	0xbc4e87fd	-0.012605664
71	0x3ce9e226	0.028550219
72	0x3d33f1df	0.043931838
73	0x3d659b41	0.056056265
74	0x3c97c8d0	0.018528372
75	0xbe49b441	-0.19697668
76	0xbd0027b2	-0.031287856
77	0x3d215040	0.039383173
78	0x3db0d285	0.086339034
79	0x3c9200c6	0.017822634
80	0xbcec03f5	-0.02881048
81	0xbd2c9e14	-0.042142943
82	0x3d88dccf	0.06682741
83	0xbdf48e6f	-0.119412296
84	0xbddd2fd8	-0.10800141
85	0x3e134044	0.14379984
86	0x3e1c56cf	0.1526749
87	0x3d8426ef	0.064527385
88	0xbdf5ad28	-0.119959176
89	0xbe15ba40	-0.1462183
90	0x3a873285	0.0010314739
91	0xbe4d0ae5	-0.20023687
92	0x3bec9543	0.007219942
93	0xbd25303c	-0.040329203
94	0x3d9894f1	0.07450283
95	0x3dc19727	0.09452658
96	0x3d9ce934	0.076616675
97	0xbbe10f8d	-0.006868309
98	0xbd6a7a61	-0.057245616
99	0xbe583039	-0.21112145
100	0xbd1d4ad7	-0.03840145
101	0x3d6e385e	0.058159225
102	0xbe1a57cb	-0.15072553
103	0xbdc91a28	-0.09819442
104	0x3bb880b0	0.005630575
105	0x3d382dfd	0.044965733
106	0xbd49975f	-0.049216624
107	0xbd4d53f3	-0.05012889
108	0x3e3927bf	0.18081568
109	0xbcba131f	-0.022714196
110	0xbd940feb	-0.072295986
111	0x3e0bc2d0	0.13648534
112	0x3e15ddc3	0.14635377
113	0xbcc4f299	-0.02404146
114	0x3d5d2a4f	0.053995427
115	0xbd16b0f9	-0.036789868
116	0x3dd4a55d	0.10383103
117	0x3cda0b56	0.026616734
118	0x3da249c9	0.0792423
119	0xbe8bc8d0	-0.27301645
120	0x3da8b112	0.082368985
121	0xbddd4694	-0.10804477
122	0xbde511f0	-0.11185062
123	0xbdefef69	-0.11715586
124	0xbdeaae5d	-0.114590384
125	0xbbdeae41	-0.006795675
126	0xbd7c7e21	-0.061643723
127	0xbcfb838d	-0.030702377
128	0xbd560c83	-0.052258026
129	0x3ddefaf1	0.10887707
130	0x3e418f90	0.18902421
131	0xbdbc2318	-0.09186381
132	0x3d9d7881	0.07689
133	0x3e0e06ed	0.1386983
134	0xbcc37448	-0.023859158
135	0xbdc80a97	-0.09767645
136	0xbd2cbd8e	-0.04217296
137	0xbe1e939c	-0.15485996
138	0x3d1bcbe1	0.03803623
139	0x3de0804c	0.10961971
140	0x3d52b54a	0.051442422
141	0xbb4f029b	-0.0031587246
142	0x3dea29eb	0.114337765
143	0x3dcb40f0	0.09924495
144	0xbe1044c2	-0.14088729
145	0xbcb8bbe2	-0.022550527
146	0x3e1c82d2	0.15284279
147	0xbdc41029	-0.09573395
148	0xbd223e1a	-0.039610006
149	0xbdf1f0de	-0.1181352
150	0xbdc62d01	-0.096765526
151	0xbdbfc299	-0.093632884
152	0xbe0e4919	-0.13895072
153	0xbd6e5cbe	-0.058193915
154	0x3d65fdb5	0.056150157
155	0xbe08439b	-0.1330704
156	0x3d19b2ff	0.03752422
157	0xbcaae816	-0.02086262
158	0x3dd86fb4	0.10568181
159	0xbe5cf869	-0.21579136
160	0x3c57a79f	0.013162523
161	0x3cd1ac1e	0.025594767
162	0xbdf4b24d	-0.11948071
163	0x39b1879b	0.00033861105
164	0x3c9d0c26	0.019170832
165	0x3e1fbd1f	0.15599488
166	0xbdcd61d3	-0.10028424
167	0xbd77de66	-0.06051483
168	0x3e9f45d0	0.3110795
169	0x3d480096	0.048828684
170	0x3de5cff1	0.11221302
171	0xbcf7b2bc	-0.030236594
172	0xbe131161	-0.14362098
173	0xbe3dceed	-0.18535967
174	0x3e6cd01f	0.23126267
175	0x3de85cba	0.11345811
176	0x3e31df4f	0.17370342
177	0x3dbdc785	0.09266571
178	0xbe3b1637	-0.18270193
179	0x3c37dc0d	0.011221898
180	0x3c8c672b	0.017139038
181	0x3d84489c	0.06459162
182	0xbb98cdb1	-0.004663192
183	0x3d0e911f	0.034806367
184	0x3dd29121	0.102815874
185	0x3c00c5c5	0.007859652
186	0x3e3bacad	0.1832759
187	0x3cd493e4	0.025949426
188	0x3d72c464	0.059269324
189	0x3d1efd02	0.038815506
190	0x3caacf37	0.02085076
191	0x3dd2467a	0.102673486
192	0x3dabff3d	0.08398292
193	0x3e42fbae	0.1904132
194	0xbda4be88	-0.080441535
195	0xbc498134	-0.012298871
196	0xbe0aa2d8	-0.13538682
197	0x3c7f35ec	0.015576821
198	0xbe2c7f02	-0.16845325
199	0x3da76b78	0.08174795
200	0xbe233008	-0.15936291
201	0xbcc28e0c	-0.023749374
202	0xbe20d255	-0.15705235
203	0x3c816a09	0.015797632
204	0xbe2928af	-0.16519426
205	0x3d958a20	0.07301736
206	0xbdcde49f	-0.10053372
207	0x3d386586	0.045018695
208	0xbd53ac40	-0.051677942
209	0x3e1c6264	0.15271908
210	0xbc92f5d1	-0.01793948
211	0x3d4d6ff0	0.05015558
212	0xbcef37ce	-0.029201414
213	0x3cafd095	0.021461764
214	0xbd3ff1b4	-0.046861365
215	0x3be9b1e5	0.0071318024
216	0xbdcefa48	-0.10106331
217	0xbceef7a8	-0.029170826
218	0xbd6bd790	-0.057578623
219	0x3da1ce1f	0.079006426
220	0x3d7838fc	0.06060122
221	0xbd3b1f5b	-0.0456842
222	0x3e6d534a	0.23176304
223	0x3d33ce39	0.04389784
224	0xbd87ad24	-0.06624821
225	0xbdeaf6b6	-0.114728376
226	0x3c97db2e	0.01853713
227	0x3c434a17	0.01191952
228	0xbe300c23	-0.1719213
229	0x3e36513a	0.17804423
230	0x3d3fe737	0.046851363
231	0x3d61b3de	0.055103175
232	0xbe316ef9	-0.17327489
233	0xbd0c6a0d	-0.034280825
234	0x3d4c7c70	0.04992336
235	0x3caa16bf	0.0207628
236	0xbd584226	-0.05279746
237	0xbd348287	-0.044069793
238	0xbdc344d5	-0.09534613
239	0x3d8769c2	0.066119686
240	0x3aac14d1	0.0013128762
241	0x3d88e732	0.06684722
242	0xbd4fb66f	-0.05071109
243	0x3dbbf870	0.09178245
244	0x3b93fd6a	0.0045162933
245	0x3d58d86c	0.05294077
246	0xbdeff006	-0.11715703
247	0xbdd65967	-0.10466271
248	0x3d7e2e9e	0.062056176
249	0xbdce3c3b	-0.10070082
250	0x3e1f3df7	0.15550981
251	0x3d742879	0.05960891
252	0xbcdfbafa	-0.027310837
253	0x3d95ec88	0.073205054
254	0xbc87d459	-0.016580747
255	0xbc71b8b2	-0.014753507
