models/stock_rus_net_100kEpochs.ckpt (torch, 621279 bytes, 11 tensors)

encoder.weight f4 [167, 100]
0.04413655 -0.84019583 1.3030399 0.46166953 -2.4439018 0.3891534 -0.48098868 0.6357887
-0.41283512 1.5558683 -0.1521055 0.073266454 0.65252227 -1.0916469 -0.020664882 -0.3221564
0.47125676 -2.779451 0.37808216 -0.6614057 -0.6593004 -0.9099009 -0.14725287 -1.8462938
-0.06647031 -0.60523653 0.67425627 0.1004878 0.66917443 -0.60760087 0.20428477 0.2352284
-2.548888 1.2558932 0.049148448 -0.12575288 -0.53965473 -1.2148855 -0.18753362 1.9699169
-1.4517131 1.2658986 -1.5155809 -0.3879821 0.14939591 0.55204135 0.7643325 0.22195932
0.8719523 1.447971 -0.8871807 -0.38485572 0.7010647 0.5067694 0.65855265 -0.78664714
-0.22524565 1.715376 -0.030634517 1.043245 1.537455 1.5101247 1.0853659 1.7875512
0.26783434 -0.40958515 0.9274919 0.26445842 -0.06642413 0.54254156 -0.19910038 -0.29274222
1.687448 -0.81216025 0.243612 0.16002087 -0.86155087 0.73299044 1.9996555 1.277826
-0.11322706 -1.7424188 -0.34156963 -1.8937521 0.62921274 0.84966224 1.2334137 -1.1960435
-0.4459278 -0.6199349 -0.91776645 -0.5717017 0.5328273 0.24948743 2.0420115 1.4226565
-0.16405345 -0.15013207 0.07558679 0.27240124 -0.93699884 -0.68753725 0.09772278 -1.6968122
-0.55416626 0.29768708 0.3486181 1.8486692 -0.63495046 0.32250085 -2.518827 -0.7895852
1.8380902 0.018004924 0.17104535 1.6693652 0.7334808 -0.41521767 0.76523733 -1.1475632
-0.34420103 1.733198 -1.2749352 0.0023826123 1.0254983 -0.32516995 1.972835 0.6466341
0.7516701 0.34946188 -0.34423292 -0.8162501 -0.5136863 0.67682344 0.59068555 -1.8612077
0.12470471 0.43590888 -0.22836417 2.4044302 -0.98405945 0.19165184 0.24423465 -2.3217118
-1.0930102 -0.32817355 0.81085694 0.16118465 0.48167276 -0.8602875 -0.71938044 -0.054739248
-0.670445 0.78258497 0.039502252 -0.6345414 -1.927978 0.3331302 0.61974967 -1.8732793
0.8538285 -0.7912169 -1.12629 0.85039663 -0.27784148 -0.7901856 -1.2607795 0.5494484
1.76545 -1.3744082 -0.803846 1.0780389 -0.55994505 -1.4642315 1.2716906 0.31259456
2.5853257 -0.24255022 0.900264 0.37730134 -0.9774296 2.5022416 0.83115774 0.6492064
0.18839277 -1.6322918 -2.5829449 0.5311814 0.6613977 -0.89946204 -0.9782047 -1.6781253
-0.23261668 -0.7121278 1.5252103 0.515645 -0.5486605 -0.8687075 -0.2606589 0.64581335
-0.7276067 0.9355149 0.24468794 -0.054319978 1.1892449 -0.6052157 -1.4714066 0.31128317
-0.5171503 -0.23093452 -0.8063838 -0.048365876 -0.890646 0.49722704 1.4603075 -0.31541026
-0.45195293 -0.5537499 0.33882576 0.3053822 0.11747401 -1.0938153 0.58254313 0.35208726
1.0901043 -1.0330832 -0.015252741 0.18096247 0.32542923 1.2711791 0.61862606 -0.34956163
-0.13941085 1.093709 -0.46437177 -0.88997614 -1.0513674 1.2665229 0.5193547 -1.8217108
0.00822918 -1.1118014 0.6999731 -0.8526204 -1.0089338 0.37363425 0.93800926 -0.8266993
0.7082452 -0.99108815 2.247516 -0.010914861 1.4957145 1.9148959 0.106591456 -0.27735004
00000000: 87c8 343d 1317 57bf 03ca a63f f35f ec3e
00000010: e368 1cc0 1d3f c73e 2644 f6be 0cc3 223f
00000020: 205f d3be b126 c73f 8bc1 1bbe b90c 963d
00000030: b30b 273f 16bb 8bbf 6649 a9bc aff1 a4be
00000040: 9148 f13e 86e2 31c0 fc93 c13e e251 29bf
00000050: e9c7 28bf 44ef 68bf 75c9 16be 5b53 ecbf
00000060: 9621 88bd c8f0 1abf 0f9c 2c3f 8ccc cd3d
00000070: 044f 2b3f bb8b 1bbf 0730 513e b7df 703e
00000080: fb20 23c0 1cc1 a03f e24f 493d 5dc5 00be
00000090: d026 0abf 5e81 9bbf d008 40be 3d26 fc3f
000000a0: bcd1 b9bf f708 a23f 8efe c1bf 97a5 c6be
000000b0: 3efb 183e 9552 0d3f 4bab 433f 4e49 633e
000000c0: 4438 5f3f 1d57 b93f 461e 63bf cf0b c5be
000000d0: fa78 333f a4bb 013f e896 283f b561 49bf
000000e0: cca6 66be 7191 db3f 3df5 fabc 0d89 853f
000000f0: 53cb c43f c44b c13f 45ed 8a3f 7ace e43f
00000100: 9521 893e 25b5 d1be 1c70 6d3f 1867 873e
00000110: 6009 88bd 01e4 0a3f f8e0 4bbe 4fe2 95be
00000120: 4cfe d73f bce9 4fbf 6d75 793e 83dc 233e
00000130: 998e 5cbf 43a5 3b3f b6f4 ff3f cd8f a33f
00000140: 97e3 e7bd 9407 dfbf 37e2 aebe 7866 f2bf
00000150: 1614 213f 7783 593f 80e0 9d3f f417 99bf
00000160: a650 e4be 0eb4 1ebf bef2 6abf 0b5b 12bf
00000170: 5f67 083f a279 7f3e 51b0 0240 9c19 b63f
00000180: a1fd 27be 39bc 19be 3fcd 9a3d 2d78 8b3e
00000190: 28df 6fbf 7102 30bf e222 c83d 2431 d9bf
000001a0: d7dd 0dbf 716a 983e 127e b23e 31a1 ec3f
000001b0: 1d8c 22bf d51e a53e 7634 21c0 4122 4abf
000001c0: 8a46 eb3f 107f 933c 8326 2f3e c2ad d53f
000001d0: 66c5 3b3f 6997 d4be 98e6 433f 5ae3 92bf
000001e0: 1e3b b0be 6fd9 dd3f 1431 a3bf 9a25 1c3b
000001f0: 8743 833f ad7c a6be db85 fc3f d089 253f
00000200: 746d 403f abec b23e 4c3f b0be c4f5 50bf
00000210: f280 03bf 4d44 2d3f 2b37 173f 0e3c eebf
00000220: 2f65 ff3d 732f df3e 4cd8 69be 2fe2 1940
00000230: 52eb 7bbf 6140 443e a618 7a3e ed96 14c0
00000240: c2e7 8bbf 5d06 a8be 5294 4f3f 970d 253e
00000250: d09d f63e cd3b 5cbf 5129 38bf 4336 60bd
00000260: 49a2 2bbf 7d57 483f 1dcd 213d 4e71 22bf
00000270: fcc7 f6bf 0b90 aa3e eaa7 1e3f 9ec7 efbf
00000280: 8194 5a3f 318d 4abf 452a 90bf 98b3 593f
00000290: 3d41 8ebe 9a49 4abf 3961 a1bf a6a8 0c3f
000002a0: 44fa e13f 9cec afbf dac8 4dbf 2efd 893f
000002b0: 8f58 0fbf f06b bbbf c2c6 a23f 650c a03e
000002c0: fa75 2540 165f 78be b477 663f a42d c13e
000002d0: d438 7abf ba24 2040 c1c6 543f 6432 263f
000002e0: 09ea 403e f0ee d0bf f84e 25c0 81fb 073f
000002f0: 5c51 293f 2543 66bf a06b 7abf cfcc d6bf
00000300: 1133 6ebe 024e 36bf 173a c33f 5001 043f
00000310: 0475 0cbf 9d63 5ebf 1575 85be 0654 253f
00000320: 6f44 3abf e87d 6f3f 7a8f 7a3e a07e 5ebd
00000330: 2d39 983f 6bef 1abf 0d57 bcbf 8260 9f3e
00000340: f663 04bf 197a 6cbe 2b6f 4ebf 4c1b 46bd
00000350: 6001 64bf 8b94 fe3e 5beb ba3f 747d a1be
00000360: 6066 e7be 8ec2 0dbf 927a ad3e 0e5b 9c3e
00000370: 3796 f03d 2402 8cbf 8c21 153f c844 b43e
00000380: 8a88 8b3f 123c 84bf a2e6 79bc 3a4e 393e
00000390: a99e a63e ffb5 a23f 475e 1e3f bef9 b2be
000003a0: b8c1 0ebe a8fe 8b3f 23c2 edbe 7ad5 63bf
000003b0: 3593 86bf 6c1d a23f 6ef4 043f d22d e9bf
000003c0: afd3 063c 824f 8ebf 7031 333f 5545 5abf
000003d0: be24 81bf fd4c bf3e 6021 703f 91a2 53bf
000003e0: 8f4f 353f f4b7 7dbf 4dd7 0f40 3fd4 32bc
000003f0: 9373 bf3f 4f1b f53f 9f4c da3d d300 8ebe

gru.weight_ih_l0 f4 [300, 100]
0.06316373 0.08627565 -0.025654817 0.032053053 0.12379788 -0.07172148 0.0044638542 -0.04236685
0.10941893 0.06792814 0.021712752 0.016992457 -0.117899686 0.15772028 -0.014251963 0.25834367
-0.07852967 -0.013290001 -0.07887069 0.15210527 -0.042839285 0.0018990408 -0.103939414 -0.048048224
-0.19898929 -0.101653725 0.0249788 0.2518288 -0.02151327 -0.19468369 0.00012741121 0.010395709
-0.103345394 -0.08117247 0.027070284 0.03223966 0.07181826 -0.07667136 -0.2058204 -0.034303784
0.12262084 -0.093068145 0.13311185 0.100935966 -0.047935415 0.12779365 0.09351963 0.0062323357
-0.09667615 0.093058474 -0.05021922 -0.059289753 -0.03165372 -0.020397224 0.1062106 -0.107568674
0.12827533 -0.20219238 -0.1732759 0.13802046 -0.12010571 0.07326602 -0.109076306 -0.108237185
0.09812536 -0.29235357 0.0598807 -0.06466217 -0.18533857 0.0002485937 0.019690184 -0.13566637
-0.20200254 0.13434404 -0.046336398 0.047471177 0.12208509 -0.07571796 0.09803387 0.083012745
0.15761878 -0.053008813 -0.03548882 0.14304268 -0.050050773 0.1936054 -0.09795665 0.0008112339
-0.009748031 -0.017929578 -0.13463429 -0.085730456 0.08156991 0.11564603 0.16064337 0.023533778
0.15875335 -0.09268227 0.059754677 -0.12882851 -0.17595391 -0.011339167 0.06669903 -0.008964075
0.14693488 0.11179311 0.0033983167 0.13109969 -0.16639961 -0.016836938 0.054079756 -0.10413195
0.027787391 0.06479751 -0.088015124 0.0698173 -0.08536153 0.0053074094 0.1728895 0.07735281
-0.024925763 -0.087276176 -0.073326565 -0.023905976 0.14637595 0.035965927 -0.10517209 0.03715144
0.027897954 0.21042514 -0.16328073 0.07480454 0.021889834 -0.025097925 0.10557222 0.13878205
-0.100514166 -0.00538954 0.21755946 0.12049167 0.03614255 0.0060471157 -0.0066368934 0.017540032
0.030190134 -0.094697356 -0.12420969 -0.04243594 -0.03683466 0.080266446 0.07328683 0.08259736
-0.051670905 0.10119483 -0.060948905 0.030603737 -0.031024618 -0.05581067 0.05926733 0.057514854
0.07550189 0.07758171 -0.047033317 -0.07426279 -0.066931844 0.16206576 0.019274544 -0.059834152
0.09298978 -0.1380446 0.052698534 0.19329216 -0.065673724 0.010586729 -0.10052351 -0.039484058
0.008721585 -0.022887157 -0.005123237 0.024402235 -0.0016616014 0.153022 0.0025994086 -0.10946619
0.16553551 0.037052993 0.077193916 -0.1347107 0.008161984 0.015010479 -0.035844613 0.08682901
0.056584116 -0.21495329 0.020961065 -0.0634204 0.04343147 0.12515372 0.07100446 0.02372511
0.13635018 0.13763128 0.19744258 -0.1097301 -0.12801515 0.049882997 0.20308657 0.099270195
-0.15158921 0.14577475 0.25823468 0.08916088 -0.16338423 0.1082629 -0.07672303 0.06945084
0.0498766 -0.033508584 -0.16023971 0.14052646 0.11680465 -0.07384127 -0.06260413 -0.09450888
0.04815858 0.005517419 0.022785474 -0.07462618 -0.03895473 0.06328116 -0.12272479 -0.042260706
0.046391472 -0.081117205 -0.00586575 0.07617914 0.025010994 -0.110663004 -0.09704894 -0.19402151
-0.012852048 -0.07293224 -0.05318073 -0.11728459 -0.06846298 0.083992556 -0.04167677 -0.068410784
0.11381716 0.09570599 -0.0053044497 -0.048638213 0.11580555 -0.109584585 -0.19789815 -0.059871707
00000000: fc5b 813d 4ab1 b03d 0d2a d2bc 104a 033d
00000010: be89 fd3d b6e2 92bd 8645 923b dd88 2dbd
00000020: 0817 e03d e91d 8b3d f1de b13c c433 8b3c
00000030: 6475 f1bd 6d81 213e 1181 69bc 9f45 843e
00000040: 2ad4 a0bd 4ebe 59bc f586 a1bd 7cc1 1b3e
00000050: 3f78 2fbd 3ce9 f83a 30de d4bd 37ce 44bd
00000060: d9c3 4bbe d42f d0bd 57a0 cc3c b4ef 803e
00000070: 993c b0bc 295b 47be b099 0539 c452 2a3c
00000080: c0a6 d3bd c03d a6bd 80c2 dd3c bc0d 043d
00000090: 7415 933d e005 9dbd 95c2 52be 2082 0cbd
000000a0: a320 fb3d 839a bebd 794e 083e 84b7 ce3d
000000b0: ed57 44bd 57dc 023e 3887 bf3d 9f38 cc3b
000000c0: 25fe c5bd 7195 be3d abb2 4dbd d0d9 72bd
000000d0: 55a7 01bd 1418 a7bc f184 d93d f74c dcbd
000000e0: 9c5a 033e 850b 4fbe 3d6f 31be 3c55 0d3e
000000f0: fcf9 f5bd 7f0c 963d 6663 dfbd 75ab ddbd
00000100: f3f5 c83d 5eaf 95be 7745 753d 9a6d 84bd
00000110: 65c9 3dbe ae55 8239 4f4d a13c 20ec 0abe
00000120: c1d9 4ebe 7c91 093e 3ccb 3dbd 2371 423d
00000130: bf07 fa3d 0512 9bbd fbc5 c83d 9602 aa3d
00000140: d166 213e c51f 59bd ba5c 11bd c879 123e
00000150: 0a02 4dbd 7e40 463e 7f9d c8bd fca8 543a
00000160: 35b6 1fbc 0de1 92bc 92dd 09be 7393 afbd
00000170: 200e a73d d3d7 ec3d b27f 243e e9c9 c03c
00000180: 3d90 223e 34d0 bdbd 52c1 743d 9feb 03be
00000190: 432d 34be eac7 39bc 8099 883d 0ede 12bc
000001a0: 1976 163e c9f3 e43d 4bb6 5e3b ff3e 063e
000001b0: a964 2abe 9eed 89bc bc82 5d3d 2243 d5bd
000001c0: 62a2 e33c 8fb4 843d 4641 b4bd 5ffc 8e3d
000001d0: 07d2 aebd c7e9 ad3b f209 313e 266b 9e3d
000001e0: 1d31 ccbc dabd b2bd 3d2c 96bd 77d6 c3bc
000001f0: 94e3 153e 0251 133d 7764 d7bd 1c2c 183d
00000200: 408a e43c b079 573e 1033 27be 1f33 993d
00000210: 4f52 b33c 2a9a cdbc 4036 d83d e21c 0e3e
00000220: 5fda cdbd bd9a b0bb e8c7 5e3e 56c4 f63d
00000230: 360a 143d e226 c63b 4c7a d9bb 1db0 8f3c
00000240: 4d51 f73c b0f0 c1bd a661 febd 4fd1 2dbd
00000250: f1df 16bd bc62 a43d 6817 963d ce28 a93d
00000260: dfa4 53bd 3c3f cf3d 8fa5 79bd b0b4 fa3c
00000270: 5727 febc bb99 64bd 4dc2 723d b294 6b3d
00000280: bca0 9a3d 29e3 9e3d 02a6 40bd 1717 98bd
00000290: 9013 89bd 91f4 253e a6e5 9d3c a814 75bd
000002a0: 6d71 be3d 905b 0dbe 6bda 573d 61ee 453e
000002b0: f27f 86bd f673 2d3c 45df cdbd 09ba 21bd
000002c0: fbe4 0e3c d97d bbbc d4e0 a7bb 32e7 c73c
000002d0: 17ca d9ba cdb1 1c3e d75a 2a3b cf2f e0bd
000002e0: 2482 293e e1c4 173d d817 9e3d 9af1 09be
000002f0: d8b9 053c 83ee 753c cdd1 12bd 68d3 b13d
00000300: bfc4 673d b71c 5cbe 8ab6 ab3c 8ee2 81bd
00000310: 32e5 313d 4c28 003e c96a 913d 295b c23c
00000320: 629f 0b3e 37ef 0c3e 632e 4a3e 2dba e0bd
00000330: 6716 03be 1d52 4c3d edf5 4f3e 2c4e cb3d
00000340: 343a 1bbe fa45 153e 5637 843e fb99 b63d
00000350: 324e 27be f0b8 dd3d f720 9dbd 3e3c 8e3d
00000360: 684b 4c3d 4c40 09bd e115 24be 2be6 0f3e
00000370: 4737 ef3d 173a 97bd 9836 80bd df8d c1bd
00000380: ee41 453d 77cb b43b 9aa8 ba3c 9cd5 98bd
00000390: ff8e 1fbd 8e99 813d 2257 fbbd 9019 2dbd
000003a0: fc04 3e3d c720 a6bd 7a35 c0bb cf03 9c3d
000003b0: dbe3 cc3c 49a3 e2bd 98c1 c6bd 93ad 46be
000003c0: 6591 52bc 805d 95bd 0ad4 59bd e732 f0bd
000003d0: 5236 8cbd 4a04 ac3d 43b5 2abd f41a 8cbd
000003e0: f918 e93d 8101 c43d f3d0 adbb dd38 47bd
000003f0: 762b ed3d e26d e0bd d0a5 4abe 093c 75bd

gru.weight_hh_l0 f4 [300, 100]
0.19763707 0.018501343 0.083125606 0.16052344 0.044694442 0.2019283 0.010226418 0.19649275
-0.1508165 0.034068026 -0.091228925 0.21696326 0.19970918 0.01949391 -0.02201878 -0.078765936
0.0013587251 -0.09518657 -0.09568599 0.014195277 -0.06043905 0.0748685 -0.07568015 0.0022733735
-0.18727677 -0.18369594 0.15038082 -0.12448984 -0.09554191 0.033960495 0.023148427 -0.080151945
0.059115686 -0.06743954 0.009272305 -0.025898574 0.04412753 -0.084808975 -0.027517065 -0.0071169636
-0.04294432 0.08800023 -0.12039888 0.11722223 0.046505176 -0.031264212 0.22110482 -0.10871835
-0.083723605 -0.04677163 -0.0240969 -0.013929448 0.15761311 0.060907334 -0.081878856 0.086322084
0.01725866 0.0030266333 -0.0014557941 -0.079469614 0.15714328 -0.06079055 -0.003676867 -0.15244947
-0.026518555 0.08757302 0.15474394 -0.061677255 -0.04936472 -0.11807195 -0.04578807 0.0678091
-0.012065121 0.10253497 -0.015967995 0.010255623 -0.06538058 -0.044174805 -0.17438006 -0.034074284
-0.006082619 0.022635734 0.079267494 0.07888635 -0.018066792 0.07417119 0.029347928 0.14301266
0.050554946 0.092589736 0.053793583 -0.12024899 0.034354623 0.033922736 0.09515048 0.0912194
0.014953883 0.0454784 0.16529079 -0.049359817 -0.034422264 0.0724513 -0.04926448 0.06294265
-0.13164467 -0.059112087 -0.03130757 -0.062445603 0.08575256 -0.02055045 -0.13175288 -0.1477206
0.061728418 0.06586149 -0.04168167 -0.07415006 -0.045814514 -0.04528966 0.12700164 -0.041154455
0.1039669 0.11274872 0.051866196 0.1089929 0.016621597 -0.03988327 0.13518003 0.013891226
-0.0626029 0.031485382 -0.012795997 0.0423926 -0.009614358 0.07974662 -0.065001495 0.09411251
-0.10082889 -0.047733013 -0.021344278 -0.065698825 0.08526264 0.06934107 0.048068702 0.19421649
0.0064872615 -0.20330434 0.07265816 0.1301427 0.096417524 0.104578815 0.1873351 0.15586326
-0.022536734 -0.053392928 -0.053439017 0.057606235 0.14061864 -0.052666575 -0.01091799 0.11245611
0.031820137 0.031097718 -0.08375154 -0.013707876 0.012447009 0.106669806 0.08677339 0.041059606
-0.14841007 0.19366522 0.0019535488 0.056775108 -0.11962748 0.07415966 -0.07285971 -0.07364632
0.022097785 0.100036934 0.15413299 0.09808879 -0.20615177 0.012433427 -0.019275635 -0.0884519
0.09545603 0.1373515 0.014006995 0.17170507 0.016115205 0.017134428 0.016147712 0.08886972
-0.03655519 0.062086627 0.09089928 0.04065416 0.03252347 -0.042867072 -0.009040131 -0.01579788
-0.09854519 0.26186752 -0.08307486 -0.12370984 -0.12920712 -0.0039491905 0.08639364 -0.047293875
-0.18517181 -0.07736691 0.046656236 0.08369337 -0.12668677 -0.110694475 -0.2166977 -0.027743619
0.03484942 -0.077315785 0.050973263 -0.23474428 -0.027142644 -0.093476795 -0.08412808 -0.06599597
0.094049715 -0.017397868 0.20918131 -0.1307121 -0.0328628 -0.14446314 0.22850029 -0.086994305
-0.07803353 0.0685381 0.2019435 -0.043472063 -0.030351933 -0.023023127 -0.04503399 0.0203015
0.13771018 -0.060060143 0.12683335 -0.077041045 -0.22267932 -0.17491816 -0.08176522 -0.020478917
-0.088662475 -0.014422743 -0.034214213 -0.16182812 -0.052225664 0.0790864 -0.06928382 0.03616301
00000000: 5f61 4a3e 2190 973c c23d aa3d 4260 243e
00000010: 8511 373d 4bc6 4e3e b58c 273c 6535 493e
00000020: a46f 1abe ea8a 0b3d 3bd6 babd 9e2b 5e3e
00000030: 9080 4c3e b1b1 9f3c ba60 b4bc 0950 a1bd
00000040: 4017 b23a 2df1 c2bd 04f7 c3bd 4f93 683c
00000050: f08e 77bd a854 993d 32fe 9abd e1fc 143b
00000060: 7bc5 3fbe ca1a 3cbe 6efd 193e 87f4 febd
00000070: 7aab c3bd 291a 0b3d c5a1 bd3c b426 a4bd
00000080: 4a23 723d be1d 8abd deea 173c 3f29 d4bc
00000090: 12bf 343d 54b0 adbd 786b e1bc 6b35 e9bb
000000a0: 62e6 2fbd 7739 b43d b093 f6bd 3512 f03d
000000b0: 367c 3e3d e70e 00bd 4d69 623e baa7 debd
000000c0: 4877 abbd 9c93 3fbd dd66 c5bc 5738 64bc
000000d0: 5565 213e f879 793d 1ab0 a7bd a2c9 b03d
000000e0: 0962 8d3c 7b5a 463b 58d0 beba f7c0 a2bd
000000f0: 2bea 203e 83ff 78bd 98f7 70bb b71b 1cbe
00000100: 713d d9bc 7c59 b33d 3275 1e3e 4aa1 7cbd
00000110: a932 4abd b5cf f1bd 458c 3bbd 7fdf 8a3d
00000120: c9ac 45bc dbfd d13d 50cf 82bc 3307 283c
00000130: 41e6 85bd a4f0 34bd b090 32be 7a91 0bbd
00000140: b550 c7bb 936e b93c ff56 a23d 2b8f a13d
00000150: cf00 94bc 11e7 973d 116b f03c e971 123e
00000160: b412 4f3d b09f bd3d a956 5c3d 1a45 f6bd
00000170: 6fb7 0c3d 91f2 0a3d 41de c23d 3dd1 ba3d
00000180: 2201 753c 8f47 3a3d fd41 293e 852d 4abd
00000190: 5cfe 0cbd 5961 943d 8dc9 49bd 13e8 803d
000001a0: dccd 06be 841f 72bd 5e3c 00bd f6c6 7fbd
000001b0: 0a9f af3d 6b59 a8bc 3aea 06be 1244 17be
000001c0: f0d6 7c3d 64e2 863d 66ba 2abd fddb 97bd
000001d0: 00a8 3bbd a781 39bd b80c 023e 9391 28bd
000001e0: 99ec d43d cde8 e63d a671 543d ab37 df3d
000001f0: 042a 883c a45c 23bd a26c 0a3e 0698 633c
00000200: f335 80bd d1f6 003d 4da6 51bc dda3 2d3d
00000210: 8a85 1dbc 3252 a33d 811f 85bd 0fbe c03d
00000220: 617f cebd b183 43bd 32da aebc 1b8d 86bd
00000230: 2e9e ae3d b102 8e3d b0e3 443d b0e0 463e
00000240: 1893 d43b 032f 50be cdcd 943d 2144 053e
00000250: 8d76 c53d 6b2d d63d c6d4 3f3e 9e9a 1f3e
00000260: f59e b8bc 8bb2 5abd dfe2 5abd 84f4 6b3d
00000270: 55fe 0f3e e8b8 57bd 5ee1 32bc 644f e63d
00000280: d555 023d a4c0 fe3c ed85 abbd 0097 60bc
00000290: 8aee 4b3c b375 da3d 3fb6 b13d 1e2e 283d
000002a0: cff8 17be 2d50 463e 1c07 003b 048d 683d
000002b0: 41ff f4bd 05e1 973d 7937 95bd e2d3 96bd
000002c0: 6a06 b53c 2ae0 cc3d 0ad5 1d3e c7e2 c83d
000002d0: 7319 53be 93b5 4b3c f0e7 9dbc 4526 b5bd
000002e0: 737e c33d dfa5 0c3e 987d 653c 74d3 2f3e
000002f0: 0904 843c 805d 8c3c 3548 843c 5401 b63d
00000300: e5ba 15bd 8c4e 7e3d 6729 ba3d fa84 263d
00000310: 5537 053d 6295 2fbd 0f1d 14bc 8e6a 81bc
00000320: 10d2 c9bd 8013 863e 2723 aabd 965b fdbd
00000330: df4e 04be 3668 81bb 26ef b03d 39b7 41bd
00000340: ae9d 3dbe 8b72 9ebd 9c1a 3f3d 6e67 ab3d
00000350: 2dba 01be c9b3 e2bd 00e6 5dbe 9646 e3bc
00000360: 44be 0e3d bd57 9ebd 57c9 503d ce60 70be
00000370: 405a debc c370 bfbd 584b acbd e528 87bd
00000380: 239d c03d f985 8ebc a033 563e 65d9 05be
00000390: 259b 06bd 25ee 13be fbfb 693e 122a b2bd
000003a0: 0bd0 9fbd b45d 8c3d 47ca 4e3e c30f 32bd
000003b0: 9ea4 f8bc ff9a bcbc 9075 38bd 554f a63c
000003c0: e603 0d3e a001 76bd 9ae0 013e b2c7 9dbd
000003d0: 0c06 64be bf1d 33be 8674 a7bd 67c3 a7bc
000003e0: ac94 b5bd 5e4d 6cbc 3424 0cbd 45b6 25be
000003f0: 94ea 55bd 0df8 a13d ade4 8dbd aa1f 143d

gru.bias_ih_l0 f4 [300]
1.2645133e-06 0.1648228 0.23263802 0.03510048 0.08225192 -0.050692495 0.024562798 -0.023603175
-0.042352457 0.03671063 0.06006843 -0.047488187 0.13674024 0.102430046 0.050719976 0.013435915
-0.00468219 0.07403084 -0.031206407 0.12062493 0.20802084 0.07978695 -0.04042382 0.049417976
0.02985335 0.14362822 0.12044583 0.07293419 0.10597544 0.1672168 0.031129396 -0.0065747993
0.081608936 -0.030378522 0.0029854372 -0.06406774 0.072542764 0.14780715 0.0754664 0.08624226
0.14363728 0.09316998 0.06439915 0.07842114 0.0590002 -0.016579105 0.039050408 0.22684766
0.050248943 0.08643445 0.11860902 0.05681334 0.032204315 0.056029424 0.011663766 0.049159758
0.049446788 0.13749789 0.03302268 0.108088635 0.042704847 -0.060393833 0.0962553 0.20721398
0.13359943 0.17107421 0.09425506 0.15518336 0.04756423 0.13381629 0.038761098 0.13433297
0.041139245 0.14918868 0.079045445 0.056030616 0.097892076 -0.0063872137 0.08425825 -0.029788667
0.027467385 0.19112101 0.09428562 -0.010513183 0.04097077 0.1752174 -0.014127117 -0.005938439
0.054302286 0.055378884 0.039940134 0.037631143 0.11260587 0.11977915 0.021770792 0.01794887
0.11115053 -0.027261632 0.11611746 0.08721675 -0.20997414 -0.23449923 -0.28331923 -0.23420551
-0.055409484 -0.24788734 -0.24358615 -0.04211763 -0.14735858 -0.29338443 -0.37297162 -0.27981898
-0.19280022 -0.2526456 -0.16770029 -0.21981002 -0.1504528 -0.29056865 -0.19681188 -0.2671293
-0.053100944 -0.21715768 -0.12945448 -0.17020258 -0.15510179 -0.16120167 -0.17967062 -0.1755356
-0.2966477 -0.3060871 -0.28067258 -0.24999319 -0.36115345 -0.16441599 -0.21508929 -0.22884053
-0.24628633 -0.3785122 -0.34715918 -0.34000582 -0.27032506 -0.3342571 -0.24231501 -0.09654988
-0.1499481 -0.29125866 -0.37518588 -0.3420412 -0.26845443 -0.28523773 -0.08167867 -0.122987576
-0.09756648 -0.19427216 -0.15725623 -0.18762226 -0.14813337 -0.22728941 -0.12426239 -0.2620456
-0.12817952 -0.22103602 -0.13311356 -0.34103096 -0.19310394 -0.16281427 -0.33806655 -0.26137632
-0.28824148 -0.32988164 -0.20635012 -0.22755617 -0.2849683 -0.31208703 -0.13113979 -0.1403769
-0.10975896 -0.33840027 -0.2676161 -0.11774816 -0.13759027 -0.2533945 -0.20506656 -0.3532504
-0.27571943 -0.26430222 -0.22713022 -0.17280975 -0.2048296 -0.08581861 -0.10337251 -0.15145907
-0.21834387 -0.28343332 -0.11667899 -0.29922482 -0.26355478 -0.16056317 -0.2406962 -0.21050012
0.074320056 -0.02729666 0.0079926215 0.035335004 0.10055395 0.16637152 -0.05351067 0.012966515
0.052334744 -0.15277256 0.07735758 0.1487703 0.2431095 -0.040196117 -0.038765438 -0.0011238648
0.056912106 0.056042302 0.06800276 0.050018024 0.1437622 -0.04720077 0.03483208 -0.0540609
-0.14261582 -0.18894915 0.04290965 -0.11845385 0.1091628 0.0927892 -0.0027479315 -0.14573479
0.19487925 -0.060337387 0.07612676 0.021514619 0.09139457 0.11549242 -0.20223865 0.14529431
0.16120125 0.180839 0.12220166 0.14929715 -0.12861237 -0.09300528 0.09484859 -0.1514263
-0.027175302 -0.06249461 0.035745606 -0.11844683 -0.061249822 -0.0733801 0.07674479 0.09800495
00000000: 59b8 a935 4fc7 283e a938 6e3e 85c5 0f3d
00000010: b273 a83d efa2 4fbd ec37 c93c 725b c1bc
00000020: c579 2dbd e35d 163d 500a 763d f982 42bd
00000030: a205 0c3e d8c6 d13d c0bf 4f3d 5022 5c3c
00000040: 0e6d 99bb 7b9d 973d 94a4 ffbc 340a f73d
00000050: 6a03 553e 5767 a33d 7393 25bd 816a 4a3d
00000060: 038f f43c 4713 133e 4eac f63d 855e 953d
00000070: a709 d93d e13a 2b3e 1303 ff3c 6a71 d7bb
00000080: 9622 a73d 61dc f8bc 53a7 433b f335 83bd
00000090: 4d91 943d c25a 173e 218e 9a3d c89f b03d
000000a0: a715 133e e7cf be3d b4e3 833d 439b a03d
000000b0: 32aa 713d e7d0 87bc 52f3 1f3d c14a 683e
000000c0: d6d1 4d3d 8b04 b13d 49e9 f23d 1bb5 683d
000000d0: ace8 033d 1c7f 653d 6119 3f3c be5b 493d
000000e0: b788 4a3d 3fcc 0c3e ca42 073d 935d dd3d
000000f0: 47eb 2e3d 865f 77bd 8021 c53d e72f 543e
00000100: 4ace 083e 142e 2f3e cc08 c13d 63e8 1e3e
00000110: b6d2 423d 2307 093e f5c3 1e3d 958e 093e
00000120: a081 283d ebc4 183e 94e2 a13d 5c80 653d
00000130: a47b c83d d54b d1bb 978f ac3d 5d07 f4bc
00000140: 4803 e13c 3ab5 433e d218 c13d 7c3f 2cbc
00000150: f7d0 273d 316c 333e 6c75 67bc 3d97 c2bb
00000160: 136c 5e3d f8d4 623d 4498 233d 1d23 1a3d
00000170: e89d e63d c54e f53d a958 b23c 8209 933c
00000180: e4a2 e33d c953 dfbc fece ed3d b29e b23d
00000190: 7603 57be 9120 70be 380f 91be 92d3 6fbe
000001a0: 0ef5 62bd 2ed6 7dbe a66e 79be 8983 2cbd
000001b0: 2be5 16be 7c36 96be 23f6 bebe 6f44 8fbe
000001c0: 6c6d 45be c45a 81be a0b9 2bbe e115 61be
000001d0: 4c10 1abe 6ac5 94be 0e89 49be 2cc5 88be
000001e0: 6080 59bd 955e 5ebe b78f 04be 9649 2ebe
000001f0: 01d3 1ebe 0d12 25be 93fb 37be 9bbf 33be
00000200: 35e2 97be 73b7 9cbe 51b4 8fbe 37fe 7fbe
00000210: 1be9 b8be aa5c 28be 5e40 5cbe 2c55 6abe
00000220: 7c32 7cbe 5acc c1be d9be b1be 3e15 aebe
00000230: 0c68 8abe bf23 abbe 6d21 78be f2bb c5bd
00000240: ff8b 19be db1f 95be 5d18 c0be 0620 afbe
00000250: dc72 89be ae0a 92be 2647 a7bd e9e0 fbbd
00000260: efd0 c7bd 48ef 46be c707 21be 0d20 40be
00000270: 46b0 17be 8ebe 68be 487d febd d72a 86be
00000280: 7e41 03be 4457 62be ec4e 08be 9c9b aebe
00000290: 0abd 45be c9b8 26be 0f17 adbe 1ed3 85be
000002a0: 6394 93be 3fe6 a8be 724d 53be 7c04 69be
000002b0: 5de7 91be dfc9 9fbe 8249 06be f6be 0fbe
000002c0: 4ec9 e0bd cd42 adbe fa04 89be f325 f1bd
000002d0: 77e4 0cbe edbc 81be f8fc 51be 3ddd b4be
000002e0: 192b 8dbe 9f52 87be d394 68be 0af5 30be
000002f0: dabe 51be abc1 afbd f7b4 d3bd 1618 1bbe
00000300: 8995 5fbe 2c1e 91be 65f5 eebd ff33 99be
00000310: a7f0 86be ac6a 24be 1179 76be 588d 57be
00000320: 1d35 983d 3f9d dfbc 7cf3 023c 70bb 103d
00000330: 3bef cd3d 4c5d 2a3e 012e 5bbd 8171 543c
00000340: f55c 563d 6970 1cbe a76d 9e3d 3e57 183e
00000350: b2f1 783e afa4 24bd 82c8 1ebd a54e 93ba
00000360: ab1c 693d 9d8c 653d 0845 8b3d b3df 4c3d
00000370: 6636 133e 9855 41bd 15ac 0e3d f66e 5dbd
00000380: e209 12be e37b 41be 07c2 2f3d ef97 f2bd
00000390: bf90 df3d 4408 be3d a416 34bb 803b 15be
000003a0: 6d8e 473e 5624 77bd 59e8 9b3d 6d3f b03c
000003b0: 142d bb3d 4a87 ec3d a617 4fbe 08c8 143e
000003c0: f111 253e dc2d 393e dd44 fa3d 5ae1 183e
000003d0: f6b2 03be 8d79 bebd fa3f c23d 7f0f 1bbe
000003e0: bd9e debc 59fa 7fbd fc69 123d 4094 f2bd
000003f0: 18e1 7abd 4e48 96bd 5f2c 9d3d d2b6 c83d

gru.bias_hh_l0 f4 [300]
0.10239319 0.1744202 0.13823007 -0.039219897 0.079281494 0.06561356 0.06256968 -0.017311182
0.096613325 0.043015093 0.0822576 0.022317715 0.12205682 0.16094498 0.020618118 0.16998874
0.06884074 0.039424382 0.026394857 0.04321209 0.037634183 0.15952279 0.10643279 0.15052556
0.064183764 0.12412272 0.001362595 0.19150734 0.13187888 0.058776338 -0.023051083 0.06364667
0.13217638 0.11090121 0.046968974 -0.064173006 0.041039873 0.054286174 -0.06652463 0.09200876
0.10431028 0.07087767 -0.011714166 -0.0021854984 0.0012692 0.058464527 0.03791165 0.17646107
0.043424174 0.010531072 0.024624648 0.11479793 0.092988744 -0.025743058 -0.0117749665 -0.05325239
0.09721296 0.068413824 0.09365624 0.0546262 0.04586721 0.005791751 -0.010446881 0.10371235
0.04785157 0.07371448 0.13652529 0.056731146 0.13342701 0.004868815 -0.013666251 0.015077543
0.10644772 0.071254954 -0.047980517 0.1626424 -0.023169449 0.0017556667 -0.023974176 0.0909119
0.10938871 0.030005883 0.046473548 0.10909096 0.063986674 0.030131035 0.029686768 0.015858011
-0.022266215 0.13029441 0.05515861 0.086497515 -0.0024670735 -0.04790237 0.0049337586 0.17269936
0.13405704 0.012613967 0.018410984 0.008664398 -0.2053482 -0.18581656 -0.25344187 -0.31706887
-0.16228177 -0.2403765 -0.2381618 -0.10681472 -0.14937337 -0.30815098 -0.23404497 -0.3396712
-0.2958365 -0.30149987 -0.092434056 -0.25747737 -0.18741381 -0.17143741 -0.13220468 -0.3393217
-0.23001346 -0.2313632 -0.12580714 -0.16549587 -0.15167747 -0.22154242 -0.17701083 -0.33756715
-0.3506996 -0.15685743 -0.10898219 -0.08724827 -0.3727106 -0.2069071 -0.18207161 -0.21849437
-0.2336967 -0.32507503 -0.39972833 -0.25977582 -0.34146547 -0.22254018 -0.10991587 -0.19887824
-0.21069533 -0.11722312 -0.38540614 -0.40415868 -0.16054514 -0.2185482 -0.08042063 -0.14898081
-0.18436103 -0.22626396 -0.12611142 -0.195713 -0.17123866 -0.24030548 -0.30433777 -0.15687095
-0.10732071 -0.11889153 -0.07478117 -0.3795079 -0.2725797 -0.1476316 -0.33290225 -0.1950515
-0.19177872 -0.27420688 -0.23359545 -0.13689284 -0.29685655 -0.30095202 -0.24533421 -0.101772726
-0.20082836 -0.2328574 -0.21382764 -0.16278483 -0.2420312 -0.3732165 -0.2905945 -0.27059516
-0.20672362 -0.34913802 -0.21201353 -0.16674505 -0.17345358 -0.22716379 -0.1488971 -0.27292052
-0.23470387 -0.18257652 -0.23786262 -0.2315237 -0.12948073 -0.21308184 -0.20461783 -0.100530975
0.015106921 -0.20871508 0.26910877 0.06117809 -0.093968466 0.08891871 0.11165432 -0.06498569
0.026967535 -0.21407112 0.15940686 0.09159004 0.24557817 -0.11380603 -0.19994959 0.0732878
0.05248135 -0.10230229 -0.0028926919 -0.010382386 0.21552771 0.24503936 0.004126226 -0.012147133
-0.12346249 -0.048806332 0.009435105 0.02956793 -0.006886485 -0.01862366 -0.08414119 0.0015235659
0.26586822 -0.074568555 0.07472898 0.097634405 0.05775729 0.08091779 -0.027229583 0.18517123
0.12985612 0.08727909 0.035078302 0.025824688 -0.079616494 -0.012162672 0.25959343 -0.1649309
-0.06736732 0.067375876 0.14703888 -0.044632237 -0.030649543 0.028761705 -0.06517406 0.13444395
00000000: 85b3 d13d 359b 323e 2f8c 0d3e 0ba5 20bd
00000010: 565e a23d 6760 863d 8824 803d 2ed0 8dbc
00000020: 35dd c53d 9830 303d ac76 a83d a4d3 b63c
00000030: edf8 f93d c3ce 243e 54e7 a83c 8711 2e3e
00000040: 60fc 8c3d 767b 213d 073a d83c 29ff 303d
00000050: 4d26 1a3d f159 233e 6ff9 d93d 5f23 1a3e
00000060: c772 833d 0d34 fe3d 1a99 b23a 801a 443e
00000070: 420b 073e 75bf 703d a0d5 bcbc 2f59 823d
00000080: 3f59 073e 2c20 e33d 8a62 403d 236d 83bd
00000090: 6d19 283d 2e5b 5e3d 113e 88bd 176f bc3d
000000a0: a1a0 d53d 5028 913d c6ec 3fbc 943a 0fbb
000000b0: 495b a63a 8078 6f3d 3f49 1b3d 36b2 343e
000000c0: 8cdd 313d 848a 2c3c a1b9 c93c 2d1b eb3d
000000d0: e270 be3d 1be3 d2bc caeb 40bc 2e1f 5abd
000000e0: 9717 c73d 8c1c 8c3d d8ce bf3d b9bf 5f3d
000000f0: 41df 3b3d bbc8 bd3b 6529 2bbc 2467 d43d
00000100: 0200 443d 9ef7 963d 49cd 0b3e eb5e 683d
00000110: 17a1 083e 958a 9f3b 69e8 5fbc cd07 773c
00000120: 4301 da3d 1eee 913d 3887 44bd bb8b 263e
00000130: dbcd bdbc 661e e63a 7e65 c4bc 0530 ba3d
00000140: 3007 e03d e6ce f53c 0c5b 3e3d 156b df3d
00000150: 720b 833d 5cd5 f63c aa31 f33c a9e8 813c
00000160: a367 b6bc e66b 053e ffed 613d 9c25 b13d
00000170: a0ae 21bb 4735 44bd 5eab a13b 1ad8 303e
00000180: 4046 093e d0aa 4e3c a2d2 963c 1ff5 0d3c
00000190: cc46 52be b246 3ebe 22c3 81be da56 a2be
000001a0: 312d 26be 4225 76be b0e0 73be adc1 dabd
000001b0: 55f5 18be f7c5 9dbe 7ca9 6fbe 62e9 adbe
000001c0: e277 97be 315e 9abe 114e bdbd 13d4 83be
000001d0: 68e9 3fbe 4a8d 2fbe aa60 07be 93bb adbe
000001e0: a688 6bbe 7aea 6cbe 96d3 00be c077 29be
000001f0: 5751 1bbe 04dc 62be 5442 35be 9ad5 acbe
00000200: e68e b3be 3c9f 20be 0e32 dfbd 39af b2bd
00000210: ecd3 bebe 74df 53be fb70 3abe fdbc 5fbe
00000220: 304e 6fbe 3c70 a6be 31a9 ccbe 5601 85be
00000230: 90d4 aebe 93e1 63be 921b e1bd bda6 4bbe
00000240: 84c0 57be ad12 f0bd f453 c5be e3ed cebe
00000250: f265 24be 19cb 5fbe 92b3 a4bd 6d8e 18be
00000260: 23c9 3cbe bdb1 67be 5a23 01be fd68 48be
00000270: 3059 2fbe a412 76be 29d2 9bbe c7a2 20be
00000280: f6ca dbbd 677d f3bd df26 99bd dc4e c2be
00000290: 918f 8bbe bd2c 17be 2a72 aabe 95bb 47be
000002a0: a461 44be d864 8cbe a533 6fbe a32d 0cbe
000002b0: 95fd 97be 6216 9abe e438 7bbe 386e d0bd
000002c0: f3a5 4dbe 2c72 6ebe a2f5 5abe 11b1 26be
000002d0: 07d7 77be 3c16 bfbe cdc8 94be 738b 8abe
000002e0: 5baf 53be 38c2 b2be 131a 59be 37bf 2abe
000002f0: d19d 31be a09d 68be 7b78 18be 3dbc 8bbe
00000300: 3656 70be 57f5 3abe 4292 73be 8c14 6dbe
00000310: 9996 04be 2032 5abe 5687 51be 2fe3 cdbd
00000320: 0583 773c 68b9 55be a0c8 893e e095 7a3d
00000330: 8a72 c0bd 031b b63d 05ab e43d 3817 85bd
00000340: 05eb dc3c 7635 5bbe 8d3b 233e 8f93 bb3d
00000350: d878 7b3e 2313 e9bd 96bf 4cbe ea17 963d
00000360: aff6 563d dd83 d1bd 5193 3dbb e21a 2abc
00000370: 4cb3 5c3e 99eb 7a3e 4b35 873b c504 47bc
00000380: e7d9 fcbd 26e9 47bd b395 1a3c 7238 f23c
00000390: 06a8 e1bb a590 98bc 3752 acbd 63b2 c73a
000003a0: e11f 883e 66b7 98bd 820b 993d 8cf4 c73d
000003b0: e892 6c3d 3ab8 a53d 9310 dfbc 879d 3d3e
000003c0: 01f9 043e 61bf b23d 44ae 0f3d 4c8e d33c
000003d0: f90d a3bd f245 47bc 6ee9 843e a5e3 28be
000003e0: e1f7 89bd 5dfc 893d 5c91 163e 4bd0 36bd
000003f0: c014 fbbc ab9d eb3c fa79 85bd adab 093e

gru.weight_ih_l1 f4 [300, 100]
-0.14726573 0.07386256 0.1272316 0.119725086 0.07209796 0.17502877 0.010968425 -0.03385576
0.1303471 -0.040042687 0.01868856 0.04959624 -0.009847076 -0.07249288 -0.023412615 -0.08134407
0.07583918 -0.09248464 -0.064666264 -0.033839468 0.08438964 -0.071987964 0.012034039 0.021356747
0.048155524 0.04910544 -0.039934482 0.058321085 -0.032526296 -0.15316978 -0.19870143 -0.12223907
0.06749377 0.011242814 0.045868974 0.025471712 -0.016283244 0.035475105 -0.007837895 0.009426662
-0.064057566 0.03302167 -0.081055015 -0.017922927 -0.13453364 -0.032415107 0.018834675 -0.030772002
0.036354937 0.057174187 0.09151013 -0.0956087 0.12063083 -0.058155753 0.055541545 0.172103
0.14160468 0.089660764 -0.1942039 0.07746952 0.07631044 0.0063004964 0.12189032 -0.00038812228
-0.10457288 -0.05798886 0.07485723 -0.017571034 0.027753301 -0.09953406 -0.03943854 0.096446365
-0.0569039 0.04598133 0.006707381 -0.030840589 0.05280469 0.17518196 -0.026305426 -0.03920758
-0.10830608 -0.03146363 0.06923916 0.18204965 -0.0013808847 0.04383876 0.10146522 0.06403543
0.0059783645 0.17957012 -0.22323494 0.07164011 -0.024182364 0.0026965176 0.11686021 0.07218007
-0.1321954 0.105653785 0.029927474 -0.053392652 0.12524302 -0.1297484 0.023948804 0.06489975
-0.07203893 0.13758133 -0.12993507 -0.038209606 0.12160922 0.091979325 0.1807608 -0.12129118
0.049529787 -0.11288845 -0.015857296 -0.047284808 -0.17693748 -0.13519725 -0.05076429 -0.05590907
0.1608133 0.014827162 -0.017415822 -0.09220035 0.08490395 -0.021451976 0.0001804898 -0.16658655
0.09022479 0.104103304 0.13352105 -0.21929328 0.075128846 -0.12166141 0.0100732595 -0.079612546
0.2253903 0.062952004 -0.13663165 0.108648606 0.0055808574 0.117157064 -0.0015159928 0.054110747
0.122494094 0.07822412 -0.004915198 -0.04138164 -0.11188436 -0.094868936 -0.10606734 -0.022316743
0.07249777 0.09780107 -0.048188373 -0.029246585 0.05943055 0.14822817 0.22606766 -0.028966129
-0.058242235 0.13508792 0.01856119 0.06421657 0.003269503 0.1471181 0.0053910343 -0.04163143
-0.11720109 0.11336169 0.08450271 0.1011575 -0.17673476 0.03402055 -0.18456192 -0.033758316
0.089113 0.13843845 0.17539585 0.008838626 -0.002942471 -0.009568676 -0.050873835 -0.017106868
0.051719893 -0.046942487 0.072032705 -0.08462469 0.21862046 -0.11644784 -0.0295203 0.080690965
0.16084844 -0.058662865 -0.09525277 0.0012755415 -0.1205109 -0.0064805313 0.019958789 -0.005317759
0.04966151 0.047110535 0.106958024 0.03766423 0.14084627 -0.03759385 -0.08728593 -0.16273928
0.048493948 0.0146880895 -0.010864843 0.09415489 0.041709017 -0.1233898 0.045997616 0.06379902
0.07315814 -0.2688153 0.113052815 -0.13341364 -0.032820873 -0.0957556 0.12874821 -0.106643625
-0.11893333 0.19137566 0.0074812006 0.049358048 0.0990121 -0.13735293 0.004232375 -0.014155425
0.06269053 -0.15581548 -0.12014424 -0.030006692 -0.0930683 0.044896733 -0.05966538 0.040968042
-0.045229502 0.106772795 -0.002581758 -0.101852134 0.07176959 -0.16623227 0.03910611 0.040270425
-0.0052308855 -0.010743763 -0.05777056 0.20415466 -0.15016627 -0.1270543 -0.1292201 -0.086477354
00000000: d4cc 16be 4145 973d 0049 023e 6d32 f53d
00000010: 18a8 933d be3a 333e e9b4 333c 56ac 0abd
00000020: b679 053e cd03 24bd c018 993c 6d25 4b3d
00000030: a155 21bc 2677 94bd d0cb bfbc b897 a6bd
00000040: 9251 9b3d 9668 bdbd bf6f 84bd 419b 0abd
00000050: 7ad4 ac3d 6d6e 93bd 6b2a 453c 58f4 ae3c
00000060: ba3e 453d c922 493d 5792 23bd 17e2 6e3d
00000070: 4b3a 05bd 8ad8 1cbe 6378 4bbe 7a58 fabd
00000080: 2c3a 8a3d c833 383c 1be1 3b3d 0daa d03c
00000090: 7064 85bc 584e 113d 846a 00bc 4972 1a3c
000000a0: 9d30 83bd bb41 073d 2c00 a6bd 1ad3 92bc
000000b0: 30c3 09be b4c5 04bd 2d4b 9a3c 9115 fcbc
000000c0: eae8 143d 7b2f 6a3d aa69 bb3d 7ece c3bd
000000d0: 4c0d f73d ba34 6ebd 887f 633d c53b 303e
000000e0: d100 113e 10a0 b73d 63dd 46be 57a8 9e3d
000000f0: a648 9c3d 6574 ce3b a2a1 f93d e47c cbb9
00000100: 4e2a d6bd ba85 6dbd bf4e 993d 21f1 8fbc
00000110: e45a e33c 83d8 cbbd 4e8a 21bd ac85 c53d
00000120: 1014 69bd eb56 3c3d 97c9 db3b 67a5 fcbc
00000130: bb49 583d e662 333e 7a7e d7bc 2198 20bd
00000140: 94cf ddbd 02e0 00bd 43cd 8d3d 396b 3a3e
00000150: cdfe b4ba 4690 333d ffcc cf3d 0225 833d
00000160: 28e6 c33b 3be1 373e b397 64be 0db8 923d
00000170: 181a c6bc 0fb8 303b 6854 ef3d 25d3 933d
00000180: 3b5e 07be 0361 d83d 762a f53c 41b2 5abd
00000190: b53f 003e c4dc 04be 4830 c43c 29ea 843d
000001a0: 2689 93bd 1fe2 0c3e b30d 05be ad81 1cbd
000001b0: 410e f93d a85f bc3d 5c19 393e 8367 f8bd
000001c0: bfdf 4a3d 0f32 e7bd 29e7 81bc b7ad 41bd
000001d0: 192f 35be 2671 0abe 37ee 4fbd e900 65bd
000001e0: 3eac 243e a0ed 723c a0ab 8ebc 89d3 bcbd
000001f0: 1fe2 ad3d 0ebc afbc dd41 3d39 aa95 2abe
00000200: c6c7 b83d 1d34 d53d beb9 083e 6b8e 60be
00000210: 27dd 993d 9e29 f9bd 500a 253c e70b a3bd
00000220: b7cc 663e fbec 803d 2be9 0bbe 2983 de3d
00000230: a0df b63b 0bf0 ef3d 47b4 c6ba 3ba3 5d3d
00000240: 2fde fa3d f833 a03d ab0f a1bb cb7f 29bd
00000250: a123 e5bd a54a c2bd d539 d9bd 9ad1 b6bc
00000260: b679 943d ed4b c83d 2c61 45bd 8996 efbc
00000270: 736d 733d 20c9 173e 487e 673e 604a edbc
00000280: 698f 6ebd 7d54 0a3e a30d 983c fa83 833d
00000290: 2845 563b 21a6 163e 46a7 b03b b885 2abd
000002a0: 2007 f0bd 2c2a e83d c20f ad3d aa2b cf3d
000002b0: f5f9 34be 2259 0b3d cdfd 3cbe 2946 0abd
000002c0: e080 b63d cfc2 0d3e f89a 333e e2cf 103c
000002d0: 79d6 40bb f0c5 1cbc 1561 50bd b423 8cbc
000002e0: 3dd8 533d c446 40bd e285 933d b64f adbd
000002f0: 0bde 5f3e 357c eebd 8ed4 f1bc 4e41 a53d
00000300: 74b5 243e 7948 70bd e213 c3bd 1230 a73a
00000310: 6bce f6bd a35a d4bb 9d80 a33c 9840 aebb
00000320: de69 4b3d faf6 403d cf0c db3d cf45 1a3d
00000330: 013a 103e 02fc 19bd f7c2 b2bd 20a5 26be
00000340: 97a1 463d 50a6 703c 7402 32bc 47d4 c03d
00000350: 13d7 2a3d cbb3 fcbd ff67 3c3d 10a9 823d
00000360: efd3 953d 29a2 89be 3c88 e73d 969d 08be
00000370: 2e6f 06bd 831b c4bd 92d6 033e f967 dabd
00000380: 5193 f3bd fbf7 433e dc24 f53b aa2b 4a3d
00000390: dbc6 ca3d 3fa6 0cbe bcaf 8a3b 28ec 67bc
000003a0: e563 803d 188e 1fbe 2f0e f6bd 98d0 f5bc
000003b0: 989a bebd a3e5 373d af63 74bd 1bce 273d
000003c0: 9242 39bd b2ab da3d b632 29bb da97 d0bd
000003d0: effb 923d cb38 2abe ba2d 203d 9af2 243d
000003e0: d967 abbb 9c06 30bc d3a0 6cbd eb0d 513e
000003f0: 30c5 19be 861a 02be 4652 04be 0a1b b1bd

gru.weight_hh_l1 f4 [300, 100]
0.050369635 0.024902146 0.039801497 -0.06025109 0.1392093 -0.021778744 -0.010702319 0.048223913
-0.035281584 -0.06379775 -0.09308883 0.04987361 0.042817406 -0.018534265 -0.15932705 -0.03724888
0.076584354 0.0015133544 -0.021485107 -0.05516676 0.010022797 0.09537176 -0.10627432 0.12543422
-0.038160283 0.08602311 -0.032143123 -0.100350946 -0.12538922 0.018716365 0.098890826 -0.041925263
-0.08415285 -0.0667172 -0.081501275 0.034508344 0.11317187 -0.046717897 -7.837445e-05 -0.103677675
-0.031535216 0.02472461 -0.09998332 0.016467903 -0.04870754 -0.061387297 -0.082341395 0.041384466
-0.027475066 -0.03940752 0.045883767 -0.1487496 -0.05989826 -0.06098915 0.088374615 0.036181197
-0.10539655 -0.02009664 -0.075001314 -0.0081842495 0.057356905 -0.016757345 -0.007253868 -0.012761625
0.08029986 -0.06285103 0.03649011 -0.004224522 0.067551374 0.056964204 -0.1036956 0.017389623
-0.12331966 -0.03236033 -0.0551526 0.039152663 0.034975216 -0.047730792 0.092631355 -0.07905711
0.024735423 0.12499419 -0.05211253 0.049420003 -0.07327655 -0.17223512 -0.05078545 0.18563007
0.085229196 0.07193816 -0.008337165 -0.17488432 -0.13076505 -0.07093774 0.09777659 -0.052108124
-0.047830623 0.13244829 0.01790268 0.022265524 -0.03786566 0.064794436 0.039405946 0.13753715
-0.021564253 -0.16357107 -0.075766586 0.1344178 -0.046570394 0.11359204 0.08331961 -0.06261389
0.047315657 -0.14182533 0.08210399 0.12121664 0.09643735 0.10361536 -0.05364713 -0.036479466
0.24403647 -0.0020650255 0.15410411 -0.047336705 0.02561085 0.043550815 -0.10346117 0.17441837
-0.022864059 0.09229285 -0.15274473 0.033026867 -0.020314295 0.032587044 0.056128137 -0.03804549
0.14621553 -0.16892911 0.00090717827 -0.22366014 -0.042717986 -0.031299133 0.035148624 -0.090299144
0.0311496 -0.07523304 -0.007894143 -0.10842306 0.048496187 -0.060961783 -0.058578886 -0.087703474
-0.09402025 -0.00916359 0.15510857 -0.004294694 0.03107686 0.06942573 0.011285914 0.051676314
-0.09570255 0.08379564 0.044326134 0.034872018 0.09740173 -0.0590601 -0.027067306 0.0034631407
-0.08470162 -0.027006933 -0.032678936 0.20586693 0.14047946 -0.006676181 -0.088317096 -0.007839712
-0.12539636 0.19997889 0.12190173 -0.00049329107 -0.041781303 0.13632865 0.03578761 0.02704682
-0.055688284 0.25627527 0.060526468 0.10982378 0.113291614 0.17002724 0.027021546 0.036093097
0.14998423 -0.04476714 0.1352287 -0.14803945 0.018564643 0.11697341 -0.03217091 -0.043572977
0.11163329 -0.018896759 0.07608609 -0.038434934 -0.08966706 -0.18153915 -0.12523466 0.0390744
0.080218285 0.060778547 -0.17097947 -0.008748844 -0.016711444 -0.02916901 -0.077413775 0.20857844
-0.041443307 -0.018143365 -0.0006389872 -0.012852271 0.06749337 -0.14686142 -0.13085091 -0.056547046
0.061174028 0.08062918 0.042432982 -0.269278 -0.12319845 -0.16467719 -0.019902324 -0.029090991
0.03952486 0.031595975 -0.043064725 -0.0054461695 -0.009832268 -0.14772639 0.08599983 -0.028887032
-0.029982232 -0.0040566814 -0.09226043 -0.06426303 -0.07596574 -0.0024161586 0.0046412903 -0.024050895
-0.021430956 -0.020787572 0.082510814 -0.026332244 0.07388611 -0.06980711 0.034302592 0.073240176
00000000: 6450 4e3d 96ff cb3c e506 233d d9c9 76bd
00000010: e28c 0e3e 5669 b2bc c858 2fbc 7086 453d
00000020: 6c83 10bd 65a8 82bd 5ba5 bebd 4548 4c3d
00000030: 4e61 2f3d 2cd5 97bc a126 23be 4892 18bd
00000040: 42d8 9c3d bf5b c63a 8901 b0bc 8af6 61bd
00000050: a836 243c 4552 c33d 5aa6 d9bd d471 003e
00000060: f54d 1cbd e22c b03d 82a8 03bd cc84 cdbd
00000070: 0866 00be 1053 993c 4687 ca3d d3b9 2bbd
00000080: 5458 acbd 07a3 88bd 24ea a6bd 9f58 0d3d
00000090: a7c6 e73d 445b 3fbd f65c a4b8 f654 d4bd
000000a0: 122b 01bd 448b ca3c 0ec4 ccbd b2e7 863c
000000b0: 8f81 47bd 3f71 7bbd 9ba2 a8bd c282 293d
000000c0: 6413 e1bc c869 21bd 9ef0 3b3d d151 18be
000000d0: e157 75bd c2cf 79bd c0fd b43d bc32 143d
000000e0: 25da d7bd b5a1 a4bc 4a9a 99bd 3b17 06bc
000000f0: 13ef 6a3d b346 89bc dbb1 edbb 2316 51bc
00000100: 4174 a43d 0ab8 80bd a776 153d dc6d 8abb
00000110: 6058 8a3d 4c53 693d 5c5e d4bd af74 8e3c
00000120: 058f fcbd 448c 04bd b1e7 61bd 8b5e 203d
00000130: 2c42 0f3d 5d81 43bd 82b5 bd3d b2e8 a1bd
00000140: f1a1 ca3c f4fc ff3d f373 55bd a16c 4a3d
00000150: 0412 96bd 675e 30be 6704 50bd cf15 3e3e
00000160: a58c ae3d 5054 933d 9b98 08bc e014 33be
00000170: 46e7 05be ce47 91bd 183f c83d 546f 55bd
00000180: 0bea 43bd 86a0 073e a4a8 923c 3066 b63c
00000190: 0619 1bbd f2b2 843d 2168 213d 8ad6 0c3e
000001a0: 84a7 b0bc 2d7f 27be 832b 9bbd d2a4 093e
000001b0: 99c0 3ebd f2a2 e83d 79a3 aa3d b63b 80bd
000001c0: 10ce 413d a93a 11be 2326 a83d 6e40 f83d
000001d0: f280 c53d 4a34 d43d 18bd 5bbd 7e6b 15bd
000001e0: b2e4 793e 6155 07bb 78cd 1d3e 22e4 41bd
000001f0: d8cd d13c 5762 323d 73e3 d3bd bb9a 323e
00000200: 684d bbbc 0904 bd3d 1d69 1cbe 2e47 073d
00000210: 2a6a a6bc fe79 053d 9ee6 653d 96d5 1bbd
00000220: 86b9 153e c1fb 2cbe b4cf 6d3a 2a07 65be
00000230: 0ef9 2ebd 8533 00bd 01f8 0f3d c2ee b8bd
00000240: 722d ff3c c813 9abd 7056 01bc e90c debd
00000250: f0a3 463d 10b3 79bd 6af0 6fbd e19d b3bd
00000260: b08d c0bd e222 16bc c8d4 1e3e 81ba 8cbb
00000270: e694 fe3c 142f 8e3d 8ee8 383c 8baa 533d
00000280: b3ff c3bd 0c9d ab3d 528f 353d f6d5 0e3d
00000290: 8f7a c73d 01e9 71bd 41bc ddbc dcf5 623b
000002a0: 0b78 adbd a53d ddbc 59da 05bd c8ce 523e
000002b0: d9d9 0f3e dec3 dabb 98df b4bd 2372 00bc
000002c0: e767 00be 44c7 4c3e 9da7 f93d 3450 01ba
000002d0: df22 2bbd bd99 0b3e 0796 123d 4b91 dd3c
000002e0: 6619 64bd 8336 833e 9aea 773d 4aeb e03d
000002f0: 6f05 e83d 9f1b 2e3e 4a5c dd3c 5bd6 133d
00000300: 7795 193e c05d 37bd 6479 0a3e a797 17be
00000310: e114 983c c18f ef3d a5c5 03bd 9479 32bd
00000320: ff9f e43d 60cd 9abc 06d3 9b3d f36d 1dbd
00000330: 5da3 b7bd 66e5 39be 843d 00be 7a0c 203d
00000340: 7c49 a43d edf2 783d 3e15 2fbe 5057 0fbc
00000350: 70e6 88bc d9f3 eebc 1d8b 9ebd 9695 553e
00000360: 75c0 29bd 65a1 94bc b581 27ba 5592 52bc
00000370: f739 8a3d d762 16be c8fd 05be e09d 67bd
00000380: 9e91 7a3d e920 a53d 35ce 2d3d cede 89be
00000390: 784f fcbd 23a1 28be 330a a3bc 3b50 eebc
000003a0: d2e4 213d c86a 013d a364 30bd c875 b2bb
000003b0: 8517 21bc 9645 17be ae20 b03d 7fa4 ecbc
000003c0: 4c9d f5bc e9ed 84bb 09f3 bcbd 569c 83bd
000003d0: ed93 9bbd 6a58 1ebb f715 983b 6206 c5bc
000003e0: f98f afbc b34a aabc 6efb a83d b8b6 d7bc
000003f0: 9a51 973d 08f7 8ebd e080 0c3d f2fe 953d

gru.bias_ih_l1 f4 [300]
0.12005159 0.024065625 -0.046847194 -0.035048336 -0.082402565 0.044577185 0.08953301 -0.043589752
0.07153475 0.016669186 -0.10569848 -0.026761603 0.047799114 0.082373425 0.042269044 0.105249405
0.031718116 0.015980804 0.039963428 -0.018710949 -0.058381226 0.051763795 -0.042334728 0.0036156226
0.1827281 0.037104957 -0.02167196 -0.010090353 0.03862556 0.031119017 -0.0040692086 0.2528868
0.08444653 0.015996134 0.013300833 0.05154235 0.051099572 0.06123311 -0.10727879 0.050305463
-0.10546244 0.2369359 0.034410156 0.02478566 -0.073691756 -0.04889273 0.02767995 0.15053399
0.09072242 0.043927107 -0.08936578 0.26710826 -0.025080176 0.045643236 0.044579867 -0.072834924
0.11185625 0.08246483 -0.089031816 0.19844112 0.08523632 0.19491114 0.042335417 0.00043048558
0.10352775 0.09333918 0.061502736 0.15912922 0.027338807 0.13542137 -0.06952296 -0.07660468
0.055370867 0.13147633 0.13611275 0.12892407 0.04213197 -0.035521675 0.065912 0.05647955
-0.04074301 -0.0124872215 -0.021792196 -0.001982364 0.02647734 0.10055922 0.08517223 0.06357406
0.04582116 0.060825627 0.009165123 0.090668984 0.07221074 0.10138483 -0.03621097 -0.07067889
-0.05596174 0.068208694 0.05088283 -0.006290317 -0.29034778 -0.22845474 -0.13175346 -0.39743793
-0.25567043 -0.21117066 -0.27499813 -0.29129896 -0.37709045 -0.2623377 -0.22454713 -0.28628066
-0.23207015 -0.35580537 -0.361692 -0.17449242 -0.060337517 -0.17995067 -0.32621086 -0.24999282
-0.24935372 -0.166897 -0.017958501 -0.19347532 -0.20169808 -0.23892877 -0.21930996 -0.32716748
-0.38077888 -0.20183954 -0.11026368 -0.3208329 -0.15286985 -0.24419354 -0.26518896 -0.37157443
-0.05401377 -0.15835659 -0.12492199 -0.074454986 -0.21516666 -0.30202836 -0.24850202 -0.22169678
-0.22282422 -0.26919338 -0.40649056 -0.24350184 -0.13898277 -0.28703418 -0.20755143 -0.41686714
-0.19676888 -0.254026 0.030070966 -0.30388933 -0.32025772 -0.22604278 -0.22554271 -0.18025605
-0.245792 -0.3218307 -0.23067047 -0.18693832 -0.28697032 -0.14012447 -0.18798286 -0.12695727
-0.24320978 -0.29445338 -0.1491312 -0.121755965 -0.19554864 -0.30660006 -0.12343749 -0.2595174
-0.22697468 -0.25210956 -0.19088909 -0.23698145 -0.10070097 -0.09318584 -0.18317243 -0.11819328
-0.4195137 -0.17724064 -0.3784691 -0.23923813 -0.27293408 -0.26065713 -0.05053297 -0.10071922
-0.12706633 -0.24508876 -0.28774908 -0.18227236 -0.370167 -0.16498075 -0.4074245 -0.23766981
0.12689833 0.17231643 0.023447046 -0.09429935 0.1413638 0.0072999164 -0.09777177 0.20070729
-0.09930508 -0.02667181 -0.04876554 -0.12114706 0.11648038 0.044128507 0.04657782 -0.07278758
-0.0068391 0.09370422 0.14992498 0.016241504 0.10898954 0.020989386 -0.093393564 0.0306075
0.07992008 -0.071354195 -0.041018303 -0.074039556 -0.23079473 0.015075654 -0.09929478 -0.27648732
-0.03417963 0.27890268 0.068722434 0.017721059 0.057537433 -0.09274373 0.03539824 -0.18857238
0.042418964 0.01680238 -0.0612001 0.08592742 0.11005315 -0.1295737 0.0027780042 -0.06194059
0.03092747 0.00038217643 -0.04670352 0.09251396 -0.02612229 0.12823747 0.10696573 -0.086132444
00000000: 9cdd f53d 4625 c53c d8e2 3fbd d88e 0fbd
00000010: adc2 a8bd 9196 363d 155d b73d 2b8b 32bd
00000020: d080 923d d18d 883c 7278 d8bd 263b dbbc
00000030: 01c9 433d 66b3 a83d 4e22 2d3d 008d d73d
00000040: dbea 013d 2dea 823c b1b0 233d b447 99bc
00000050: 2721 6fbd 4606 543d 2e67 2dbd 15f4 6c3b
00000060: 131d 3b3e 5efb 173d 6589 b1bc 0252 25bc
00000070: d635 1e3d 4fed fe3c ff56 85bb 617a 813e
00000080: 4df2 ac3d 530a 833c bdeb 593c 121e 533d
00000090: c94d 513d 92cf 7a3d fbb4 dbbd 1a0d 4e3d
000000a0: b1fc d7bd 539f 723e aaf1 0c3d 4c0b cb3c
000000b0: b4eb 96bd be43 48bd 10c1 e23c 9525 1a3e
000000c0: adcc b93d e9ec 333d 6805 b7bd 6ac2 883e
000000d0: f174 cdbc 67f4 3a3d 6199 363d 7a2a 95bd
000000e0: e414 e53d 52e3 a83d 5056 b6bd 2634 4b3e
000000f0: 6190 ae3d c996 473e e767 2d3d ccb2 e139
00000100: 5b06 d43d 9d28 bf3d 4bea 7b3d c5f2 223e
00000110: a2f5 df3c e6ab 0a3e 0e62 8ebd eae2 9cbd
00000120: 90cc 623d bba1 063e 2461 0b3e ac04 043e
00000130: 9392 2c3d 2d7f 11bd dffc 863d 1a57 673d
00000140: 24e2 26bd 3497 4cbc 8c85 b2bc 8dea 01bb
00000150: 02e7 d83c fef1 cd3d c76e ae3d 1e33 823d
00000160: f8ae 3b3d 4b24 793d 5029 163c a9b0 b93d
00000170: 39e3 933d daa2 cf3d f451 14bd 18c0 90bd
00000180: 2338 65bd 00b1 8b3d 846a 503d 011f cebb
00000190: 77a8 94be 0af0 69be 61ea 06be fc7c cbbe
000001a0: 3ce7 82be 1f3d 58be 8ecc 8cbe 2325 95be
000001b0: 0012 c1be 2151 86be afef 65be 6193 92be
000001c0: cca3 6dbe 1f2c b6be b22f b9be 24ae 32be
000001d0: 7924 77bd fd44 38be 1c05 a7be 1efe 7fbe
000001e0: 9556 7fbe 0ce7 2abe b51d 93bc 651e 46be
000001f0: f189 4ebe bea9 74be ca92 60be 7f82 a7be
00000200: 73f5 c2be 06af 4ebe edd1 e1bd 3644 a4be
00000210: ea89 1cbe df0d 7abe d9c6 87be 013f bebe
00000220: 8b3d 5dbd 3b28 22be 1ad7 ffbd db7b 98bd
00000230: a654 5cbe 76a3 9abe 5077 7ebe 7b04 63be
00000240: 082c 64be b7d3 89be 881f d0be 8c58 79be
00000250: 8051 0ebe 25f6 92be 5d88 54be 9c6f d5be
00000260: c87d 49be b20f 82be 6357 f63c 6297 9bbe
00000270: d2f8 a3be c277 67be abf4 66be 0b95 38be
00000280: e6b0 7bbe fec6 a4be e134 6cbe c26c 3fbe
00000290: c6ed 92be ca7c 0fbe 947e 40be 1601 02be
000002a0: fc0b 79be 98c2 96be d9b5 18be 315b f9bd
000002b0: e73d 48be affa 9cbe cbcc fcbd 77df 84be
000002c0: 0d6c 68be 8114 81be 6e78 43be 44ab 72be
000002d0: 4f3c cebd 38d8 bebd 8e91 3bbe 520f f2bd
000002e0: 80ca d6be 927e 35be b4c6 c1be d7fa 74be
000002f0: 04be 8bbe da74 85be a9fb 4ebd e145 cebd
00000300: ad1d 02be 8cf8 7abe d953 93be 9ba5 3abe
00000310: 8786 bdbe b7f0 28be f299 d0be b75f 73be
00000320: a3f1 013e b873 303e 0514 c03c 0520 c1bd
00000330: acc1 103e 2334 ef3b 913c c8bd 3686 4d3e
00000340: 7660 cbbd d77e dabc 60be 47bd f31b f8bd
00000350: 448d ee3d 18c0 343d 62c8 3e3d a811 95bd
00000360: 871a e0bb 00e8 bf3d ef85 193e e70c 853c
00000370: e835 df3d eff1 ab3c 2045 bfbd 94bc fa3c
00000380: 24ad a33d 2622 92bd cf02 28bd 0da2 97bd
00000390: 7455 6cbe e0ff 763c 105b cbbd bf8f 8dbe
000003a0: f1ff 0bbd 55cc 8e3e 59be 8c3d c12b 913c
000003b0: 5fac 6b3d 6df0 bdbd bffd 103d 1e19 41be
000003c0: 82bf 2d3d 25a5 893c f5ac 7abd b7fa af3d
000003d0: 8c63 e13d f8ae 04be 2d0f 363b 6bb5 7dbd
000003e0: 9b5b fd3c da5e c839 314c 3fbd f677 bd3d
000003f0: 6afe d5bc af50 033e d910 db3d 3566 b0bd
