models/stock_model_work.ckpt (torch, 565087 bytes, 11 tensors)

encoder.weight f4 [97, 100]
00000000: 8070 663f 8514 c53e e80c 233c 6d71 20bf
00000010: a76b 3ebd 0c4c 2bbf 363d 583f 6374 ecbd
00000020: 2b1b a6bf ee9a 1abd 06b7 d7be 051e 9d3e
00000030: a7f5 2640 2b0b 583f c678 84bf 7e2d 1f3f
00000040: 6b50 6fbc b04b 5e3f 5ddd a9bf 0d9a 033f
00000050: 2adf e1bf 97ed 6c3f b994 0ac0 612d 14c0
00000060: 56c9 8bbe df6b 4d3f ebe1 303f 13ad 953f
00000070: 3952 f23d 1431 7ebd ed43 1e3f 365a 80bf
00000080: 5392 86be 0068 943f 4c02 133f 8b7c 0dbf
00000090: 7e22 f43e fdcc e13d 3c40 8bbf d91a febf
000000a0: 9e5c 2fbf 0dce a5be e309 3fbf 2ea4 2a3e
000000b0: 5042 e7bf 6b69 f4be 9208 863f 4a0c 38bf
000000c0: b40b 5bbf 9d20 143f 9b99 bebf b58d 82bf
000000d0: fdf3 edbe f755 863f 8e34 0440 8354 c63f
000000e0: eade 823f dad6 c03f 11b6 bcbe b5cf 4f3e
000000f0: bc81 213f 8672 d5bf f5e6 123e 6ab2 9e3f
00000100: 47b4 18bf a43b 99bf f1f4 89bf 7e4d a53f
00000110: 122f f73e f695 edbf 9952 a63f 9455 683f
00000120: 8300 0dc0 fd00 e13e 7684 733f 5674 863e
00000130: ff9a 60bf 36fd 043f af14 4c3f 5091 8c3f
00000140: e434 983f bef9 d1be 9907 22bf ffb9 2abf
00000150: 1e88 94bf 5895 773e cd1d 3bbe fc02 78be
00000160: 6cea 91bf 3359 e8be 2b80 423f f00a 4b3f
00000170: 647a 2abf f2be 2cbf b9af a43f 78ba b03e
00000180: f3af bc3e c00e 6ebf 6bcc 963f 4914 3f3e
00000190: b9e7 873e 74aa 11c0 cd9c 89bf a3dd 263e
000001a0: 7b7d a8be 82d4 9dbf ae6e 21be 088d 7dbe
000001b0: b026 66bf 6e45 f63e ba70 5abf 733e 003f
000001c0: 4a18 a7bd 5cad 063f fb67 2d3d f45b a3be
000001d0: 6ef9 efbb ac00 6c3e a7d8 b83f 157f ca3f
000001e0: a40d 633f f36c e03e 9fa7 2c3d 48fd 1e40
000001f0: 48fc 6e3e 2aeb a0bf 789c 2cbf 80a4 223f
00000200: ff6e 5ebf 42e0 ee3e beb6 873f 7ede debf
00000210: b067 083f 345e 0ac0 7c67 b13f 2e73 c6bf
00000220: c4fe 2240 76b2 60bf 1c88 f43f 2e12 7f3f
00000230: d592 0f3f 0d75 16bf 3f24 333f 64d1 6d3f
00000240: f516 babe 1c34 a3bf be54 e7bd 26f6 07c0
00000250: c48e 06bf b2eb f4be 849b 96bf d89e a6be
00000260: 7d3c 59bf 3f09 64bf fe6f 05bf 7218 213e
00000270: 09ea 8d3f dad9 91bf ecfb 383f 0e22 f03e
00000280: fc3f 553e a31d fdbf d48f ed3e 82a3 43be
00000290: 51ff 5dbd be23 973f 9885 e2be 49c8 02c0
000002a0: 1ca6 12bf d94f 21c0 8b5a 173f e2ac 02bf
000002b0: 117a da3f 532b 583f 27a5 a23f ed90 f93e
000002c0: e510 773f 037f 1a40 4e3e aebf 8ee1 8d3e
000002d0: a933 98be d9a0 933f 3ef0 fdbf 6108 9c3d
000002e0: 571b ccbd 8b76 fa3d 35d1 f1bd 58bf 92be
000002f0: b377 c33e 1d48 c1be 50d0 ca3e e656 4e3c
00000300: bd4c 48bd 6048 a4bf e4c8 d93f 69bd 393f
00000310: c6ea 2fbf c858 22bf 2afa 8abe 0686 8a3f
00000320: 4593 083f 7fa5 a9bf 5ca5 b1bf 78b4 32c0
00000330: e245 e8be ca45 f83f 9cfb a13f e63b ddbe
00000340: f5e4 aebe 2165 aa3c 92c4 3abe 7694 bb3f
00000350: 4094 d5bc 12f1 bd3f 27f4 913f 85b1 ac3f
00000360: b320 3dbf 8451 3f3f 8ef7 f43f 0ac9 b03f
00000370: 3d2d 4cbf 83fc 1cbe fb62 a53f b1f0 513f
00000380: e5b5 1a3f 52d0 743f 4e4a 9bbf 4775 c33f
00000390: 4526 b8bf 0de4 f6be a484 f4be 51ed 3ebf
000003a0: aa8a b83e 7725 bdbf 0934 2f3f a95b 013f
000003b0: c740 cf3c ae1d a1bf f6b1 7b3f 7203 583f
000003c0: 8794 7b3e 53a0 7e3f e149 bfbf 0ef2 a7ba
000003d0: 5ac2 873f 1009 42bf 170d 80bf c5c1 ec3e
000003e0: ac10 bc3d 6d4d 8abd 72a1 c93e 570f bc3b
000003f0: 3222 203f 5a19 913f 1e47 f33d 6d70 ce3e
0.9001541 0.38492218 0.009951808 -0.62673074 -0.046489384 -0.66912913 0.844684 -0.115456365
-1.2977041 -0.03774541 -0.42131823 0.30686966 2.6087434 0.8439204 -1.0349357 0.6217879
-0.0146065755 0.8683424 -1.327068 0.5140694 -1.7646229 0.92550033 -2.1653273 -2.3152697
-0.27302045 0.80242723 0.69094723 1.1693443 0.11832089 -0.062058523 0.61822397 -1.002753
-0.26283512 1.1594238 0.5742538 -0.5526816 0.47682565 0.110254265 -1.0878978 -1.9851943
-0.685007 -0.32383767 -0.7462446 0.16664192 -1.8067112 -0.47736678 1.0471365 -0.7189375
-0.8556473 0.57862264 -1.4890627 -1.0199496 -0.4647521 1.0494984 2.0657077 1.5494541
1.0224278 1.5065567 -0.36857656 0.20294078 0.63088584 -1.6675575 0.14345916 1.2398198
-0.5965008 -1.1971326 -1.0777875 1.2914274 0.482781 -1.856139 1.2993957 0.9075558
-2.2031562 0.43946066 0.95123994 0.26260632 -0.87736505 0.5194887 0.7971906 1.0981846
1.1891141 -0.4101085 -0.63292843 -0.6669006 -1.160404 0.24178064 -0.18273087 -0.24219888
-1.1399665 -0.45380554 0.7597682 0.79313564 -0.66593003 -0.6747886 1.2866126 0.34517264
0.3685299 -0.92991257 1.1781133 0.18660082 0.26543978 -2.2760286 -1.0750977 0.16295485
-0.32908234 -1.2330477 -0.15764877 -0.2476083 -0.8990278 0.48099846 -0.8532826 0.5009529
-0.0815893 0.52608275 0.04233549 -0.31906092 -0.0073234355 0.23047131 1.4441117 1.5820032
0.8869269 0.43833122 0.042152043 2.484209 0.23338425 -1.2571766 -0.6742625 0.6353226
-0.86888117 0.4665547 1.0602643 -1.7411649 0.53283215 -2.1619997 1.3859706 -1.55039
2.5467997 -0.8777231 1.9104037 0.99637115 0.5608342 -0.58772355 0.6997718 0.9289763
-0.3634564 -1.2750278 -0.1129546 -2.1243987 -0.52561593 -0.4783607 -1.176621 -0.32543063
-0.8485792 -0.8907661 -0.5212401 0.15731981 1.1087047 -1.1394608 0.722594 0.46900982
0.2082519 -1.977467 0.46398795 -0.19105342 -0.054198567 1.1807783 -0.4424255 -2.0434744
-0.5728471 -2.5204985 0.5912253 -0.5104505 1.7068502 0.8444111 1.270665 0.48743382
0.96510154 2.4140022 -1.3612764 0.27711147 -0.29726914 1.1533462 -1.9838941 0.07618786
-0.09966152 0.122296415 -0.11807481 -0.2866161 0.3817726 -0.3775033 0.39612055 0.01259396
-0.04890131 -1.2834587 1.7014432 0.7255464 -0.6871761 -0.6341672 -0.27143985 1.0822151
0.53349715 -1.325363 -1.3878589 -2.792265 -0.45365816 1.9396298 1.265491 -0.4320976
-0.34159055 0.020800175 -0.18239048 1.4654682 -0.026071668 1.4839194 1.1402634 1.3491675
-0.7387802 0.7473376 1.9138048 1.3811352 -0.7975653 -0.153307 1.2920831 0.8200789
0.604338 0.9563037 -1.2132051 1.5270165 -1.4386679 -0.48220864 -0.47757447 -0.74580866
0.36043292 -1.4777058 0.68438774 0.5053049 0.025299443 -1.2587183 0.9831842 0.8438026
0.24568377 0.99463385 -1.4944421 -0.0012813227 1.0606186 -0.7579508 -1.0003995 0.46241584
0.091828674 -0.06753049 0.39380985 0.0057391333 0.6255218 1.1335862 0.11878799 0.4032015

gru.weight_ih_l0 f4 [300, 100]
00000000: 5965 763e 1b33 ac3d 5c4a 7b3d 6286 22bd
00000010: 673f 773e 4694 20bd c21c cbbc 33ef ddbd
00000020: dbbe 3e3c c138 97bd eaa2 47bd d7bd 9bbd
00000030: adae f23d 4a25 ddbd 9011 5bbd aac6 41bd
00000040: 6206 11be 6e76 6b3e 1e03 a4bd a485 813d
00000050: ba63 c1bd 6c89 223c ec07 e6bd f5e6 c1bc
00000060: f8c2 583d 2b83 983c 7c8d 1bbd 0c90 33be
00000070: e87a 91bd 642d d6bd 9c43 a93d 053e b9bc
00000080: 4a84 043d 2d29 b33d 4d1f 0dbe 3217 853d
00000090: 53d3 373e 9344 19bd 4fe3 cf3c 3567 1a3d
000000a0: c5e5 69bd 3521 07be b06e 4fbe 291f 433d
000000b0: 8c3f 41bd 8294 21bd dfeb 9dbd a097 003e
000000c0: 0135 c13d 8817 573e 1372 dc3b b846 c23d
000000d0: a4b8 023e affe b43d 759a 1fbd 7eb9 3b3d
000000e0: 79e3 abbb 8110 b93a 2258 083e 98c6 41bd
000000f0: fa37 203e 9868 dfbd e3c0 7ebd a9a1 a8bc
00000100: 7e36 8b3d cbeb 7c3d 93ac 733c 745a 86bb
00000110: 37d2 dfbc 274d dbbd 784f f93c 47e4 893c
00000120: 81e1 2fbe 2190 0abc 84c3 173d 06dc 4cbd
00000130: 0346 383d 2a65 713c cd63 1abe b492 423e
00000140: 7669 8bbd 6ede d73c 3daa bcbd 83fd 13be
00000150: 0b07 02bc 754e 433e 6316 c53d 02f9 debd
00000160: 6adf 08be 2321 c23b c16e 8f3d 3ce3 2abe
00000170: 9d26 043e a058 9cbd 1faa 0e3e 6fe4 bd3d
00000180: d8db 5abe 5ac8 2c3e b556 f6bb 5daf a1bc
00000190: 6d38 81bd 0a55 003e 5794 9f3d c09b 133d
000001a0: 79f6 e0bd 2de9 893c 0b3e 01be 73db d23d
000001b0: 35c2 02be 3931 8abd 8b47 9a3d c4c8 a6be
000001c0: 2de8 c6bc 58f7 0ebe 5a39 89bd b8e6 843c
000001d0: 8189 7f3e 170e cd3d 9d17 41bd 5c06 68bc
000001e0: b7a6 ecbb f36b 703e 7aa4 f7bd ae73 73bc
000001f0: 46dd babd 8e26 a1bb 7cdd cd3c 95bd 25bd
00000200: 4d59 02bd 22fb b1bd 8ddf 023d 7a5a 86ba
00000210: acd4 dd3d 5898 96bd f4e6 c33b 7b8e fa3d
00000220: 8419 ad3d b219 8e3c 96ed aa3d 1215 99bb
00000230: 4da8 be3c 207e a0bd 5d7b 483e 34f5 303d
00000240: 4314 b33d a38a 853d 95a0 01be bc39 45bd
00000250: 580e d7bd 25bf 56bd 921a 0ebe 9400 b9be
00000260: f92a 8c3d fb3f 3fbc 254f 053c 059b ccbc
00000270: 5b87 74be 8a4c 95bd 068c c0bd 82d1 73bd
00000280: 7f2a 04be b863 cc3c 84df 043d 9faa 02be
00000290: 93c5 b43d 495e 1dbe 6e4c 94bd fc0c 553d
000002a0: a38c 66be 4f25 6ebd 18bb 333e 58a1 1b3e
000002b0: 4b55 3f3e 4a44 593d 5c49 f6bd bb8a 013e
000002c0: f6ca 32be 3aa1 9e3d e758 b83c 5319 b3bc
000002d0: ae6e 833c f079 2fbc 058d 07bd da81 4bbd
000002e0: 150c c8bd bf77 67bc 28f1 cfbd d68a c63a
000002f0: d79c cb3d f198 00be 92ff 36bb b941 99bd
00000300: ca35 18bd 875e 1bbd 900a 1dbd 9acb 70bd
00000310: 1a97 80bc 6dc2 8fbe 116a d83d 8f3e d53d
00000320: 820e 32bb 2480 f7bd 0cd7 4abc 4971 a4bd
00000330: 8361 bc3d 084e 7dbd ca05 87bd 763a e4bd
00000340: db6a 993d 539f a3bd 49a3 eabd fa55 81be
00000350: 1fea a9bd f2d4 de3a 645f 6f3c 48d8 8fbd
00000360: b41c 10be ea64 4e3d b68d bd3d 19e1 093e
00000370: cc2b 723d c25b b1bd ae3c 08bd 23ab 3e3d
00000380: 17b3 1dbe 5e4e 3abe 8df6 2fbd 4aee e8bd
00000390: 4614 543e 1573 493e 9746 7d3e d695 cabd
000003a0: 884c 173e 11da 1a3d 1bf9 15be 6097 7d3c
000003b0: e19b 15bc 6333 5ebb 0e21 033e 670e d8bd
000003c0: 512f 523e d327 503e 6b81 983d 1d80 213e
000003d0: af0e b7bc b245 d03d 4d8b 5fbd c731 46bd
000003e0: 5687 733d 77ab 3fbe 542a ea3d d51f a5bd
000003f0: a531 a8bd 2e9b af3d 6d4c c93d 5c03 abbd
0.24062099 0.08408185 0.06135021 -0.03967894 0.2414528 -0.039203905 -0.024793986 -0.10836639
0.011642183 -0.07383872 -0.04873935 -0.076045685 0.11849723 -0.10798128 -0.053483546 -0.0473086
-0.14162591 0.22994396 -0.08008407 0.06324318 -0.094428495 0.009920459 -0.1123198 -0.0236697
0.05292031 0.018617233 -0.037976727 -0.17535418 -0.07103521 -0.10457876 0.082648486 -0.022612581
0.032352723 0.08748088 -0.13781472 0.06498565 0.17951708 -0.037418913 0.025376944 0.037696082
-0.05710389 -0.13196261 -0.20257068 0.04763714 -0.047179744 -0.03944827 -0.077110045 0.1255784
0.09433938 0.2100507 0.006727466 0.09486145 0.12765747 0.088376395 -0.03896566 0.045831196
-0.0052456227 0.0014119298 0.1331487 -0.047308534 0.15646353 -0.109086215 -0.06219567 -0.020584898
0.06797503 0.061748307 0.014872688 -0.0041001383 -0.027321918 -0.10708075 0.030433401 0.016832484
-0.17175867 -0.008457215 0.037051693 -0.05001452 0.044988643 0.014733592 -0.15077133 0.19001275
-0.068072245 0.02635118 -0.09212158 -0.14452176 -0.0079362495 0.19072898 0.096234106 -0.10887338
-0.13366476 0.0059243604 0.070035465 -0.16688246 0.12905355 -0.076340914 0.13932084 0.09272086
-0.21372926 0.16873303 -0.0075176605 -0.01973694 -0.063095905 0.1253244 0.077919655 0.036037207
-0.10984511 0.01683482 -0.12621324 0.10295763 -0.12769397 -0.0674767 0.07533177 -0.32575047
-0.024280632 -0.13961542 -0.06700392 0.016223297 0.24954797 0.10012453 -0.04714166 -0.014161672
-0.0072220224 0.2347868 -0.12091918 -0.014859123 -0.09124236 -0.004917926 0.025130026 -0.040464003
-0.031823445 -0.08690478 0.031951476 -0.0010250353 0.108315796 -0.07353276 0.0059784595 0.12234207
0.08452132 0.017346237 0.08346097 -0.004671701 0.023273611 -0.078365564 0.1957831 0.043202594
0.08744099 0.065205835 -0.12658913 -0.048150763 -0.10500783 -0.052428383 -0.13877323 -0.36133254
0.06844134 -0.011672969 0.008136545 -0.024976263 -0.23879759 -0.07289989 -0.09401707 -0.059525974
-0.12906836 0.024949893 0.032439724 -0.127604 0.08826747 -0.15367998 -0.0724114 0.052014336
-0.22514586 -0.05814105 0.1755184 0.15198267 0.1868488 0.05304364 -0.12025711 0.12650578
-0.17460236 0.07745595 0.02250333 -0.021862661 0.016043987 -0.0107102245 -0.03309347 -0.049684383
-0.097679295 -0.014127671 -0.10153419 0.0015147578 0.09942024 -0.12558343 -0.0027923328 -0.07483239
-0.037160672 -0.037931945 -0.03834015 -0.05878792 -0.01569705 -0.28078023 0.105671056 0.10412323
-0.0027169292 -0.12084988 -0.012380373 -0.0802942 0.091982864 -0.061841995 -0.06592901 -0.11143963
0.07491084 -0.07989373 -0.114569254 -0.25260907 -0.08296608 0.0017000719 0.014610145 -0.07023674
-0.1407345 0.050389208 0.09255545 0.13464774 0.0591238 -0.086600795 -0.033260994 0.046549927
-0.15400349 -0.18193957 -0.04295974 -0.11373575 0.20710859 0.19672807 0.24733959 -0.0989186
0.14775288 0.03780562 -0.14645807 0.015477985 -0.009131403 -0.003390514 0.12805578 -0.10549622
0.20525862 0.20327692 0.074465595 0.15771528 -0.022345869 0.10169543 -0.054576207 -0.048387315
0.05945524 -0.18717752 0.11433855 -0.08062712 -0.08212594 0.0857452 0.0982903 -0.0835025

gru.weight_hh_l0 f4 [300, 100]
00000000: 10b9 9ebe 8674 5d3c 647b d63d c96e 693e
00000010: f1eb db3b df14 03bd 4a61 433d e275 d6bd
00000020: 38c4 c4bb 70f4 ccbd 416a 1ebd 58cf a53d
00000030: 5bd4 fc3b d646 82bd 6dca 853d ffa3 273e
00000040: 4827 103c 19b2 423d e6a3 8c3d 4f95 0a3e
00000050: 9bbe 353e 9b42 79b9 bc23 0abe a7ca 7e3d
00000060: 8796 c1bc e3ae 7bba ed58 11be c837 a6bd
00000070: bc7a ba3c 137d 3d3d 55bc d13c d074 0bbe
00000080: deb3 943d a672 283e d497 643e 1529 d23c
00000090: d15a 3cbd a90c 6f3e 2cfb 863d f7d7 e0bc
000000a0: 2481 623c 35eb 28be f088 9d3d e43c 9d3d
000000b0: a9de 40bd 6109 14be e4ce 38be f2c9 ff3c
000000c0: e984 e33d 62e5 023e 3ada 503d 0f19 31bc
000000d0: 00ed cebd 3e01 e13d 7883 8dbd bcb9 50be
000000e0: 1a35 063d f80b 193e 84cb d3bc ecf7 903d
000000f0: 92e6 e93d c311 b23d 897a 95bd 56c5 58bc
00000100: c309 5abe dcb5 45be 5550 1abd 0979 133d
00000110: 280f 863c 7422 1d3d 5c41 4f3e 25f2 723d
00000120: ed06 45be 7978 e83c 104b 61bc d0f5 d8bc
00000130: 3104 243d 4336 0b3d c4a9 c83c c85b d43d
00000140: 8fbf bd3b 1208 f7bd 72ee 45be 53e7 90bc
00000150: 0533 853d 4fa9 9fbd 95f1 10bd 625f c13d
00000160: 4596 41be 79fe 50bc 14dd 7cbd 62e0 013e
00000170: f351 a63d 8650 c13d 9e6a 7abd 11b8 75bd
00000180: 4fce 8ebc 4e3e ae3d 42ce b23d b8ff a93d
00000190: 8b71 9b3d 112f 7abd e447 9d3c a863 8f3d
000001a0: fcb8 ab3d b09d 113d ec62 eabd 0e44 50bd
000001b0: 39a4 90bd dbd1 123c 5a01 e5bd a0b8 8f3c
000001c0: 6c47 1eba a163 e33c 19e1 633d e53c 803c
000001d0: c7dc 4d3d a586 473e fc5e f1bc b8db 493e
000001e0: b0c5 0b3e 8efc a8bc fc93 35be 07a8 c5bd
000001f0: 7a6d 49bd 73a1 6f3d aae0 6ebe 921b e4bc
00000200: f925 4f3d 950f 15be ffd1 a73d 90e2 c6bd
00000210: 57e5 0a3d 6a43 fabd fa28 c3bd a0c8 8cbd
00000220: 160f 2a3b cb06 a13d b047 0e3e c729 76bc
00000230: 756e 193e 274c 82bd daf2 88bd 377b f33d
00000240: a5b8 463e 9651 9ebb a667 47bd 5151 b03d
00000250: 93aa 993d d301 0f3e 3454 0c3e 0c66 933d
00000260: 4419 6e3d 4fd0 663d b6fe c5bd a9d0 4bbe
00000270: befd 503e 05cf cabd 977d f8bc b33b 8a3c
00000280: 4500 5fbd 6f02 fc3d 9790 133d a691 f4bc
00000290: dd05 28be a25f 9ebd 1f46 d6bc df08 1abe
000002a0: 1b65 90bd f321 e4bc b078 07bc fed4 553d
000002b0: 7b72 fd3c 4009 003e 42da e7bc 6bc3 203d
000002c0: c504 453e cb6e 97bc 7477 b4bd 3be4 32bb
000002d0: 47f4 96bd 34ef 4e3d b28e f63c 7645 e6bc
000002e0: 897a 983d 6ff6 a23d 7f74 1ebd c08f e73d
000002f0: e5d1 27be d5f4 d03d 9686 1dbd 638c aabc
00000300: f64a 6f3d 9b4f c1bd 2de3 fa3d bcf6 043e
00000310: 86b2 f5bd 8924 ed3d 9058 2e3d f599 073e
00000320: 9702 d6bd 0720 01be de67 2ebd b29b 82bd
00000330: 035d 06bd 7c66 c23c 18cd ce3d 495d 5f3c
00000340: 87ff 073e 6d1a 223d 49fb 7f3d 1f8d 37bd
00000350: aeb1 1abe 8311 b8bd cf81 6fbc 3f22 88bd
00000360: 847b 06bc 7da2 873d f2b6 473e abc0 24be
00000370: ca9c bbbc 4bcd c7bc 27fa 20bd 8ecc e03b
00000380: 5f3f 373d 0d16 13bd 9904 9b3c 05b6 373d
00000390: f505 023e 9932 933d e1c7 3a3d 3f26 ca3d
000003a0: 85c9 a0bb 67ac 19be 51c8 f7bd aed5 bf3c
000003b0: 4a2b 2ebe e88f febc 3b8b 8d3d 566d 80bc
000003c0: 5094 e1bc 6cbc c03d 025d 60bd 126f 0cbc
000003d0: 8879 8e3d 8962 53bd 45ee aabc c4f2 26be
000003e0: ed93 0b3e 7677 493b 1de2 8b3d 3db1 b33d
000003f0: 5a3f 283d 5303 853c bc69 c7bc cbc2 6dbd
-0.31000566 0.013516551 0.10472754 0.22796167 0.006711476 -0.032002326 0.047700204 -0.10471703
-0.0060048364 -0.1000756 -0.03867555 0.08096188 0.0077157444 -0.06361167 0.0653275 0.16371153
0.008798428 0.04753313 0.06867199 0.13533519 0.17748491 -0.00023771303 -0.13490194 0.062204983
-0.023631347 -0.000960095 -0.14194079 -0.08116108 0.022763602 0.04626186 0.025602499 -0.13618779
0.072608694 0.16449985 0.22323543 0.025654355 -0.045985047 0.23344673 0.06590876 -0.02744673
0.013824735 -0.16495974 0.076921344 0.076776296 -0.047087345 -0.14456703 -0.18047673 0.031224225
0.11109335 0.12782815 0.050989367 -0.010809197 -0.10103798 0.10986565 -0.06909841 -0.20383352
0.032765485 0.14945972 -0.02585388 0.07078537 0.11420931 0.08694794 -0.07298762 -0.013230642
-0.21292786 -0.19307655 -0.037674267 0.0360041 0.016364649 0.038362935 0.20239776 0.05931296
-0.19240923 0.028377758 -0.013750806 -0.0264844 0.04004306 0.033987295 0.024495013 0.103690684
0.005790658 -0.12062086 -0.19329241 -0.017688429 0.06503872 -0.07795965 -0.03538664 0.09442021
-0.1890498 -0.0127559835 -0.061734274 0.12683252 0.08121099 0.09439187 -0.061136834 -0.059989993
-0.01743236 0.085079774 0.08730747 0.083007276 0.07590016 -0.061080042 0.01919932 0.0700143
0.08384892 0.035550773 -0.11444649 -0.050846152 -0.07062573 0.008961166 -0.111818984 0.01754409
-0.00060378644 0.027757468 0.05563459 0.015654037 0.050259378 0.19484957 -0.029464237 0.19712722
0.1364963 -0.02062824 -0.17732233 -0.09651189 -0.04917667 0.05850358 -0.2332789 -0.027845178
0.050573323 -0.14556725 0.081943505 -0.09711182 0.03391012 -0.122198895 -0.095293 -0.06874204
0.0025948933 0.07862624 0.13894534 -0.015024609 0.14983542 -0.06362181 -0.06686945 0.11888736
0.19406374 -0.004831503 -0.04868283 0.0860926 0.075032376 0.1396554 0.13703996 0.07197198
0.058129564 0.056351002 -0.09667723 -0.19903816 0.20409295 -0.09902767 -0.030333323 0.01687417
-0.054443616 0.12305152 0.036026563 -0.029854607 -0.16408487 -0.07733084 -0.026156483 -0.15042447
-0.07050534 -0.02784822 -0.00826852 0.05220508 0.030938378 0.12503529 -0.028302316 0.039248865
0.192401 -0.018485447 -0.088118464 -0.002729668 -0.07370811 0.05052109 0.03009734 -0.028109293
0.07445247 0.0795716 -0.038685318 0.11306715 -0.16388662 0.10202948 -0.03845843 -0.020818895
0.058421098 -0.09439012 0.122503616 0.12984747 -0.11996941 0.11579234 0.04256493 0.13242324
-0.10449713 -0.12609874 -0.042579524 -0.06377353 -0.032803547 0.023730509 0.10097712 0.013633081
0.1328107 0.039575983 0.062495504 -0.044812318 -0.15106842 -0.08987715 -0.014618351 -0.06647157
-0.008208159 0.06622789 0.19503382 -0.16089122 -0.022901911 -0.024389884 -0.039301064 0.0068603223
0.04473817 -0.0359097 0.01892309 0.04485132 0.12697585 0.07187385 0.045600776 0.09870576
-0.0049068355 -0.15007173 -0.12098754 0.02341732 -0.17008701 -0.03107448 0.06911322 -0.015677135
-0.027536541 0.094109386 -0.0547762 -0.008571403 0.06956774 -0.051607642 -0.020865569 -0.16303545
0.13630648 0.003074137 0.06830237 0.0877404 0.04107604 0.016236937 -0.02434241 -0.058047097

gru.bias_ih_l0 f4 [300]
00000000: 192f 043d c8ee d33d 8920 4a3d 91e8 1a3b
00000010: 4bea 8739 8df3 983d 3c87 c5bd 9186 e9bc
00000020: e5c4 3abd 753f 263d 87cc 313c 23e0 ce3d
00000030: 652a 813d 6c4e df3d 91f2 de3d 5458 59bd
00000040: 96e4 4a3d ccf8 dc3d e1d6 bb3d 3ca6 a83d
00000050: c8b0 baba c03e 10bd cf87 a03d 2edf 83bc
00000060: 2c4f 98bc fdd5 0b3e 177e a33d fd50 af3d
00000070: 78a6 f8bc 6025 a23d 09b3 843d c6be 893d
00000080: b8af 94ba 85e1 a1bd aa1c 2bbd d624 693d
00000090: a9d3 84bd 2d44 c73c e8c8 a53d ed61 b03d
000000a0: f1a1 013e 423a 84bd df28 6b3c 4c8d 4c3d
000000b0: eee4 8cbc 7837 e33d 66ba 0bbd e804 2e3c
000000c0: 75c2 1c3d ab39 3b3d ba53 bf3d 8c25 b53d
000000d0: 73da a8ba e167 d33d ebda b2b9 8dc3 2e3d
000000e0: 63fb 083e 6006 e53c 8a47 2c3d 8c20 c83c
000000f0: f65e 183c 0ab9 ac3d f1c2 963d 24c9 ad3d
00000100: 6482 d23d 4374 053d 2b49 a43d 57d5 f83d
00000110: b3ea 363e 191f 8d3c 92bf 95ba f0bf e3bd
00000120: 2a8d eb3d aae4 3d3d 8238 50bd 7e78 043e
00000130: d742 5c3d 0ad0 8a3c 8fb3 d33d 5f72 3a3d
00000140: 891c 7f3d fc80 b23d 7072 bd3d 51fb 733d
00000150: dc9d 70bd 0d19 983d a789 13bd af52 b7bb
00000160: c34a d93d b7f5 2ebd 0956 bc3d 611f eb3d
00000170: 6e59 523d fff1 fb3d fd7b 0c3e 7ba5 f43d
00000180: 9550 75bd 75a7 193e b997 fe3c d627 383d
00000190: 3a91 74be d4b2 aabe 4d71 9bbe f8ad 72bc
000001a0: 81a5 84bd 8e59 12be 1b04 acbe af75 15be
000001b0: d007 8dbe f141 43be ccef 46be d446 81be
000001c0: 3133 12be 217b 6fbe d728 2abe bc1b 2abe
000001d0: 5fd6 61be 2de4 9cbe 5086 3fbe fec0 8bbe
000001e0: 52ad 6dbe 0277 43be 4a0e 36be 0725 73be
000001f0: d5e4 17be dd0b bebe 604f 81be f969 81be
00000200: b9ca 1bbe da53 f8bd 5b07 8fbe d85e 14be
00000210: 6268 28be 083a 33be 2271 6bbe 9dfb 53be
00000220: 8c2f 91bd 9a22 9cbe 8937 ddbd 4b72 8bbe
00000230: debc 13be 4d6b 1abd 37a2 54be 3a16 f4bd
00000240: 35bc e9bd 91c7 0dbe ade2 95be f198 82be
00000250: 7b8b 24be b796 05be c913 99be abae a7bd
00000260: 9c2c 8ebe 6f42 ddbd f07d f1bd 4af7 05be
00000270: 5639 95be 642c c5bd 30bf 21be 8537 87be
00000280: ead6 9cbe 5195 50be 9dc0 e6bd 25bd 93be
00000290: 3a1e f3bd 19af d0bd cd68 53be 86e0 64be
000002a0: 97e6 2abe 510c 2bbd 7757 38be 40fb f3bd
000002b0: 0c11 54be 240a 99be e91b 0abe 18e1 48be
000002c0: 9dba 17be 6c92 5dbc 8681 1a3d c52f febd
000002d0: cc11 94be d378 19be d38e 1abe f23f 28be
000002e0: 2afd f6bd 0af1 99be 4d84 8cbe 7dce 2dbe
000002f0: fcc8 a6be d595 8abe 12c4 43be 0db8 46be
00000300: 2196 23be 157a 6bbe dc88 38be 5c5a 3ebe
00000310: d7af 83be 43f6 65be 37d8 acbe 8810 77be
00000320: fa3f 85be ec16 463e e6d6 fd3d ce77 90bd
00000330: 897c 0c3e e48e 14bb a064 f83d b050 b83d
00000340: 199b 63bd d966 b13d aa58 a33d 70d7 b1bc
00000350: 6a3a b4bd c4bf b0bc 5064 1ebe 755b 7abd
00000360: 28cb d3bd 7c73 6bba 54be bb3d 740a 063e
00000370: 692f dd3d 4d8b 3dbd c4e0 b5bd 2301 46be
00000380: 6a85 793d 3660 c3bd 2336 b23d 1e0a 9c3d
00000390: 71bf af3d cbd1 043d 0b47 d13d c708 4ebd
000003a0: 1576 083e 1363 853d b82f 75bc a319 dabd
000003b0: 1663 75bd ad7e 063d bb0e 7c3d 28fd b83d
000003c0: fe82 a63c 9fbc d1bc 586e d53d 5024 15be
000003d0: 21e8 7ebb 7680 01be bffd 013c 0609 e53a
000003e0: 9121 f73b cfa5 ed3c 0a77 d03d cd60 073e
000003f0: b98f 463d ea09 f73d 61b5 ebbc 4eaf 3cbe
0.03227148 0.10348278 0.049347434 0.0023637156 0.00025923768 0.074683286 -0.096449345 -0.02850655
-0.04559793 0.04058786 0.010851986 0.101013444 0.06306914 0.1090363 0.108861096 -0.053062752
0.049534403 0.10789642 0.09171844 0.08234832 -0.0014243359 -0.035216093 0.078384034 -0.016097631
-0.01859244 0.13655849 0.07983034 0.08560369 -0.030352816 0.07917285 0.06479461 0.0672584
-0.0011343872 -0.079043426 -0.041775383 0.056919895 -0.064856835 0.024324501 0.080949605 0.08612428
0.12659432 -0.06456424 0.014353006 0.04993944 -0.017199006 0.11094564 -0.03411331 0.010621287
0.038271386 0.045709293 0.093421414 0.08845052 -0.0012882486 0.10322548 -0.00034113912 0.04266696
0.13377146 0.027957141 0.042060412 0.024429582 0.009299984 0.08433731 0.07361401 0.0848563
0.10278776 0.03258158 0.08021768 0.12150066 0.17862968 0.017226743 -0.001142489 -0.111205935
0.11501534 0.04636065 -0.05083514 0.12936589 0.05377468 0.016944904 0.103369825 0.04551923
0.062283073 0.08716008 0.09250343 0.059565846 -0.058744296 0.07426653 -0.036019947 -0.0055945734
0.10609963 -0.0427148 0.091960974 0.114805944 0.051354818 0.123020165 0.13719173 0.119456254
-0.059891302 0.15005286 0.031078206 0.044959866 -0.23883525 -0.3333956 -0.3035988 -0.014811985
-0.0647688 -0.14291975 -0.33596882 -0.14595674 -0.27545023 -0.19068123 -0.19427413 -0.2524935
-0.1427734 -0.23386814 -0.16617142 -0.16612142 -0.22054432 -0.30642834 -0.1870358 -0.2729568
-0.23210648 -0.19088367 -0.17778888 -0.23744594 -0.14833386 -0.37118426 -0.2525587 -0.25276163
-0.15214051 -0.121253684 -0.279353 -0.14489305 -0.16446069 -0.17502606 -0.22992375 -0.20701452
-0.07089147 -0.3049515 -0.10801608 -0.27235636 -0.14427516 -0.037699986 -0.20765005 -0.11918302
-0.11412851 -0.1384566 -0.29274502 -0.2550731 -0.16068833 -0.13045774 -0.29897907 -0.08187612
-0.2776841 -0.10803687 -0.11791599 -0.13082615 -0.29145306 -0.096276075 -0.15795588 -0.26409546
-0.30632716 -0.2036946 -0.11267207 -0.28855243 -0.11871 -0.10189647 -0.20645447 -0.22351274
-0.16689526 -0.041759793 -0.18002115 -0.119131565 -0.20709628 -0.2989055 -0.1348721 -0.19617116
-0.14817281 -0.013523679 0.03772118 -0.12411455 -0.28919828 -0.14987497 -0.15093546 -0.16430643
-0.12060006 -0.3006671 -0.27444687 -0.169733 -0.32575214 -0.27067438 -0.19117764 -0.19406147
-0.15975238 -0.2299579 -0.18020958 -0.18589157 -0.25720093 -0.22457223 -0.3375871 -0.241274
-0.26025373 0.19344682 0.12394504 -0.07054101 0.13719381 -0.0022668177 0.12128568 0.08999765
-0.055567835 0.08662195 0.07975896 -0.021709174 -0.08800204 -0.021575816 -0.15467954 -0.061122376
-0.10341483 -0.0008981747 0.091671616 0.13089925 0.108000584 -0.046275426 -0.08880761 -0.19336371
0.06091825 -0.09539835 0.08701732 0.07619117 0.085814364 0.032426637 0.102186285 -0.05030134
0.13326295 0.065130375 -0.01496499 -0.10649421 -0.05990895 0.03283565 0.061537486 0.09032661
0.020326134 -0.025602637 0.10421437 -0.14564633 -0.0038895684 -0.1264666 0.007934033 0.0017474003
0.007541843 0.029009728 0.10178955 0.1322052 0.04847691 0.12062438 -0.028773012 -0.18426248

gru.bias_hh_l0 f4 [300]
00000000: 102f 143e 5f45 483e 7c1f b93c 0cda 99bc
00000010: f741 79bd e824 613d 37c7 c03c 2402 d43c
00000020: 7594 793c 553d fc3d 4a88 0b3e 98e2 1ebd
00000030: 1f5c b2bd ef85 473c 3ba8 923d 2092 3c3d
00000040: 6e5c 323d aefe ce3d d47b b03d 1e4f 0c3e
00000050: d8dd 71bc 4597 153d 827c 483d 43a6 893d
00000060: c8a2 8a3d 2351 0c3e c09a c63b cc0c 813d
00000070: cd09 2c3c df5a 963d 61ba 35bd bf27 f13d
00000080: afb5 2cbd dec5 15be aef0 0b3e 17f8 91bc
00000090: 243f 0a3d 404e b13d 634e 2f3e 2d57 64bd
000000a0: 600a 863c 8d53 54bc 6bff 5dbc 8ca8 073d
000000b0: 1e86 223d 9c07 2a3c 1399 40bc 16dd ec3b
000000c0: 0a8c 1c3e 264d 123e 9d78 ce3d 4ff6 9c3d
000000d0: e6a6 1b3e 51ca af3d 824a 1a3d 02b7 2b3c
000000e0: c36f 103e 9979 9c3d 900e e33d e7ad d13d
000000f0: adef 043e 8de0 283e 3770 1c3e e8c0 f43d
00000100: 78f2 063e a05e 81bd 11a2 873c 0bed 9f3d
00000110: 9e22 ea3d eb83 2abd 5091 c9bc c319 8ebd
00000120: 7755 363e d24d 923d e779 2ebd e67b 303e
00000130: 3a9b 75bd 2652 973d 1458 9ebc 0836 fc3c
00000140: 81a8 523d e7cd 96bc e8bd 4c3d 935c 3a3d
00000150: a061 d8bd bfa8 343d 06b5 17bc e05d b23d
00000160: 9caa c53d 3243 6fbc a8c9 353d 7734 e23d
00000170: 791e a53c 087a 003e 7812 e23d 4fc8 f93c
00000180: 9784 87bd 300c d53d 4739 df3c 59bf 523d
00000190: 2455 65be b74e 9dbe b399 9cbe c78d 09be
000001a0: 84fd f3bd 4cb2 173a e535 a2be a3e5 c8bd
000001b0: a0fe b3be 686e 9dbe 7c6c aabe 7f71 f5bd
000001c0: 8c0d 88be b0a7 48be c655 59be 42cd 36be
000001d0: ac32 e1bd f9a7 28be 7ba9 0ebe 3193 9cbe
000001e0: 01f9 87be 1e25 4fbe 4783 54be bc7a 31be
000001f0: 8f2a 5cbe 31f2 b9be fbe4 11be 632e 7bbe
00000200: 83fa b6bd de51 19be 17cb 75be 6937 80be
00000210: 752f f7bc 3763 93be 3b26 07be d5a5 24be
00000220: 5f4b 11be 2968 48be 123d 64be d446 4fbe
00000230: e858 4dbe be2e e2bd bb16 4fbe 3d3b 78be
00000240: f193 16be 688c 7bbe 85b9 9bbe b3db 86be
00000250: 9e83 5fbe 5287 22be cd7c 79be a5b5 acbd
00000260: 3a68 b4bd b36f 40be f09b 4bbe e788 0abe
00000270: 0a05 91be a9a3 68be 2c9a 34be 4b86 fcbd
00000280: 9488 c7be 65ce 0cbe c2e7 2abe 5db8 36be
00000290: 5bdd 0ebe b221 01be 852d c7bd f15f 42be
000002a0: 89b5 3cbe eef7 fdbb 4514 09be 133f d9bd
000002b0: 0760 85be 81f9 98be c2dc 8ebe a752 52be
000002c0: ded3 37be ab6e 9cbd 6376 15be 7d10 bebd
000002d0: 581a 11be 4963 8bbe df7f 9bbe 8ec3 15be
000002e0: de29 4ebe 4685 6bbe 2340 87be 5e35 3bbe
000002f0: 5251 32be 7da0 13be 5544 7fbe 988c 37be
00000300: 08ea 9dbe 77f4 06be 60ea ecbd faa8 34be
00000310: 5361 5ebe 5f5d 4cbe 59eb 55be 236b f1bd
00000320: 4281 99bd 275f 4b3e bdf9 213e 9b72 7abc
00000330: 2bef 82bd af5c 313e bea7 4f3d 0028 5fbb
00000340: 2868 2dbd 3d16 333e e244 eebd b4a1 35bd
00000350: 9372 f2bd 9a29 23bc 5042 79bd a2f6 e03c
00000360: 9f1c 71bc 8941 ffbc 9540 e73b be8d b13d
00000370: 2ec9 e53d 1c51 e73d d8cb f6bd 38a9 4abe
00000380: 5148 2e3b b107 edbd 4141 873d e0c9 6e3d
00000390: f54b 463d 590d 87bd 430c 183e b6ec cdbc
000003a0: 63a3 b63d ea01 78bd 1f05 c1bd 6f7f a5bd
000003b0: f9be 963b 7325 8a3d dbf6 d03c e6bb babb
000003c0: 21a1 a4bd 5a89 e83d 06d0 56bd ca50 e93c
000003d0: e9e4 253e 71ac 76bd 8c27 cc3d 1d34 38be
000003e0: e412 263a 7bfe 03bc 897d 5d3e 949e c4bd
000003f0: a9e3 12bd 96b2 373e ae7b 2bbe 4153 92bd
0.14471078 0.19557713 0.02259802 -0.01878073 -0.060853925 0.054966837 0.023532493 0.025879927
0.015233149 0.12316386 0.13626209 -0.038790315 -0.08708977 0.012177928 0.07160994 0.046037793
0.04354518 0.1010717 0.08617368 0.13702056 -0.014762364 0.036521215 0.048946865 0.06721165
0.06769329 0.13702826 0.006060928 0.06301269 0.010500384 0.07341551 -0.044367198 0.11775159
-0.042165454 -0.14626262 0.13666031 -0.017818494 0.03375162 0.08657503 0.17119746 -0.0557472
0.016362369 -0.012959373 -0.013549666 0.033119723 0.039678685 0.010377791 -0.011755246 0.007228504
0.15287796 0.14287242 0.10081599 0.07664167 0.15200385 0.08583511 0.037668712 0.010480644
0.14105134 0.076403804 0.11086762 0.10238247 0.12982054 0.1649191 0.15277182 0.119508564
0.13178432 -0.063168764 0.016556771 0.07808884 0.11432384 -0.041629713 -0.024605423 -0.069385074
0.1780604 0.07143749 -0.042596724 0.17234764 -0.05996249 0.073887154 -0.019329108 0.030787483
0.05143023 -0.018408729 0.049985796 0.045498442 -0.105654955 0.04410624 -0.009259468 0.087093115
0.09651682 -0.014603423 0.044381768 0.11045163 0.020156132 0.12546551 0.11038679 0.030491022
-0.066170864 0.10402715 0.027248992 0.051452015 -0.2239576 -0.30724117 -0.30586013 -0.1343299
-0.11913589 0.0005786761 -0.31681743 -0.09809425 -0.351552 -0.30748296 -0.33285892 -0.11984538
-0.26572835 -0.19595218 -0.21224126 -0.17851737 -0.10995993 -0.16470326 -0.13931839 -0.30581048
-0.26557162 -0.20229003 -0.20753203 -0.17331976 -0.2150061 -0.3631759 -0.14247505 -0.24529414
-0.089345 -0.14972636 -0.24003254 -0.25042275 -0.030173996 -0.28786632 -0.13198178 -0.16078885
-0.14188908 -0.19570984 -0.22288921 -0.20241863 -0.20053446 -0.110440716 -0.20223515 -0.24241348
-0.14704873 -0.2456528 -0.30414978 -0.26339492 -0.21827552 -0.15871933 -0.24364014 -0.084330834
-0.08808942 -0.1879261 -0.19883704 -0.13528787 -0.28324157 -0.22718681 -0.17636937 -0.12330302
-0.38971388 -0.13750608 -0.16689971 -0.17843767 -0.13951628 -0.1261051 -0.09725479 -0.18981911
-0.18428625 -0.007750503 -0.13386638 -0.106077336 -0.26049826 -0.29877856 -0.279028 -0.20539342
-0.17951915 -0.07638296 -0.14595942 -0.09280489 -0.14170206 -0.27224186 -0.30370995 -0.1462538
-0.20133159 -0.23000059 -0.2641612 -0.18282077 -0.17413834 -0.1441669 -0.2492841 -0.17924726
-0.30842614 -0.13179193 -0.11568141 -0.17642584 -0.21716814 -0.19957493 -0.2089056 -0.11788013
-0.07495357 0.19860516 0.15817924 -0.015286113 -0.06393274 0.17320512 0.05069708 -0.0034050941
-0.04233566 0.17488952 -0.11634232 -0.044343665 -0.118382595 -0.009958649 -0.060854256 0.027461354
-0.014716296 -0.03115918 0.0070572593 0.08669613 0.112200126 0.11294767 -0.12050599 -0.19791114
0.0026593397 -0.11573733 0.06604243 0.05829799 0.048412282 -0.06594343 0.14848427 -0.025137287
0.08917882 -0.0605487 -0.09424805 -0.08080947 0.0046004024 0.06745424 0.025508335 -0.005698669
-0.080385454 0.11354323 -0.05244448 0.028480906 0.16200604 -0.060223047 0.099684805 -0.1798863
0.00063352124 -0.008056278 0.21629919 -0.09600559 -0.035861645 0.17939219 -0.16746399 -0.07144786

gru.weight_ih_l1 f4 [300, 100]
00000000: adae 03be bdc7 4e3d 1164 c9bc 0bc4 6e3e
00000010: 1ba4 fd3d 6a71 2a3e 9c17 bf3d 5180 d0bd
00000020: 77ff aa3d 2608 21be 6670 e3ba 2413 893d
00000030: c36d 243d 2a48 0bbe ffdf 303e fae7 c63d
00000040: ab5d 2cbc 1875 33be 10b8 fd3d c3e3 4f3e
00000050: ea18 babc 1cb8 08bd 2e85 67bd 2e9b 2abe
00000060: 07cb 843d 5e9b fcbd e365 a2bd a655 833b
00000070: 1675 9c3d 4951 63be ffa9 153e ccaf 60be
00000080: e692 3f3d f16d edbb 9c82 a93d c6df 173e
00000090: 4600 e9bd 5fe3 0e3e 6939 e73c 9ed8 23be
000000a0: 083c 90bd 2991 fc3d 3d4a 80bc 3db7 7d3d
000000b0: 9387 663c b5be 59bd 942d d8bd 414d d63d
000000c0: 2843 ff3b f815 6c3e 6e72 df3d 0ef2 c1bc
000000d0: 9940 e13d 6463 94bc 45e5 bc3b 923b 1fba
000000e0: 6156 503e 7015 08bd 75d9 733d 9679 2ebd
000000f0: 81e8 e9bd 2d6c 053c 6707 36bd 0452 cd3d
00000100: d596 cdbd 3012 b53d 3722 83bd 22ea 5bbd
00000110: 4821 b03c 1ee7 a9bd 33bb b4bd aaad 0b3e
00000120: d6ee 31be 7ef5 343b 2280 56ba 31fa 89bd
00000130: 2056 98bd 96ad 19be e286 b2bd 8cea fa3d
00000140: a6cc 35bd ddaa 9b3d 95c6 9fbc 727d 13bd
00000150: e516 263e c47c 713d 136f 363e b831 b9bd
00000160: 81c8 9c3d f287 fb3d f986 b2bd 1d04 98be
00000170: 304d 4bbc 9a96 75bd 6619 993b 798a 253e
00000180: 28ee 323a b7ab b3bd 3b87 473e 2cad cc3d
00000190: b0f0 f83d 5c41 9d3d 5d2b c93d 5e9b 143e
000001a0: d2e9 013e 69c3 303e b5a4 073e 41c7 cbbc
000001b0: f2e3 883c e514 0ebe 9e8f 1bbe 7448 3b3d
000001c0: cd32 6e3d 5175 e33d 5f9e 623c 278a 193e
000001d0: 8edb 1b3e 65e9 16bd a954 1d3d 9186 483e
000001e0: d7ff faba 1501 743d 052d 0d3e 9d52 863d
000001f0: 29bc b4bc e546 a4bb 6d3b 2bbd a33f 54be
00000200: 48b6 a23d b59a 5bbd 9a57 fabc c938 dabd
00000210: 2f53 033e ae33 7d3d 1ccc 123d 2e5a b23d
00000220: fbca acba 6c14 313e 0b6f d33d 9b79 11bd
00000230: 2225 1abd 1e93 453e dad9 8f3d b521 203e
00000240: 4492 813d d7e0 883d 52e9 eebc a680 0bbd
00000250: a276 c33c 1d5a 6c3e 9815 8d3d 98ce 063e
00000260: 553a 4abe daf9 6f3d 033f 36bd 3042 aa3d
00000270: aed8 b23d 3019 c53d feea 50bd e739 a9ba
00000280: e818 7d3e 61bc 45be 88c6 1f3e 4160 a7bd
00000290: ebed 6abd 6e1d 6f3d 4e3c e5bc 426e 23be
000002a0: 0a01 a13d b79a 63bd 9b01 863d 367b 61bd
000002b0: ffa7 27bc 2a8c 1abe e93f 43bb 9c85 61be
000002c0: 9378 46be acf1 603d 5fc9 27bd 5815 9d3c
000002d0: 5123 913d d93e bf3d 0402 febd 7d6f 3dbe
000002e0: eb57 e63c 7546 e9bd 0669 03bc 4267 9abd
000002f0: e7ea 493d a209 f93d e317 a93d 8eec b6bd
00000300: a82b 0abe 7636 143e 0282 d7bc 09bf bb3d
00000310: 2b7d d73d 51a5 dabc 877a e9bd e8a4 ef3d
00000320: bc16 febd 0c11 6abd 3c02 a939 b3fb 5b3d
00000330: 5ff1 7cbc dcd9 083d 360c 19bd 6465 eabc
00000340: 7596 8c3d 210d 9cbd 3b69 90bd 0cb8 3c3d
00000350: bada 5a3c 51ac f93c 8a29 0f3a bacf be3d
00000360: 33fb 073c 1f7d 6f3d 35b9 563e 5958 f83d
00000370: 9f8e 5a3c 2e86 593e 4711 7b3e 093f 17bd
00000380: e79c 2c3d 2c76 993d 79e4 97bd e079 fdbb
00000390: 2019 383e 7a56 35be 0aea 9ebd c4e5 c83d
000003a0: 744f 58bc dfb9 fb3d 3827 d8bd e26d 37be
000003b0: b71a 643e e632 ff3d b74f 363e f1ba 11be
000003c0: c2e7 adbb 4735 cc3d 0971 063e 99e7 85bd
000003d0: d33f 7f3e 4958 04be d804 ddbd ceda 063d
000003e0: 26e2 2abd 3b2d ec3d 61f6 95bd 75bd 663e
000003f0: 2bd9 073e c06d 9a3d e9eb 853d f8f6 653d
-0.12859602 0.050483454 -0.024583848 0.23316972 0.12384816 0.16644827 0.09330675 -0.101807244
0.08349507 -0.15725765 -0.0017352223 0.06693104 0.04014374 -0.13601747 0.17272948 0.09712215
-0.010520379 -0.17525136 0.12388623 0.20301728 -0.022716958 -0.033378705 -0.056523494 -0.16660759
0.06484037 -0.123343214 -0.079295896 0.004008013 0.0763952 -0.22198977 0.1461563 -0.21942061
0.046770953 -0.007245772 0.08276865 0.14831457 -0.11377005 0.13953923 0.028225617 -0.16000602
-0.070427 0.123323746 -0.0156604 0.061942328 0.014070409 -0.053160388 -0.10555568 0.10463954
0.007789988 0.23055255 0.109104976 -0.023674991 0.10998649 -0.0181138 0.0057646357 -0.00060742453
0.20345451 -0.03322357 0.059533555 -0.042596422 -0.114213 0.008143467 -0.044440653 0.10025409
-0.100385346 0.088413596 -0.0640301 -0.053690083 0.021500245 -0.08296035 -0.08824768 0.13640466
-0.17376265 0.0027612145 -0.00081825454 -0.06737173 -0.07438302 -0.15007624 -0.08717133 0.122517675
-0.04438462 0.07600949 -0.019503871 -0.036008306 0.16219671 0.058956876 0.17815809 -0.09042686
0.076554306 0.12281789 -0.0871715 -0.29690638 -0.01240854 -0.059958078 0.004672217 0.16166104
0.0006825649 -0.087729864 0.1948518 0.099939674 0.121552825 0.07678482 0.09822724 0.14512393
0.12686852 0.17262043 0.13246424 -0.024875285 0.016710255 -0.13875158 -0.15191504 0.045723394
0.058153916 0.11106361 0.013831704 0.14994107 0.15220472 -0.036843676 0.038410816 0.19582583
-0.0019149733 0.059571344 0.13786705 0.06558726 -0.022062378 -0.005013334 -0.04180472 -0.207274
0.07944924 -0.053614337 -0.03055935 -0.10655362 0.12824701 0.061816864 0.035839185 0.08708607
-0.0013183051 0.17292947 0.10323914 -0.035516363 -0.03763307 0.19294402 0.07023974 0.15637858
0.06326726 0.0668351 -0.02916399 -0.034058236 0.02386028 0.2308125 0.06888884 0.13164747
-0.19748814 0.058587886 -0.044493686 0.083134055 0.087327346 0.09623945 -0.051005356 -0.0012910933
0.24716532 -0.19310142 0.15603077 -0.08172656 -0.057355803 0.058377676 -0.027982857 -0.15960029
0.07861526 -0.05556747 0.06543275 -0.055049144 -0.0102329245 -0.15092531 -0.0029792732 -0.22023624
-0.19381933 0.054917976 -0.040963527 0.019175217 0.07086814 0.09338159 -0.12402728 -0.1849956
0.028118094 -0.11390392 -0.008020645 -0.07539226 0.049296286 0.121600404 0.08256509 -0.08931838
-0.13493216 0.144739 -0.02630711 0.091672964 0.10521921 -0.026690157 -0.11400323 0.11701375
-0.1240668 -0.057145163 0.00032235857 0.053706836 -0.015438407 0.033410892 -0.03736516 -0.0286128
0.06864635 -0.07619692 -0.07051321 0.04607396 0.013357813 0.030477675 0.0005461207 0.093169644
0.008299637 0.058468934 0.20969088 0.12126226 0.013339668 0.21242592 0.2451831 -0.03692535
0.04214182 0.074932426 -0.074166246 -0.007735476 0.17978334 -0.1770877 -0.07759483 0.09809449
-0.013202537 0.122913115 -0.105543554 -0.1791301 0.22275816 0.1246088 0.17803846 -0.14231469
-0.0053071687 0.09971099 0.13129057 -0.06538314 0.24926691 -0.12924303 -0.107919395 0.032923512
-0.04171958 0.115320645 -0.07322384 0.2253321 0.13266437 0.075404644 0.06539137 0.05614373

gru.weight_hh_l1 f4 [300, 100]
00000000: 4256 c53c f022 38bd 62a7 1ebe a933 04be
00000010: 7ae8 693d b601 5a3d 3c98 09be 14bd 3fbd
00000020: 8a42 023e 7a52 bf3c 36eb 2abc f286 803c
00000030: bd5e e3bd 6ea4 403d b0ad ab3d 1ec8 0abc
00000040: 4124 003d 8a0d d43d 181c 7f3d 243c fabd
00000050: 50dc e9bc 4242 01be 5255 91bd f109 613d
00000060: e676 e03d 7b2b b13b f3b0 213d 01c5 7dbd
00000070: afc4 793d a50f 34bd ba4d 2fbc dd6f b23d
00000080: 5dbe c7bb 2837 d63c 1e18 253c 5830 84bd
00000090: 51f5 383d b6d2 cabc a378 5b3e 3442 3ebc
000000a0: 22e5 52be b1f5 e93d e4e1 13bd 4ffb a43d
000000b0: 1475 e6bc 3139 f6bc 88ad aabc 41d1 9b3d
000000c0: e253 1fbd 9198 b8bb 8c93 423d 9f82 783e
000000d0: 547e 8dbd 514c 1b3e 445d d7bd 4f97 75bd
000000e0: 13a7 c8bd 6ccc 39bd dc54 55bd 6bbb 293c
000000f0: 26da b83c 993e 063e 2dbd e2bd 0e89 843d
00000100: c3c5 363d 2646 b4bb 3853 d13d b927 1c3b
00000110: 5e3d 1d3e 9a7e 823d a8d8 2a3d 5a4a babd
00000120: 3dd3 09be 59c0 99bd f113 6f3d 6c15 2d3c
00000130: 8022 0ebe aa0f c23d 9121 b53d 95c1 c0bc
00000140: 375c 013e 790b 113d 9089 3cbd e831 3bbd
00000150: b0b9 a2bd 11cc 803d 3217 abbd 3d24 993d
00000160: 5a0f fa3d 843c 42be bb30 983b 4825 da3d
00000170: 3b1c f83b d2ed 283c c309 cfbc e59e a5bd
00000180: fcd8 263c 46a4 153e 057f fa3d ce7b 3a3d
00000190: 56ba 1b3d a791 223d 20dc 843d 1127 95bd
000001a0: b315 e1bb 3501 babd 462b 0a3d 5dad 4e3d
000001b0: 6d93 69bd ae94 a3bd daa2 bcbc b2d1 5abc
000001c0: 8ee5 ad3d a0fb 38bb 905b 973d c4b6 f93d
000001d0: bdc3 443d 38f2 033e ec81 05be 850f 763d
000001e0: f551 9abc de58 163e d27e b13d 1ace 04be
000001f0: 699c 04bd 9d77 273b 097d 583d 5bb1 e2bd
00000200: e1d7 87bc 2010 c73c 1efd eebc 0f9a ba3d
00000210: f5ca 9b3d d78b 51be a46b f2bd 107d 9dbd
00000220: 97b1 2a3d 7cd6 173e 9a69 53bd 43f6 12bd
00000230: 874a fa3d 1686 1abd f65e f63c 0992 9ebc
00000240: 304b babd dcf6 453d 36d5 383d 3fb1 103d
00000250: 4c1e 6abd 16db af3d 8c78 403d f3f4 283d
00000260: f6ec 433d d9cb 1f3d 10ba 073c 76dc 3a3e
00000270: 56fc c1bd c7a0 a3bc 9c73 ec3c b260 fd3c
00000280: 7e9c 8e3a 37ca 80bd 5e5c 4dbd 3924 453d
00000290: c8bf a5bd 1de5 a7bd ca87 94bd 43b4 853d
000002a0: 6e78 8f3d 91e2 413e a52a d2bd bc44 02bd
000002b0: b65f 36bd 8965 d63c ea1b 0b3e 89f3 68bd
000002c0: d068 42bc 7e5f abbd 1d2f 913d d856 0fbd
000002d0: 0b74 dbbd 3fc0 26bd d2af 92bd 7bd7 dbbc
000002e0: 12ff 67bd 1a3a 023d d339 7cbd f207 9e3d
000002f0: 973a de3d b8e4 3a3e 2637 0bbe 83fb 15bd
00000300: 792a 8fbd 4721 47bd d66f 04be d3f3 49bd
00000310: d0e3 0ebe 9462 e23d baff 1f3d 4e8d f83d
00000320: 53bb 65bd 0876 a4bd e6fa edbd 7197 493d
00000330: ff8d 213e 1197 e2bd c6d9 163c 67f1 b3bd
00000340: 8c0f 6c3c 8b53 dfbd 4ef1 c83d b602 a5bd
00000350: 39a5 3a3d 0c9a 0abe ae0c c93d dd15 0cbc
00000360: 6942 31bb 1bda 703d 8b15 44be 8f63 513d
00000370: df23 09be f5c7 3c3e baeb 913d 5633 01bd
00000380: 1b87 813d d64b e1bd 40eb 213e 2b1c d1bd
00000390: 6049 63be cf0d 803d 0792 82bc 774d 0bbe
000003a0: 3d8f dfbd b974 58bd ef09 eebc 7cca 21be
000003b0: 0042 93bd 06d1 d4bd c1aa 253e 14a0 813d
000003c0: e343 fdbc 1004 29be a735 3f3c b421 a9bd
000003d0: fd58 0fbe f7b1 883d 2a66 afbd f73e 2dbd
000003e0: 0627 a4bc c5ad 4ebe 7173 9f3b 1a02 91bd
000003f0: c2e5 ecbc bcd9 e93d 46da c53d bff5 8a3d
0.024088982 -0.044955194 -0.15493539 -0.12910332 0.057106473 0.053224288 -0.13436979 -0.04681118
0.12720695 0.023354758 -0.010432055 0.015689347 -0.11102054 0.047031812 0.08382738 -0.008470563
0.031284574 0.10354145 0.06228265 -0.12218502 -0.028547436 -0.12622932 -0.07096352 0.05494112
0.10960178 0.0054067946 0.039475393 -0.061955456 0.060978588 -0.043960232 -0.010699684 0.087127425
-0.006095691 0.026149347 0.010076551 -0.06454533 0.045155827 -0.024758678 0.21432738 -0.011612464
-0.2059522 0.11423815 -0.036104098 0.08055746 -0.028132 -0.030056568 -0.0208347 0.076082714
-0.038898356 -0.0056334217 0.047503993 0.24268578 -0.06908861 0.15165831 -0.10515836 -0.059958752
-0.09797492 -0.045360968 -0.05208288 0.010359625 0.022564959 0.13109817 -0.11071239 0.064714536
0.044622194 -0.0055015264 0.10220951 0.0023827387 0.15355441 0.063718036 0.041710526 -0.09096213
-0.13459487 -0.075073905 0.058368627 0.010564189 -0.13880348 0.09475644 0.08844293 -0.023529807
0.12632833 0.03541133 -0.046029627 -0.04570189 -0.07945573 0.062889226 -0.083540335 0.07477615
0.12209959 -0.18968397 0.004644481 0.10651642 0.0075717247 0.010310607 -0.02527321 -0.08086947
0.010183569 0.14613447 0.12231258 0.045528226 0.0380195 0.039689686 0.06487298 -0.07282842
-0.006869042 -0.090822615 0.033732675 0.0504583 -0.05702536 -0.07987343 -0.023026872 -0.013355659
0.0849105 -0.0028226152 0.07390511 0.12193063 0.048038233 0.12885368 -0.13037843 0.060073394
-0.018837908 0.14682338 0.08666767 -0.12969247 -0.032375727 0.0025553473 0.052853618 -0.11068984
-0.016582431 0.024299681 -0.02917343 0.091114156 0.0760707 -0.20463501 -0.11836937 -0.076898694
0.04167327 0.14827913 -0.05161438 -0.035879385 0.12221246 -0.03772553 0.030074578 -0.019356744
-0.09096372 0.048331127 0.04512521 0.035325285 -0.0571578 0.08586709 0.046989962 0.041249227
0.047833405 0.039012764 0.008284107 0.18248162 -0.094719574 -0.019974126 0.02886372 0.030929897
0.0010880379 -0.062885694 -0.050136916 0.048130248 -0.0809322 -0.08197997 -0.07252462 0.06528523
0.07005392 0.18934084 -0.1026204 -0.03180383 -0.04452487 0.026171463 0.13584867 -0.05687288
-0.01186581 -0.08367823 0.07089064 -0.03499493 -0.10715493 -0.040710684 -0.07162441 -0.026836148
-0.05663974 0.03179369 -0.061578583 0.07716359 0.10851019 0.18251312 -0.13595256 -0.036616813
-0.06990523 -0.04861572 -0.12933287 -0.049304795 -0.13954091 0.110539585 0.03906224 0.12136327
-0.05608685 -0.08030325 -0.11620121 0.04921669 0.15776823 -0.1106397 0.009207195 -0.08786278
0.014408004 -0.109046064 0.0981165 -0.08057158 0.045567725 -0.13535327 0.098168716 -0.0085501345
-0.002704764 0.05880175 -0.19148843 0.051120337 -0.1339259 0.18435653 0.071250394 -0.0315431
0.063245974 -0.11000793 0.15812397 -0.10210451 -0.22195959 0.06252634 -0.015938772 -0.13603769
-0.109159924 -0.05284569 -0.029057471 -0.15799898 -0.07190323 -0.103914306 0.16178419 0.063293606
-0.03091616 -0.16505456 0.011670507 -0.082583815 -0.1399879 0.06674569 -0.08564408 -0.042296376
-0.02003814 -0.20183475 0.0048660566 -0.07080479 -0.02891815 0.11418483 0.09660773 0.067851536

gru.bias_ih_l1 f4 [300]
00000000: 5988 f73d 0001 27bd af54 2a3d 59d1 d3bd
00000010: b965 66bd 26d4 c33d 5651 a73c f7de 8abc
00000020: e37c 99bd b2af b0bd 3d09 4c3d 0354 b13d
00000030: fcf0 403d c709 bd3c 7cf1 06bd 6428 323c
00000040: d266 383e 5040 33bd 8152 0d3d b043 f8bc
00000050: 6de0 2abb a2c6 a23c 99e3 8b3d 15fe aabc
00000060: 2abb 9fbd 9cbd d13d b13c ad3d 83da ce3d
00000070: 4bac 67bc b234 70bd 29be fabc 0743 0f3e
00000080: 0281 e43b ce5d 343b c81c be3d 78c9 b73d
00000090: c60d 413c a6aa 553d 0298 8dbd 0d4d 9f3d
000000a0: f45e 4c3c c81e 393d 3196 bc3d fce1 2bbd
000000b0: 3dfb f53c 38c6 bf3d cb0a 5abd 9a7f c03d
000000c0: 9ee0 29bd cab0 e13d 582e c0ba d145 083c
000000d0: f515 98bd 6e98 153e 9846 0fbd f9f4 8d3d
000000e0: e93d d2ba 4b48 50bd 0714 173d 4db7 42bc
000000f0: 1f81 32bc d63b 883d b0aa 133e f6a9 853d
00000100: 6334 273d c47a dc3b 684e 9eba 8554 55bd
00000110: afe6 a73d efeb 433d 110a 17bd bf23 fe3d
00000120: 5520 903c ea62 47bd 4eea 423d fca8 fa3c
00000130: 5e42 cd3d feec 353d 3f8a 8cbd 11be 3b3d
00000140: 1b1a e53d 111c bf3d e3ee d6bc 431c 8a3d
00000150: e78e febd 75e9 1b3e 8278 8b3e 4b50 673d
00000160: 63e4 93bb c2a7 81bd 2210 7abd 0766 32bd
00000170: 3eb3 d83c 4e4b 973c 01dd 033d 619a 36bd
00000180: 18bb cb3c 89ff bc3d 97d0 db3d a5da d9ba
00000190: 93d1 98be 7413 a1be 3c6a a7be 72e4 b2be
000001a0: c0c4 cabd 177b 6fbe 15a3 edbd c020 5dbe
000001b0: 7758 59be 154c 84be 96c9 2dbe 9a78 28be
000001c0: 3b3f 18be 92b4 c2bd 62de 67be 2505 e8bd
000001d0: db50 09be e1b3 27be e67b bfbd 6b7d 05be
000001e0: 6130 22be e412 66be bff5 40be 239b 14be
000001f0: c5f4 84be d409 6fbe 50d2 33be 5424 afbd
00000200: e610 a8bd 28ab afbe 1faa 31be 88f7 8ebe
00000210: 29bc 09be 1437 95be b84a 05be 79c5 25be
00000220: 0557 c3bd 2941 3fbe 49e1 d1bd ec2f 0cbe
00000230: d5b9 a2be 3906 61be 9fd2 1ebe d2bf 42be
00000240: 500c 8cbe f1eb babe b2e6 86be 1bdc c1be
00000250: 6383 9fbe 339b 10be 6de4 87bd 1e1a d2bd
00000260: 5b25 87be bb9d afbd 98eb 6abe 56ea 83be
00000270: 94b7 bcbd c5eb 8bbe 2779 4fbe f0f8 6ebe
00000280: 78ee 1abe 98ef 26be eed7 94be 42e2 3bbe
00000290: b4e8 cabd d077 92be d45c f2bd e7f5 e5bd
000002a0: f865 44be 673a 8bbe cbcf 65be e8b7 83bd
000002b0: 4eb9 ffbd f06f 9bbe 5233 2fbe 1bc7 87be
000002c0: 50d2 aebe 751d 86be 9228 44be f937 f6bd
000002d0: 6bbf e2bd 4688 adbe a70b a5bd e6cd f4bd
000002e0: ed0d 17be d4cd 02be 78f8 debe cd5a d8be
000002f0: 96ae 89be 0871 5cbe 6494 4ebe fad4 53be
00000300: 5dcb 23be 7ad9 2abe 2d97 b3be 20f4 8bbe
00000310: a0b1 48be a12c 51be b700 87be 220d 1ebe
00000320: e739 01be 258e 7eba fd24 e1bd b725 aebc
00000330: aa4b a13c 4084 003e 0ab4 65bd 2cd5 78bd
00000340: 7f23 193e e2d8 1cbe f593 633c 0606 88bd
00000350: c149 c23c fbad e43c 6329 d0bd c5c4 03be
00000360: 4e8d 353c 7fed ca3d 453e d63d f3fc 9e3b
00000370: 87b3 0bbe 366a cc3c 87b0 953d b492 343d
00000380: c3e1 60bd 9f9b 4cbd 677d 2a3e 3cd3 073e
00000390: 5bd2 a23d d699 5d3d b4ca c0bd c1cf cd3d
000003a0: 008e d43d f971 44bc 6cb1 ddbd 1e9a 69bc
000003b0: d46d e03c cc79 47bd 1bd8 6f3d 1c2a 6cbd
000003c0: 329c 173e 5e0b 363d bbfb e43d 17f9 13bb
000003d0: ba08 5bbd f891 223e 6143 983d 5c32 5b3d
000003e0: 01e5 27bd e5a7 a93c ddb6 b9bd d143 dc3c
000003f0: cc29 4d3d b0ea 0c3e d3ca 94bd 767a 10bd
0.12086553 -0.040772438 0.041584667 -0.10342664 -0.056249354 0.095619485 0.020424526 -0.016952021
-0.074945234 -0.08627261 0.049813498 0.08658602 0.04710482 0.023075951 -0.03294514 0.010873888
0.18007973 -0.043762505 0.03450251 -0.030305713 -0.002607371 0.019870106 0.0683052 -0.020873109
-0.077993706 0.10241243 0.084588416 0.101002716 -0.014140199 -0.058644004 -0.030608254 0.13990413
0.0069733867 0.0027521732 0.09282833 0.08973974 0.011783069 0.052164696 -0.06913759 0.07778368
0.01247381 0.04519537 0.09208334 -0.041963562 0.030027026 0.09363979 -0.05323295 0.09399338
-0.041473977 0.11020048 -0.0014662249 0.008317427 -0.07426063 0.14608929 -0.034979433 0.069314905
-0.0016040179 -0.050850194 0.036884334 -0.011884523 -0.010895043 0.06652038 0.14420581 0.06526558
0.040821444 0.006728502 -0.001207781 -0.052082557 0.08198296 0.047832426 -0.036874834 0.12409162
0.017593542 -0.048678316 0.04758673 0.030598156 0.10022424 0.044415466 -0.06862306 0.04583556
0.1118662 0.09331525 -0.026236957 0.06743672 -0.124296 0.15225776 0.27240378 0.056473058
-0.00451331 -0.063308254 -0.06105054 -0.043554332 0.026452657 0.018468525 0.032193188 -0.04458082
0.024869487 0.09228427 0.10733145 -0.0016620947 -0.29847392 -0.31460154 -0.32698238 -0.34939915
-0.09900808 -0.23386799 -0.11603371 -0.21594524 -0.21225153 -0.25839296 -0.1697143 -0.16452256
-0.1486787 -0.09507097 -0.22643426 -0.11329106 -0.1340975 -0.16377212 -0.093498036 -0.13036124
-0.15838768 -0.22468144 -0.18843745 -0.14512305 -0.25967994 -0.23343593 -0.17560697 -0.08551851
-0.08206348 -0.3431027 -0.17350052 -0.27923226 -0.13450684 -0.29143584 -0.13016784 -0.16188611
-0.09538082 -0.186772 -0.10248048 -0.13690156 -0.31782404 -0.2197503 -0.15510033 -0.19018486
-0.27353144 -0.36508134 -0.26347882 -0.3786324 -0.31154928 -0.14121704 -0.06635366 -0.10258888
-0.26395687 -0.085750066 -0.22941434 -0.25764722 -0.09214702 -0.27328315 -0.2026106 -0.2333715
-0.15130031 -0.16302335 -0.2907099 -0.1834803 -0.09907666 -0.28607035 -0.11834112 -0.11228543
-0.19179523 -0.27192995 -0.22442548 -0.06431562 -0.12486516 -0.3035884 -0.17109421 -0.26519093
-0.3414483 -0.2619435 -0.19156101 -0.12022395 -0.11071666 -0.3389303 -0.08058863 -0.119533345
-0.14751406 -0.1277383 -0.43548942 -0.42256775 -0.2689101 -0.21527493 -0.20173794 -0.20686713
-0.15995546 -0.16684523 -0.35076275 -0.2733469 -0.19599009 -0.20427181 -0.26367733 -0.15434697
-0.12619744 -0.0009710512 -0.10993383 -0.021258218 0.0196894 0.1255045 -0.0560799 -0.06075017
0.14954947 -0.15317109 0.013890256 -0.06641774 0.02371681 0.027914992 -0.10164144 -0.1286803
0.011081053 0.0990858 0.10461096 0.0048519312 -0.13642703 0.02495299 0.073090605 0.04408522
-0.054902803 -0.0499531 0.166494 0.13264173 0.07950278 0.054101788 -0.094136626 0.100493915
0.10378647 -0.011990064 -0.10824856 -0.014257936 0.02739612 -0.04870014 0.058555704 -0.057657346
0.14805678 0.044444434 0.11180826 -0.002257889 -0.05347512 0.15875995 0.074347265 0.053514823
-0.04098988 0.020709941 -0.090680815 0.026887806 0.05008869 0.13761401 -0.07265248 -0.035273038
