models/stock_rus_net_55kEpochs.ckpt (torch, 621279 bytes, 11 tensors)

encoder.weight f4 [167, 100]
00000000: fcaf 343f 85ee 493f 7c3c 14be 8ab5 bc3e
00000010: 58ad c8bf 144f 843e 3c81 aebf b2c5 263e
00000020: 3cbb 67be 3783 403e 6526 bfbf c000 4bbd
00000030: 5157 f83f 3b35 8ebe 2db6 033f c114 37bf
00000040: fbef df3e 587e f13f bc6f bbbf d5ec 2dbf
00000050: 5149 ad3f a2cb d0be f619 82bf 2821 c5be
00000060: 15a3 8bbe e8ef b73d 94bf 363e 6482 893f
00000070: eb83 7e3e 6600 efbd de4f 093f 40a0 2d3f
00000080: e8c0 1abf adf8 453f 143b f8bd 47fa ba3f
00000090: d519 ac3f 5bd2 e63f d3de 3fbf 4397 24bf
000000a0: cc4e 043f 7801 0dbb 2edc b4bf 61b3 49bd
000000b0: ab9d 19be 9f79 253f 94c9 bdbf abb3 44bf
000000c0: 242a 73be 493e ff3e d3eb 903e 310a 893d
000000d0: 9074 833e 86a5 ba3f 0fd0 60bf 9c16 273f
000000e0: 8e47 38bf 816f b0be fc0b 9cbf 1a5c 48bf
000000f0: df12 8fbe 28f8 8dbf be8c a7bf a196 5cbf
00000100: 7e99 ab3e a624 adbf fa89 a8bf 181a 6c3f
00000110: 155e 013f ec81 903f 2225 893f d17f 5e3e
00000120: 73dd 26bf f304 1abf 1c22 1d3f ea13 b3bf
00000130: 23de 82bf baf3 2e40 d26c db3e d693 0f3f
00000140: 771c 81be a85e fcbe 9422 043f b1a9 8abf
00000150: 7811 2d3e 03a2 03bf f433 93bf ab7b 02c0
00000160: 7f86 e9bf 45a2 a43e 7025 b7bd 0c62 1c40
00000170: 9125 73be b9a0 aabf 9d1b 80bf ccf8 963f
00000180: 37b9 1640 7c73 ad3f 4b4e 6bbf b895 e8be
00000190: 77ef 11be a8f9 293e 6325 cabd 63f5 87bf
000001a0: f8f9 7cbf 8a65 c7bf b11e a53f 50e0 d33e
000001b0: d1f1 173f aee8 0e3f daae d7be e81f fe3f
000001c0: d40c 7d3c ab21 49bf 234f 0240 eda2 61be
000001d0: 6280 933d 72b7 90bf 5f83 efbe 29d7 2ebf
000001e0: 9e16 293f a38e 353e 1314 ad3f a84a 0f3f
000001f0: 01eb 283e 0622 9e3f 3725 843f 3217 073e
00000200: 3e17 143f 1590 07be b7d6 373f 1b2f c63f
00000210: 135a 69bf b124 08bf 3e00 dcbd 42b8 953f
00000220: 3dc4 2440 449c a63e 2843 293f 3f76 ce3d
00000230: 44bd 6fbf 67f5 393f c0f7 823f bb5f 1740
00000240: 77d9 10bf 8312 1cbf c6ea 65be bd40 083d
00000250: 03d5 c0bd 1e6b 0840 4139 38bf 4aee 0740
00000260: 09a4 bebf fb6f 163f 36ed 66bf 6ad2 f23f
00000270: ef5e 9abd a36e 05be 411f 82be 5e97 f43f
00000280: 17f4 0340 4031 90bf 6bad 5a3d 6b46 313e
00000290: fc4f b2be 0d63 a33e f23b b53f 0c73 a13f
000002a0: b099 8a3e ac9c 08bf 0d7c b6bf b9b7 febe
000002b0: 97cd 35bf 4cd7 233f 57c2 8d3f bd86 14bf
000002c0: d65c 613f 809d 703f eb07 80bf fbcb d8bf
000002d0: 12cc ba3e 15a7 44bf bf72 4fbf 6b57 d93f
000002e0: f7af 20bf 3864 0a3c cf66 c53f efc7 803f
000002f0: 063d bf3f 5fdc e43e 4294 07bf cbe6 a03f
00000300: 6224 6c3f 8f1b 57bd ecc5 e2be 7bdd 933d
00000310: 1c63 803f 0b94 11be 4591 bebe 539d 1dbf
00000320: ae8c 95bf eb71 573f d94b cf3f f297 c03e
00000330: c6dd c03f 171f eebf eea4 2c3f b6e7 3d3f
00000340: dc36 cbbe ce0f 403f 4e20 d73e 0afd 15bf
00000350: 8ba7 763f 9620 87be c23d e2bf ecd6 803f
00000360: 9753 53bf 6b5a d0be ef4c 893f 2e04 ebbf
00000370: e95f 0c3f 243c 1dc0 20dc 9d3d c36b 783d
00000380: b88f 66be d2b1 b1be 31f7 29bf b807 a3be
00000390: 57e4 5abf aa3a 133f 694a 03bf 10eb 0b40
000003a0: a202 46bf b0a0 0f40 d2aa 173f b4a0 713e
000003b0: 99fc 4bbf 3fa9 07bf 32f8 32c0 32b7 1e3f
000003c0: 5a40 a9be 2de4 353f 0794 503e bb03 703e
000003d0: f0f4 3fbf 12e2 18bf c971 52bf eba2 d0be
000003e0: 7055 003e 6c52 8abe d29c fcbf 1937 b0bf
000003f0: a6c4 24bf c6ec 69bc 05a0 0840 b5cc 8bbf
0.7058103 0.78879577 -0.14476198 0.36857253 -1.56779 0.25841582 -1.3633189 0.16286352
-0.22630018 0.18800054 -1.4933592 -0.049561262 1.9401647 -0.27774987 0.51449853 -0.7151604
0.43737778 1.8866682 -1.4643474 -0.679395 1.3537999 -0.4078036 -1.0164173 -0.3850186
-0.2727286 0.08981305 0.17846519 1.0742917 0.2485501 -0.11669998 0.5363749 0.6782265
-0.604506 0.77332574 -0.12120643 1.4607629 1.3445383 1.8032945 -0.7494938 -0.6429331
0.51682734 -0.0021515768 -1.4129694 -0.049243335 -0.15001552 0.64638704 -1.4827142 -0.7683665
-0.23746544 0.49852207 0.2830492 0.06691397 0.25674868 1.4581764 -0.8781747 0.65268874
-0.71984184 -0.3446007 -1.2191157 -0.78265536 -0.27944085 -1.1091356 -1.3089826 -0.8616734
0.33515543 -1.3526809 -1.3167107 0.92227316 0.5053418 1.1289649 1.0714457 0.21728446
-0.65181655 -0.601638 0.6138017 -1.3990452 -1.0224041 2.733626 0.4285646 0.56084955
-0.2521703 -0.49290967 0.5161526 -1.0833036 0.16901195 -0.51419085 -1.150023 -2.038798
-1.824417 0.32155052 -0.089426875 2.4434843 -0.23744799 -1.3330299 -1.0008427 1.1794677
2.3550546 1.3550868 -0.9191634 -0.45426726 -0.14251505 0.16599143 -0.09870412 -1.0621761
-0.9881892 -1.5577862 1.2899991 0.41382074 0.5935336 0.5582379 -0.4212559 1.9853487
0.015444953 -0.78567 2.0360801 -0.22034808 0.072022215 -1.1305983 -0.46779916 -0.6829706
0.66050136 0.17730193 1.3521751 0.5597329 0.16495897 1.2354133 1.0323857 0.13192442
0.57847965 -0.13238557 0.71812004 1.5483125 -0.9115307 -0.53180987 -0.10742234 1.1696856
2.5744774 0.32541096 0.661181 0.100811474 -0.9364817 0.7264008 1.0231857 2.365218
-0.56581825 -0.60965747 -0.2245284 0.033264864 -0.09415629 2.131538 -0.7196236 2.123919
-1.489381 0.5876462 -0.90205705 1.8970463 -0.075376384 -0.13030486 -0.2541447 1.9108694
2.061773 -1.126503 0.05338804 0.17312019 -0.34826648 0.31911507 1.4158919 1.2613235
0.2707038 -0.5336406 -1.4256607 -0.49749544 -0.7101683 0.6400039 1.1074933 -0.58018094
0.8803228 0.93990326 -1.0002416 -1.693725 0.36483818 -0.76817447 -0.81034464 1.6979803
-0.627685 0.008446746 1.5422 1.0061015 1.4940498 0.4469938 -0.529606 1.2570432
0.92243016 -0.052516516 -0.44291627 0.072199784 1.0030246 -0.1421663 -0.37220207 -0.6156818
-1.1683557 0.841582 1.6195022 0.37615925 1.506768 -1.8603238 0.6743916 0.7418169
-0.39690292 0.75024116 0.42016834 -0.5858923 0.963494 -0.2639205 -1.7675097 1.0065589
-0.8254942 -0.40693983 1.0726603 -1.836065 0.5483385 -2.4567957 0.07708001 0.060649645
-0.22515762 -0.3470598 -0.6639281 -0.31841826 -0.8550467 0.5751139 -0.51285416 2.186222
-0.7734777 2.2441826 0.59245026 0.2359646 -0.7968231 -0.52992624 -2.7963986 0.61998284
-0.3305691 0.71051294 0.20368968 0.23438923 -0.7498312 -0.59719956 -0.8220487 -0.40749297
0.12532592 -0.27016008 -1.9735358 -1.3766814 -0.6436256 -0.014277643 2.1347668 -1.0921847

gru.weight_ih_l0 f4 [300, 100]
00000000: 802f 083c 13ae 063d b568 933d 3919 423c
00000010: 04d4 83bd 5995 8e3c 26a7 3c3d 92e2 1fbe
00000020: 82ee 1cbd 6fbc 843e 870d a9bd 50da d53c
00000030: c42b 063e d5e0 4f3e 98a1 4d3d d4a7 dd3c
00000040: 4b8c 03bc 1dd3 91bd 036d 17bd 8628 29ba
00000050: 88b9 07bd 8aeb 4cbd ebe2 a83d 7058 9e3c
00000060: d107 833c 1257 013e 70e0 873d 353a e63d
00000070: ea3b 7f3d 9265 3dbc 657b 8b3d 5d1d c53d
00000080: 09a1 04bd 054b 6c3d 858a 0cbd 8249 093d
00000090: 2216 15be 9ee7 1a3e 4265 d2bc bb6e debd
000000a0: c2e8 71be c30c 883d b9cc 05bd 386d 8e3d
000000b0: 5f84 9b3c fd73 45be 1535 44bd d6df 93bd
000000c0: 8585 5bbd 98dc 193c f435 ddbd 7322 4dbd
000000d0: 4b7f e7bb b6e0 8e3c bd25 7b3c d2f6 033e
000000e0: c69f 05be fae8 2f3e b039 c1bb 4e72 9b3c
000000f0: 4bfa dfbd 9ddc d23d c6f7 233c 05ac da3c
00000100: 1460 aebd c44e 023e 1258 943b aa7c 16bd
00000110: cc4f 1d3d fe2a 963c d3b1 55be b989 e33d
00000120: f8e5 073e 61f4 873d befa cf3d b9b1 2fbd
00000130: 1dc0 7e3d 1fb2 84bc 9f34 d83c 0ac9 bd3d
00000140: 8337 ad3d ba5c 71bc 956e 973d 4721 f13d
00000150: b8f4 f3bc 864e 5abd 643a 9bbc 53ea 8dbd
00000160: 712a 8bbb 9a26 dc3d 3fbb 3b3d 5a24 e8bd
00000170: 958e a23c d356 df3c 0815 c9bd 3d3c 43be
00000180: f18e b83d 95cd e0bd 4980 3e3d 68a4 703d
00000190: 26e6 13b9 cbf1 043e ebcd de3d 9e41 8b3a
000001a0: 9301 7dbd 3acb 323d 2236 1c3e 1deb b5bd
000001b0: 2e5e cbba 478e 3bbd 316d 4b3d 8907 49bd
000001c0: 6243 acbd 531f 0d3e 1986 46bd 4881 4c3d
000001d0: 01cc 24bd 87ee 9abd 2aa4 8fbd eee0 d9bd
000001e0: c049 333b 723d 36bb 7126 2cbc de0f 343c
000001f0: 3087 f5bd 1fe6 143e 072e 063d 02f9 e7bd
00000200: 695e cabc 6ad5 88bd bd26 9a3d c687 273e
00000210: 22c6 8bbd 2063 52bc 69b4 783d c40b 06bd
00000220: 17c9 3c3e 9e01 42bd 767b 113d caa5 a33d
00000230: 4d7f 203c 8025 323e 8834 803e 78b6 543d
00000240: c0ab 17bd ba85 2e3e 28a4 7d3b 2839 ddbd
00000250: c16d 513e 164f 85bd 596a 2cbd 278c 8e3d
00000260: 5937 06be 2c84 00be 7870 093a 5536 903d
00000270: ef45 c3bd f1ff 173d 2672 143d 8abe 9fbc
00000280: 376d 833d 1d2b 32bd 86f5 e7bd 2d19 1fbd
00000290: a8d5 f5bd 32d3 8c3d b4b6 39bd 7710 8ebd
000002a0: ed90 9b3b 60ba 95bd d03a 8cbd d7d0 313c
000002b0: 1d9f 383d c6b6 78bb ec43 24bd b1a8 9abd
000002c0: 284e 13bd e348 d83d 7010 42bd 0503 3ebd
000002d0: 872f 12bd 95f4 0e3d 814c 8fbc d743 a6bd
000002e0: 7269 eebc d687 f1bd 8f91 c53d 348a 8f3d
000002f0: 2302 583d 9cca 84bd 4ff9 913c e13c 97bc
00000300: c954 6b3c 9f17 d6ba e989 7f3d 5c7d 0d3d
00000310: ab77 0f3e 53e7 f5bd 5cf7 463d 2072 813d
00000320: c544 cd3c e1b8 b5bd b211 2bbe f0cf ecbc
00000330: 1970 2cbe 2bd2 883d c06d 58bc a275 34bd
00000340: 3cf1 0ebe 50c7 fbbd 3fc6 84bd ea8d 60bd
00000350: 79f8 ecbd 550c 6a3d 66a2 4cbd 65d0 7abd
00000360: 9b73 223d 0904 703d fdc5 7ebc 9c04 2cbe
00000370: 44cb 37bd 8ecb b739 95d3 8abc aeda 7dba
00000380: f071 2dbe 1023 a43c c441 7a3d 7d8d 09be
00000390: d201 4e3d b2cb 95bd 789f 9abc 0f49 88be
000003a0: 991a c1bd 1546 793d e865 cbbb d42e c4bd
000003b0: 6765 6c3d 5fa8 c9bb c0fc c2bd d25c c53d
000003c0: a006 10be aae1 b83d 7d00 8bbd 33a5 adbd
000003d0: ce53 5b3e 2e96 b13d 2936 b03d 7c9d 17be
000003e0: 3230 53bd 14f8 14bc d3f6 d53c 6a2b 07bd
000003f0: 6093 ce3c a114 06bc 8b67 d43d e8a1 e53c
0.008312106 0.032880854 0.07197706 0.011846834 -0.06436923 0.017405199 0.046057843 -0.15613773
-0.038313396 0.25925013 -0.08254533 0.026105076 0.13102633 0.2030061 0.050202936 0.027057566
-0.008029054 -0.07120345 -0.036969196 -0.0006452877 -0.03313592 -0.050029315 0.08246406 0.01932928
0.015994938 0.12630871 0.06634605 0.11241571 0.062312998 -0.011559861 0.06810645 0.09624741
-0.032380138 0.05768873 -0.03431179 0.03351737 -0.14559224 0.15127417 -0.02568305 -0.10860964
-0.23623946 0.06643059 -0.032665942 0.069544256 0.018984018 -0.19282527 -0.047902185 -0.07220428
-0.05359413 0.009390973 -0.10801306 -0.05008168 -0.007064735 0.017441135 0.015328822 0.12887123
-0.1304923 0.17178717 -0.0058967695 0.018975403 -0.109364115 0.10295985 0.010007804 0.026693353
-0.08514419 0.12725359 0.0045271004 -0.036739983 0.03840618 0.018331047 -0.20868616 0.11110253
0.1327132 0.066384085 0.10155247 -0.0428941 0.062194932 -0.016198216 0.02639228 0.09266861
0.08457854 -0.01473158 0.07394139 0.11773925 -0.029779777 -0.053297542 -0.018948741 -0.069294594
-0.004247003 0.1074955 0.04583287 -0.113350585 0.019843379 0.02726308 -0.098184645 -0.19065948
0.09011639 -0.10976712 0.04650906 0.05875054 -0.0001410475 0.12982862 0.108791195 0.0010624414
-0.06176908 0.043650843 0.15255025 -0.08882735 -0.0015515739 -0.045789983 0.04966468 -0.04907945
-0.0841129 0.1378148 -0.04846773 0.04992798 -0.040233616 -0.07565027 -0.07013734 -0.10638605
0.002735719 -0.002780762 -0.010507212 0.010990111 -0.119886756 0.14540909 0.03275874 -0.11326791
-0.024703221 -0.066813305 0.0752692 0.16360387 -0.068249 -0.012841016 0.060718928 -0.032726064
0.18436085 -0.047364824 0.035518132 0.07990606 0.009795976 0.17397118 0.25040078 0.05193183
-0.037029028 0.170432 0.003870258 -0.10801917 0.20452024 -0.06509225 -0.04209361 0.06960326
-0.13107051 -0.1255042 0.00052428944 0.07041613 -0.09534823 0.03710932 0.036241673 -0.019500036
0.064173155 -0.043498147 -0.11326127 -0.03884237 -0.12003642 0.0687622 -0.045340255 -0.06936734
0.004747501 -0.07310939 -0.06847155 0.010853014 0.045073617 -0.0037950738 -0.040103838 -0.075517066
-0.035963207 0.10560777 -0.047378957 -0.0463896 -0.035689857 0.03490122 -0.017492535 -0.08118408
-0.029103015 -0.11793487 0.09646904 0.07008782 0.052736413 -0.06483957 0.017819075 -0.018461647
0.014363476 -0.0016333944 0.06238738 0.03454338 0.14010493 -0.12007012 0.048575744 0.06320596
0.025057206 -0.088731535 -0.16705969 -0.028907746 -0.16839637 0.06680711 -0.01320976 -0.044057496
-0.13959211 -0.12293875 -0.06483125 -0.05482284 -0.1157083 0.057140667 -0.049959563 -0.061233897
0.03966103 0.0585976 -0.015550134 -0.16798633 -0.044871584 0.0003505614 -0.016946593 -0.000968377
-0.16937995 0.02003625 0.061097875 -0.1343288 0.050294705 -0.073142424 -0.018874869 -0.2661824
-0.09428901 0.06085785 -0.0062072165 -0.09579244 0.057713892 -0.0061541046 -0.095208645 0.09636845
-0.14065027 0.09027417 -0.067872025 -0.08478775 0.21418688 0.086712226 0.0860408 -0.1480617
-0.051559635 -0.00909235 0.026118672 -0.033000387 0.025216758 -0.008183629 0.10371312 0.028031304

gru.weight_hh_l0 f4 [300, 100]
00000000: 68c8 0b3d be15 b13c f0f2 49bd 35c6 653d
00000010: b702 49bb 0e08 fdbd cb9f 7ebb 8518 a8bd
00000020: 85d1 a0bd a862 1fbd 294b 69bd 49de b0bd
00000030: ea0b a13c 814c 013e 406d 80bd 30c5 1d3d
00000040: a662 6b3d 4c7d 28bd 5b85 0dbd 5e58 9a3c
00000050: 4cc6 023d bbab a23d a500 783d fe47 6fbc
00000060: 6fe0 bfbc fd12 203d bf49 c33d 7e58 243d
00000070: dce2 c5bc ae56 a9bd 2ff1 fdbd ff9c 3d3d
00000080: 5806 a53d 1adb 233d b1e8 f53c 50be 003c
00000090: 585e 28bd fe8b f63c 6542 bd3d 9128 4abd
000000a0: 7d7b bf3b 3e6a 2fbd 1b68 0bbb 1ac0 19be
000000b0: 219b b1bc 9a89 a3bc 7f5d 86bd 5ea5 3ebd
000000c0: cfc0 8abc b0db 01be a3e9 313e 075a 08bd
000000d0: 009c ab3d a52a 30bd 383e ceba 69f8 a0bd
000000e0: 3909 a03d 0919 973c 9e4b 0d3e 1632 7e3d
000000f0: 8e1a 4bbc 840e 873d b05f 543d 64b7 543d
00000100: f060 0f3d f054 e1bc 38ed 3cbd ef26 5bbc
00000110: 16fb de3d 2a0d 9fbd ee43 163d 6595 3cbc
00000120: 835b ab3d 5501 8bbd 4931 f73d 87bb 15bd
00000130: 6b4a 05bc 5d72 95bd 7c66 c3bd 4a26 1ebe
00000140: 5bfe c8bc 8b13 363c 6ded 81bd 8b05 953d
00000150: d8f2 3a3d ad17 eb3d 2be4 39be 9ac1 4e3d
00000160: 43d3 cabd ac9b 4cbd 0922 52bd e56a 843d
00000170: ebed 923d 6042 ad3c 4ea6 abbb 9065 eb3c
00000180: 046e 36bd c498 053d 3462 1a3d cc69 bcbc
00000190: 9e90 e63d e39f b03d 39fe 4fbe cdb0 923d
000001a0: 43b2 05bd bcce c1bc faa5 11be e567 7fbd
000001b0: 82db 02be cc3a 4fbc 6367 5bbd 99cd 21bd
000001c0: 23e3 64bd 0347 9dbd 4c2d acbd 4f24 34be
000001d0: 47a1 8c3d b28c 5eba b1fb bd3d e3b6 08be
000001e0: 43b9 6bbd 428f cdbd 11ff f83c de37 80bd
000001f0: dd4d dabc ffb9 af3c 608c bbbd e842 03bd
00000200: d307 e2bd 736e 843d 1311 17bc 202e 8f3d
00000210: f033 31bb 17a4 983d 66cd 8f3d 1fe7 38bd
00000220: 6f0a cd3d 2033 933d 6bac 41ba 21c2 d2bc
00000230: 91c3 9b3d 58e7 6f3d 4fb2 0e3e b267 0fbc
00000240: 85e6 7b3c 4338 0a3e e747 65be c4f2 f93d
00000250: c66c 58bc fd33 d2bd 4b6c 4dbd dbb0 993c
00000260: 1949 dc3d 9b3b 913d 591a 743d f1e1 7dbd
00000270: c00f 293e dce7 923d cce4 593d 8116 c33d
00000280: 45ae 3c3e 3814 16bc bc9f 38bd 5d74 09be
00000290: 8654 2c3e 86eb ddbd 6ea9 f73b ff37 aa3c
000002a0: 0085 a0bd 29dc ce3d 86f7 36bd 9433 c4bd
000002b0: 99d1 b13c 924a ba3c 8be6 36bd a115 f6bd
000002c0: da98 81bd 6017 96bc 896c 253e 76b8 03be
000002d0: ad7a 7b3e 8440 213e 3656 2bbd fcba cfbd
000002e0: 9c7b 203d b629 a33d 3d80 e9bd b6c8 793d
000002f0: 1e89 20bd 48f3 ee3c 4a10 aa3c ba7d 8d3d
00000300: cf0f 0c3b 39fb 843d eb3c 9a3c 55e1 0fbe
00000310: cb74 81bd 02c0 71bd 6282 603d 9627 bbbd
00000320: 9d43 46bd 245c 05be 14c4 a93d 6b3c 7c3d
00000330: be6d 863d 9f95 ddbb 449e ee3b c653 07bd
00000340: 0a1d 8b3b 270b f93b 289a 34bd 2a14 19be
00000350: 088f 463a 3343 a23d c99a 97bc 6ed4 e4bd
00000360: e974 103c 007f 8d3d fe6a f6bb 3185 823e
00000370: 1ccd 4f3c d754 0ebb 061d 07bd 62d9 df3d
00000380: a86c 0dbe c7a9 b4bc b4b0 18be d9e6 cdbd
00000390: 0183 27bd 3546 b83d de98 863d f9cb 613d
000003a0: d8b2 43bd 803b ef3d 8a25 89bc 4348 2d3d
000003b0: fa70 bd3d 810e bb3d 1861 3dbd 45b3 7a3d
000003c0: 8159 d13c 43e4 4b3d 8831 86bc 1482 ce3d
000003d0: f833 c33c bbd9 333e 5f96 2cbc f96f 143d
000003e0: d43b 20bd 7e29 e93c eeeb 983c 8c5e 5b3d
000003f0: 527a 003e 21d8 7dbd 0944 373d 255a 61bd
0.03412667 0.021616813 -0.04930395 0.056097228 -0.0030671784 -0.12355052 -0.0038852568 -0.08207802
-0.07852463 -0.038912445 -0.056956444 -0.086361475 0.019659001 0.1262684 -0.06270838 0.03851813
0.057467125 -0.041135117 -0.034551006 0.018840965 0.031927392 0.07942911 0.06054749 -0.014604567
-0.023422448 0.03908061 0.0953555 0.040123455 -0.024156027 -0.08268486 -0.12399518 0.0462923
0.080578506 0.040003873 0.030018182 0.007857874 -0.0411056 0.03009605 0.092411794 -0.049355093
0.0058435784 -0.04282593 -0.0021271768 -0.15014687 -0.021680417 -0.019963074 -0.06560802 -0.046544425
-0.016937641 -0.1268146 0.17374282 -0.03328898 0.08379364 -0.04300942 -0.0015735095 -0.078598805
0.07814259 0.018444555 0.13798377 0.062059484 -0.012396468 0.065945655 0.051849067 0.051932707
0.035004556 -0.027506322 -0.046124667 -0.013375982 0.108877346 -0.07766183 0.036685877 -0.011510228
0.08367064 -0.067873634 0.12069947 -0.036555793 -0.008135418 -0.07297204 -0.09541032 -0.15444294
-0.024535349 0.011113058 -0.063441135 0.07276448 0.04564175 0.11479125 -0.18153445 0.0504776
-0.09903576 -0.049953148 -0.05130199 0.06465701 0.071742855 0.021149814 -0.005238331 0.028734952
-0.044538513 0.03261639 0.03769131 -0.022999667 0.11258052 0.08624246 -0.20311822 0.07162628
-0.032640707 -0.023658149 -0.14223471 -0.06235494 -0.12779048 -0.012648296 -0.053565394 -0.039502714
-0.055880677 -0.0767956 -0.08407077 -0.17591976 0.06866699 -0.0008489593 0.09276522 -0.13351016
-0.057549726 -0.1003709 0.030395063 -0.06260656 -0.026648456 0.021450995 -0.09157634 -0.03204623
-0.110366486 0.06466379 -0.009220379 0.069912195 -0.0027039014 0.07453173 0.070215985 -0.04514229
0.10011756 0.07187486 -0.0007388058 -0.025727334 0.07605661 0.058570236 0.13935207 -0.00875275
0.015374784 0.13498025 -0.2239071 0.12204507 -0.013209527 -0.10263822 -0.050152104 0.01876109
0.1075613 0.07091447 0.05959544 -0.061983053 0.16509914 0.0717313 0.053196713 0.09525777
0.18425854 -0.009160094 -0.04507421 -0.13423295 0.16829118 -0.10835938 0.0075580394 0.020778654
-0.07837868 0.10100586 -0.04466965 -0.0958015 0.02170639 0.022740636 -0.044653457 -0.12015844
-0.06327982 -0.018321693 0.16154684 -0.12863335 0.24558516 0.15747267 -0.041830264 -0.10143086
0.039180383 0.0796694 -0.11401413 0.06098243 -0.039193265 0.02916874 0.02075972 0.06908746
0.0021371727 0.064932294 0.018827876 -0.14050801 -0.063211046 -0.059021004 0.054811843 -0.0913841
-0.048404325 -0.1302343 0.08289352 0.061581057 0.065639004 -0.006762221 0.0072820503 -0.033038877
0.004245405 0.0076002064 -0.044092327 -0.14949098 0.0007574414 0.079229735 -0.018506425 -0.1117333
0.008816936 0.06908989 -0.0075200787 0.25492242 0.012683179 -0.002171805 -0.032986663 0.10930134
-0.1381098 -0.022053612 -0.14911157 -0.10053796 -0.04089642 0.08997766 0.06572126 0.055126164
-0.04777798 0.116812706 -0.016741533 0.042305242 0.09250064 0.09133626 -0.046235174 0.06120612
0.025555374 0.049778234 -0.01638104 0.10083404 0.023828492 0.17563526 -0.010533898 0.036239598
-0.039119557 0.028462168 0.018667188 0.053556964 0.12546661 -0.061973695 0.044742618 -0.05501761

gru.bias_ih_l0 f4 [300]
00000000: ff64 c63d 214a 113d 42d9 acbd e3c7 e83d
00000010: 2406 ee3d f669 563e 5cf3 f93b 2abd a5bc
00000020: 1a00 fa3d 8d2b ebbc 2aa0 d43d 5ea1 333c
00000030: e16e 0b3b 1171 0a3d 06f2 133e ad15 f73c
00000040: 32f2 c2bd 7722 573d 79e6 85bc 699f 103e
00000050: d45e 8abc e168 6fbd ac43 e23b d7ee 6f3c
00000060: 8630 533d e8ea 023e 9020 ae3d accd 173e
00000070: 0bfd b63d 6b70 de3c d5a6 553c d317 113c
00000080: 2ceb ecbb c839 5a3d e099 463e d091 283d
00000090: c700 083e 6d99 e63d 6290 a138 5dfd 663c
000000a0: 1ba5 ba3d 40d1 5b3d 7520 3c3d 74d1 0e3d
000000b0: 5bc0 033e 5e44 ecbc 4c6f e03d ff8e 093c
000000c0: f3d3 d33d fa06 fa3c e095 063c 2925 be3d
000000d0: 428c d4bc d674 7b3d 7aa5 26bd 3f3e 013e
000000e0: c5d6 043e 2640 af3d f19d 553d 3968 d43d
000000f0: 159a d33d 86c1 0d3d 592a f6bc 45b1 cc3d
00000100: df48 b5bb 8e55 053e 7555 2ebd 438f 2b3e
00000110: 1799 153d 2824 4b3d def6 a13d dc93 2dbc
00000120: a84c 393d 9592 dd3c b931 b7bc bbaa d93d
00000130: 9f68 82bd 6e74 15bc 4ded c03d 074b 833d
00000140: d837 c93c 6b1d 573b 65bb 14bd 73e7 a73d
00000150: f5fe 1f3d 643b f93d d3e2 4f3d 7404 1f3e
00000160: e04b c03d 4646 df3c 24a8 a43d 08ed d43d
00000170: 1e6b a33d a7f3 39bc 0169 3a3e bd2c 013e
00000180: a4fd 2b3d 0545 82bd b4a5 03bd 2215 153e
00000190: f1be 7bbd f365 a5be cdca 20be a2d2 0abe
000001a0: 503f 04be 1574 3cbe 8fc1 74be bce3 92bd
000001b0: 24c9 673c d344 64bd 677c 60be e7f1 44be
000001c0: 6721 23be 6fdb cdbd 0301 13be 3013 2abe
000001d0: 738c 53be 8f9e 82be cf74 6bbe 4b33 f5bd
000001e0: 03b1 0fbe 36d0 69be 89dc 98be adc7 31be
000001f0: 1008 99be b6a8 8dbe 340b 29be 5cb8 92be
00000200: 7c58 02be a34d 14be e469 febd 1787 c7bd
00000210: cbb2 5cbe 327c 91be 5a60 85be 82fe 8dbe
00000220: 64c7 17be 018f 89be 0ece 67be f03f afbe
00000230: 4e35 68be a55e 05be 6fca 9ebe 45ce 74bd
00000240: d363 4fbe 2e76 29be c1a2 1abe 913b 8dbe
00000250: 72c5 17be 0daf 2dbe 5e85 32be f535 04be
00000260: 2a33 d6bd f661 8bbe cd40 d4bd baa7 44be
00000270: 0ece 61be 6699 8bbd b637 32be b11c 0cbe
00000280: a144 adbd fe53 83be 62f0 64be a018 18be
00000290: 5fc1 5ebe aba8 c2bd e841 ccbd 5d50 48be
000002a0: 4cad 3dbe 85d2 75be 2859 1fbe 5ab8 a3be
000002b0: 5b54 4ebe 252c debd 31ff c5bd f062 a0be
000002c0: 3835 5cbe 0e2f d9bd 17c4 3fbe d946 2abe
000002d0: 48fa 54be a9ed b8bd 37d2 83be 99d5 23be
000002e0: ac89 6bbe ad32 76be 99a4 45be d413 1ebe
000002f0: b52f fbbd 32f4 10be c4ab 9abd c1ab 95be
00000300: 7a90 77bd 8f0d 77be d804 22be dc11 2bbe
00000310: 0b81 48be 429e eabd 027d 82be 1676 7bbe
00000320: 2217 eebc 034f 293e 6b3d 053d 7ae1 b03c
00000330: 6c46 f53d 0a64 edbd 91cc bbbd 3553 f6bc
00000340: b3cf 17be 0c81 f8bc 7d11 0cbe de6e e3bd
00000350: 6859 31be c05f 3fbd 8d3a 34be e3c7 5cbd
00000360: a5c0 f53d d2fb f73d 5e7d 733d 473b b0bd
00000370: d151 303e 5834 b43d 5e93 babd c2e7 e0bd
00000380: 40d0 41be 60f0 2e3d 6f70 aebc eb9e 15be
00000390: 2f3e 08be 11cd 85bc 7c0d 5a3d 1887 473d
000003a0: 8585 013e 24bd 1abd 5554 8cbd 3e0e e73d
000003b0: 5f9c f9bd f578 0abd a275 3bbe 383b 71bd
000003c0: a661 82bc e2fe d53d 7f7c 1f3e 9819 a7bd
000003d0: 022f 2dbd 538c 02ba c72c e9bd 9c4d 89bd
000003e0: 4590 2dbe eec5 30bc 03c2 e5bd 6625 9a3c
000003f0: a394 f73c bbf2 093e 4b7c b3bd 7374 81bd
0.09687232 0.035471085 -0.08439876 0.1136625 0.11622265 0.20938858 0.0076278877 -0.020231802
0.122070506 -0.02870729 0.10382111 0.010963766 0.0021275806 0.033799235 0.14447793 0.030161703
-0.09518851 0.052523103 -0.01634525 0.1412331 -0.01689092 -0.05844963 0.00690504 0.014644346
0.051559947 0.12784922 0.085023046 0.14824551 0.08934983 0.027153214 0.013040264 0.008855778
-0.007230183 0.05327776 0.19394636 0.041154683 0.13281547 0.112597324 7.703972e-05 0.014098492
0.091135226 0.053666353 0.04592939 0.03486772 0.12866347 -0.028841194 0.10958728 0.008395909
0.103431605 0.030520905 0.008214444 0.092844315 -0.025945786 0.06139072 -0.040685154 0.12621401
0.12972553 0.08557157 0.052152578 0.103714414 0.10332123 0.034608386 -0.03004949 0.09994749
-0.0055323686 0.13020918 -0.042561967 0.16753869 0.03652295 0.04959503 0.07908414 -0.010594334
0.04523912 0.027047435 -0.022362577 0.106282674 -0.06367611 -0.009121997 0.094202615 0.06410795
0.024562761 0.003282393 -0.036311526 0.08198442 0.039061505 0.12169531 0.050753426 0.15529042
0.09389472 0.027255189 0.08039883 0.103967726 0.07979415 -0.011349595 0.18204118 0.12614723
0.041989937 -0.06360821 -0.03214045 0.14558843 -0.061461393 -0.32304344 -0.15702362 -0.13556913
-0.12914777 -0.18403657 -0.23901962 -0.07172343 0.014147077 -0.0557297 -0.21922456 -0.19232903
-0.1593071 -0.10051619 -0.14355855 -0.16608882 -0.20659046 -0.25511596 -0.22993778 -0.11972674
-0.14032368 -0.22833332 -0.29855755 -0.17361327 -0.29888964 -0.2766778 -0.1650818 -0.2865628
-0.12729067 -0.14482741 -0.12422541 -0.09742563 -0.21552579 -0.28415066 -0.26050073 -0.27733237
-0.14822155 -0.26866916 -0.22637197 -0.34228468 -0.22676584 -0.13024385 -0.3101382 -0.059767026
-0.20252924 -0.16548988 -0.15101148 -0.27584508 -0.14821413 -0.16961308 -0.17433688 -0.12911208
-0.104589775 -0.27223176 -0.10363922 -0.19204608 -0.2205126 -0.06816368 -0.17404065 -0.1368282
-0.084603556 -0.25650018 -0.22357324 -0.14853144 -0.21753453 -0.09504827 -0.09973508 -0.19561906
-0.18523139 -0.24006088 -0.15561354 -0.31976587 -0.20149367 -0.10848264 -0.096678145 -0.31325483
-0.21504676 -0.10604678 -0.18727146 -0.16628589 -0.207986 -0.09029705 -0.2574632 -0.1599945
-0.23001736 -0.24042769 -0.1930107 -0.15437251 -0.12264959 -0.14155653 -0.07552293 -0.292326
-0.060440518 -0.24126266 -0.1582216 -0.16706032 -0.19580476 -0.114559665 -0.25485998 -0.24556765
-0.029063765 0.16534047 0.032529276 0.02159189 0.119763225 -0.115913466 -0.09169877 -0.030068973
-0.14825325 -0.030334972 -0.13678546 -0.111051306 -0.17319262 -0.046722174 -0.1760046 -0.053901564
0.11999635 0.12108578 0.05944573 -0.08605056 0.1721871 0.08799046 -0.09110139 -0.10981704
-0.18927097 0.04270971 -0.021293847 -0.14611404 -0.13304971 -0.016333135 0.053235516 0.04871282
0.1264859 -0.037778035 -0.068520226 0.11282013 -0.121880285 -0.03380676 -0.18306592 -0.058894366
-0.015915703 0.10449006 0.15574835 -0.081591785 -0.04228116 -0.00049800164 -0.11385494 -0.06704256
-0.16949566 -0.010789378 -0.112186454 0.018816661 0.030222243 0.134715 -0.087639414 -0.06321039

gru.bias_hh_l0 f4 [300]
00000000: 5b08 c23d 05b4 a13d 1473 7fbd dbaa 453e
00000010: 8314 843d c301 183e 7629 a33d ed9d e9bb
00000020: a5b3 3b3c dc5c 00bd 81c5 803d ab8c 9e3d
00000030: 60f1 b7bb ee06 683d df74 873c 249f 00bd
00000040: 0862 b5bd bfe8 163e c17a dd3d 74bb b73d
00000050: e9be 2bbc 4bed 033e e39d 913c c131 1c3e
00000060: 308b 9dbc aa8b e53d e0f9 f63d 399f 913c
00000070: c389 abbc 625e 3d3d 62bf 3abd 71c1 af3d
00000080: eb63 1cbd 0a66 8dbc 1c47 313e d113 d43c
00000090: 74ab 973d 4fe8 b53d 334c b03d 71f3 613d
000000a0: 1847 fbbc 593e 763d ed4b bc3d 30cc a73d
000000b0: ddb1 6a3c 987a 7c3c 9266 d5bc 3d19 febc
000000c0: 5598 263c 14a7 313d 30aa 4b3c 9dcc 0bbc
000000d0: 9808 bf3c 4deb d43d 05cf 24bc c7b6 033e
000000e0: 8471 813c c2c2 af3d 18b1 a93d e1bd c63c
000000f0: ac15 04bd 1496 a13d 8c3c 923d 6fa5 6ebc
00000100: 857c 073e 80e8 f33d 9d7c f33d 4b9a 9f3d
00000110: a8b5 2b3e 9df4 a33d b40b be3c 7eee a33d
00000120: 46b4 493e 3ba4 bc3d c110 ec3c cb4d 7bbd
00000130: d02a 56bb 5b92 be3c dabf babc 5f59 003e
00000140: 0f51 f0bc 86fd 203e 4e1b b73d d358 dd3d
00000150: 1cc6 213d c3c4 2fbd 334e 193e c043 003e
00000160: 31e4 d4bc e3ad 163e 5947 cfbb e997 8e3d
00000170: d080 9cbc a3a6 d23d c7b7 fa3d 156e 063e
00000180: 1847 fabb dcc7 04bd e2be e83c 5438 213e
00000190: a45a 0abe 5835 babe 0664 9ebe 6929 41be
000001a0: 3d92 64be da64 35be 21f1 4ebe 4fa9 19be
000001b0: 5cc8 06be 3b95 1fbe 9aa4 4fbe cade 0dbe
000001c0: 2244 0fbe f4e1 04be 586d 5dbe 2471 41be
000001d0: 1c25 84bd 4a9b 79be 8229 b9bd eb1f 72be
000001e0: d3d7 0cbe 4108 19be b6e8 33be d147 e2bd
000001f0: 17a9 78be 9d14 5ebe d558 80bd b887 a5be
00000200: 0a7a b8bb 929a c5bd ab3c 733c dad7 83be
00000210: ee35 69be be98 21be 886d 37be 8635 33be
00000220: c42f fabd 8729 37be 52dd 82be 6b80 57be
00000230: 4ace 1fbe b687 14be 6597 96be 5422 96bd
00000240: 24a2 99bd 57a6 47be 661c ffbd 2cb8 96be
00000250: 058b 96be c8ee 7dbe 3832 08be 77d0 adbd
00000260: d808 eabd bc62 4ebe ce56 03be daf1 47be
00000270: 232b 89be 048a 85bd 8f15 87be aa1f 48be
00000280: 73d7 a8bd de90 08be 8f1a e6bd 8b45 0abe
00000290: bcef 04be 4765 4cbe dd23 e8bd beb5 3bbe
000002a0: c56c 82be 2918 39be 4bd9 bfbd 1b0c 2ebe
000002b0: 01f2 53be 6e28 efbd f53a 90bd fd5d 04be
000002c0: 0d3b a2bd da46 ffbd 864f 23be 8645 72be
000002d0: f056 4ebe 63d0 5abd 59a3 8fbe 0d7e 5cbd
000002e0: 2b7f 3fbe cf40 4ebe 4bff 8bbe 516e 2dbe
000002f0: 74e0 48bd df06 38be 8f5b 4fbe 4646 6fbe
00000300: 21f4 19be 7ee0 80bd ad35 0dbe b357 2fbe
00000310: e272 48be 5289 e4bd d81c 88be bca1 83be
00000320: 0c19 dbbd b512 bc3d 91a6 293c ff56 d9bd
00000330: 29c4 79bc 6af6 97bd 1d4a 04be 4ce0 753d
00000340: 89b8 4bbe 4859 ea3a cf9d 843d 89ab 3c3d
00000350: 1639 dcbd 88b5 acbd e934 6fbd c7a8 11be
00000360: 77f6 983c 5699 d03d cf98 1d3e 5914 823c
00000370: 6687 253e f718 c43d c71f 2bbe 9caa 7ebd
00000380: 8f17 43bd ae39 883c 498d 303c 9e8c 3dbe
00000390: 6bec bdbd 8e79 763d a4bc 00be 5fea a13c
000003a0: 3603 8a3d 8c86 743d fcb5 59be 3d25 113e
000003b0: 050e f9bd c5ec 64bd 1343 a4bc 33ef 43bd
000003c0: b553 2dbb bda7 6f3d c32c b63d 8fe8 b13d
000003d0: 5b58 a7bd ea43 44bb a0f0 dfbd 6b8a 52be
000003e0: a98d 37bd f4b1 923d 28fc c8bc 89af e9bd
000003f0: ebff 6a3d be37 3b3e f7a1 42bb 3a04 583c
0.0947425 0.07895664 -0.062365606 0.19303457 0.06449225 0.14844422 0.079668924 -0.007129422
0.011456405 -0.031338558 0.06287671 0.07741674 -0.005613491 0.056647234 0.01653522 -0.03140177
-0.088565886 0.14737223 0.10814429 0.08971301 -0.010482528 0.12883489 0.017775482 0.15253355
-0.019231409 0.112082794 0.120593786 0.017776119 -0.020939713 0.04623259 -0.045592673 0.08581818
-0.038181227 -0.01726057 0.17312282 0.025888355 0.07405749 0.088822 0.08608284 0.055163804
-0.030673549 0.060118053 0.09194169 0.081932425 0.0143246325 0.015410088 -0.026049886 -0.031017894
0.010168155 0.04337223 0.012430713 -0.00853267 0.023319528 0.103964426 -0.010059123 0.12862693
0.015801199 0.08582069 0.08285731 0.024260463 -0.03224723 0.07889953 0.07140455 -0.01456581
0.13231094 0.1190958 0.118890025 0.07793101 0.16768515 0.08005641 0.02319894 0.08004473
0.19697675 0.09211012 0.028816583 -0.061353486 -0.0032679327 0.023263147 -0.02279656 0.12534092
-0.029335527 0.15721712 0.08940755 0.108079575 0.039495572 -0.042912256 0.14971237 0.12525845
-0.025987716 0.1471477 -0.006325644 0.06962568 -0.019104391 0.1028569 0.12242084 0.1312793
-0.0076378696 -0.032417163 0.028411333 0.15744144 -0.13511139 -0.36368823 -0.30935687 -0.18863453
-0.2232141 -0.17714253 -0.20209171 -0.15005992 -0.13162369 -0.1558427 -0.20277634 -0.13854519
-0.13990834 -0.1297682 -0.21623743 -0.18890816 -0.064523906 -0.24375644 -0.0904112 -0.23644988
-0.13754205 -0.14944555 -0.17569241 -0.11048854 -0.24283253 -0.21687551 -0.06266943 -0.32330108
-0.0056297826 -0.096486226 0.014846007 -0.2575062 -0.22774479 -0.15780923 -0.17912877 -0.17500886
-0.12216142 -0.17886935 -0.2555948 -0.21045081 -0.15606037 -0.14504895 -0.2941238 -0.07330766
-0.07501629 -0.19497047 -0.124565884 -0.29437387 -0.29402938 -0.24798119 -0.13300407 -0.08487027
-0.11427468 -0.20154852 -0.12826082 -0.19525853 -0.26790723 -0.06520465 -0.26383635 -0.19543329
-0.08244219 -0.13336512 -0.112355344 -0.13503091 -0.12982076 -0.19960509 -0.113349654 -0.18331048
-0.2547361 -0.18075623 -0.09367617 -0.16996805 -0.20697786 -0.11677633 -0.07042495 -0.12926479
-0.07921419 -0.12464686 -0.15948305 -0.23659334 -0.20150352 -0.05342139 -0.28054312 -0.05383115
-0.18700854 -0.2014191 -0.2734321 -0.16936614 -0.04904218 -0.17971371 -0.2024977 -0.23366651
-0.15034534 -0.062928185 -0.13790007 -0.17123298 -0.19575074 -0.11159004 -0.26584506 -0.2570933
-0.10698137 0.091832556 0.010354654 -0.10612296 -0.015244522 -0.07420047 -0.12918897 0.06002836
-0.19894613 0.0017879391 0.06475412 0.046062026 -0.10753076 -0.08433062 -0.05840007 -0.1422454
0.018672211 0.101854965 0.15390323 0.015878843 0.16164932 0.09575074 -0.16711341 -0.062174425
-0.04762989 0.016629066 0.0107758725 -0.18510672 -0.09273609 0.060174517 -0.1257196 0.019765077
0.06738894 0.059698626 -0.21260828 0.14174362 -0.12160877 -0.055889864 -0.020051515 -0.04783554
-0.0026447598 0.058509577 0.08895256 0.08686935 -0.08171149 -0.0029947706 -0.109345675 -0.20560615
-0.044812832 0.07162848 -0.0245343 -0.11410434 0.05737297 0.18282983 -0.002969859 0.013184601

gru.weight_ih_l1 f4 [300, 100]
00000000: 56af 903d 935b a03d 5db1 f13d 2967 85bd
00000010: a648 d33c a786 da3d bf52 43bb 076c 633d
00000020: a830 14bd 8aed 803d 3f57 0fbe 6a79 01be
00000030: d83e 6abd b3fc 173d 751b 4bbc b09f 193d
00000040: 0014 df3d 5a68 6dbc a581 5c3e 3ab6 243c
00000050: 9601 ed3c 500c 2fbb 3cb4 843c d041 00be
00000060: cf5a e23c 6987 24bd d42c 453d 8b13 0a3d
00000070: 8bc0 b5bd 493b e8bd 7ec9 9cbd fab1 603d
00000080: 50a0 003e 829e 92bc d043 15bd 2c6d 633d
00000090: 13a2 e6bd 14e4 15bd db95 febd 49fb 8d3d
000000a0: af0a d23d a0f7 553e d44f 373e 1a07 e43d
000000b0: fd02 a53d 215b 213d 9694 933c 19b3 9dbd
000000c0: 9682 693c 7757 d8bd 4743 953c 3af5 8cbd
000000d0: a55d d6bc a1f6 013e c92a da3c ca83 9a3d
000000e0: 23e4 c83c 60fb 3c3c 7ded ac3d 6119 233c
000000f0: aef0 533d 82d3 f0bc 88ef ca3d 393c 393c
00000100: 4b2d a5bd aa40 43bc 0aeb 103d eab0 f0bd
00000110: 460f 0b3e bb86 aebd 0518 b93d be16 b23d
00000120: 9264 a83d b0eb 16be e799 d4bc a185 a73c
00000130: fe22 c0bc 9127 b0bd 71eb cc3d 2859 b5bd
00000140: 9d8b 52bd 3627 65bd 8fdf 453d 0f11 5cbd
00000150: 5d60 5d3d 423d bb3d abf1 24be cb5d 283e
00000160: dbea 2dbe 6e66 84bc 5e99 cb3d c187 09bb
00000170: 27ed 2c3e ddba abbd f74f c83c f1dd 1fbe
00000180: 6ced 38bc 5ab2 523d d7a7 e4bc d03d e4bd
00000190: 36af 973d e0bc 45bd 394e b63d 6dae 923b
000001a0: f249 f63d a45f e63b 3d48 be3a 51ad d2bd
000001b0: b389 c73c 67d9 ec3d 1f48 98bd 3591 29bd
000001c0: 966a 46bd f0e3 1d3d 20a5 7abd b25a a2bd
000001d0: 77d3 8c3d e463 ed3d 43e8 083e 4623 c93d
000001e0: 279f 0e3e 7888 7f3d 9b23 18bc f8b6 8e3d
000001f0: 33a2 1fbd efbe 0bbe 5659 f33c 30b3 02be
00000200: f062 2b3d b5ae a73d 538e 643d cd47 bd3b
00000210: 070f 19be 478b 9abc 1433 9dbc dda3 953c
00000220: a592 11bd 500c 343e ec6a 263d 2f95 56bd
00000230: 2325 3f3e e228 86bd e60c ccbd 504f 2cbe
00000240: 0bdb cd3d 72a0 1f3e a0dc 95bd 1066 87bd
00000250: 59ab abbc 2a5a 043e 3b4d 9cbd 1277 933d
00000260: 1bac 703d ee8a 30be c2de fb3d 6ee0 5cbe
00000270: 81e7 b53d e233 df3d d851 95bd 9935 0dbb
00000280: 03e9 c13d 71a0 fc3b 67dd a8bd 3d71 5ebd
00000290: c6ae 503d 2e71 b83c 995f 083e 688d 0d3e
000002a0: 8561 933d bef7 253e b2ef ce3c 58ab 09bd
000002b0: 987e 203e 8530 c03d 4e7e 853d 0dd0 7cbd
000002c0: 8431 433d de7a e93d da54 58be 9426 bf3d
000002d0: 02d0 6d3d 0563 bb3d 38b8 0dbd 44f4 013d
000002e0: 14c2 093d 7bb2 d23c bdde 853c 0330 fbbd
000002f0: 9a8a bdbd 31c7 9cba 041d 9ebd 8a0c 5fbc
00000300: 2921 a63d d39f 393b 9c3e 53bd 6e06 773d
00000310: e343 053d dbbb 59be 5d54 20be bf54 84bd
00000320: 1e13 80bd 1e54 bdbd 032b 1d3b b6a4 92bc
00000330: 1820 e13b 5f58 a23b 70bf 993c 4d8b 68bc
00000340: e493 67bc a960 283e 523c 213e f4cd eabc
00000350: 739e 9b3d 773f 77bc 3a1d 323d 9ebb 05bd
00000360: 4f7b d83c 9381 b73d dd9c a1bd 472d 81bd
00000370: b933 8d3d 9ec4 8f3c 5a45 adbc 707a f6bd
00000380: 860f 443d 33ba 263e 4ff3 263d 1b80 e4bd
00000390: c916 5bbe 1882 a83d efb5 c03d 55cc b23d
000003a0: f249 4fbd ca6c aebc f39f f4bd 1be4 7d3d
000003b0: fd80 363c cd8a 15bd 2481 90bd 7c5a 9fbe
000003c0: df21 d43d 237e 893d 8263 483e ca19 cabc
000003d0: 3257 f83d bf88 953d 033f 14be a7b2 003e
000003e0: 8a55 193d bf59 d0bc e9e9 5cbd cf2e 403d
000003f0: d93e 753d 2769 34bc e049 0abd ec17 4bbd
0.07064693 0.078299664 0.118014075 -0.06513817 0.025791477 0.10670214 -0.002980396 0.055522945
-0.036179215 0.06295307 -0.13998125 -0.12643972 -0.05718884 0.037106227 -0.012396683 0.037505805
0.108924866 -0.014490211 0.2153383 0.010053212 0.02893142 -0.002671022 0.016199224 -0.12525105
0.027631192 -0.0401682 0.048138455 0.033710044 -0.08874615 -0.11339433 -0.07655619 0.05485723
0.12561154 -0.017897848 -0.036441624 0.055524036 -0.11261382 -0.036594465 -0.124309264 0.069326945
0.10255944 0.20895243 0.17901546 0.11134167 0.080572106 0.039393548 0.018015187 -0.07700176
0.0142523255 -0.105635576 0.018220557 -0.06882711 -0.0261677 0.12691738 0.02663173 0.07544668
0.024522847 0.011534542 0.08443735 0.009954781 0.051743202 -0.02939773 0.09908968 0.011305862
-0.080652796 -0.011917273 0.0353804 -0.11752494 0.13580045 -0.085217915 0.090377845 0.08695744
0.08222307 -0.14738345 -0.025952293 0.020449461 -0.023454186 -0.08601297 0.100058444 -0.08854896
-0.051402677 -0.055945598 0.048308905 -0.053727206 0.054046977 0.091425434 -0.16107814 0.16442029
-0.16984122 -0.016162124 0.09941362 -0.0020985457 0.16887341 -0.08385251 0.024452193 -0.15612008
-0.011287075 0.05143962 -0.027912064 -0.11144602 0.07406466 -0.04827583 0.089016385 0.0044763596
0.12025823 0.007030444 0.0014517378 -0.10286964 0.024357652 0.11564904 -0.07435631 -0.041398246
-0.048441492 0.038547456 -0.06119263 -0.07927455 0.06876271 0.11591318 0.13369851 0.09821181
0.139279 0.062386006 -0.009285833 0.06968492 -0.038973045 -0.13647054 0.029705685 -0.12763667
0.0418424 0.081876196 0.055799793 0.0057763816 -0.14947139 -0.01886524 -0.019189395 0.018266613
-0.03554024 0.17582822 0.040629312 -0.052388366 0.1866651 -0.065507665 -0.09963398 -0.1682713
0.10051545 0.15588549 -0.073174715 -0.06611264 -0.020955728 0.1292502 -0.07631918 0.07200445
0.058757883 -0.17240497 0.12298347 -0.21569988 0.088820465 0.10898568 -0.07291001 -0.002154684
0.094682716 0.007709556 -0.08245354 -0.05430721 0.050947927 0.022514906 0.13317718 0.13823473
0.07196335 0.16207787 0.02526078 -0.03361067 0.15673292 0.09384254 0.06518231 -0.06172185
0.047654644 0.11400388 -0.21126118 0.0933353 0.0580597 0.09149746 -0.034599513 0.03172709
0.033632353 0.025719872 0.016341561 -0.12265017 -0.09254952 -0.0011961219 -0.07720378 -0.013613829
0.081117935 0.0028324022 -0.05157338 0.060308866 0.032535445 -0.21263067 -0.15657182 -0.064614765
-0.06253646 -0.0924456 0.0023981936 -0.017900806 0.006870281 0.0049543823 0.018768042 -0.014193368
-0.014134381 0.16443123 0.15745667 -0.02866266 0.07598581 -0.015090815 0.043484904 -0.03264963
0.026425986 0.08960261 -0.078912474 -0.06307464 0.06894631 0.017549809 -0.021151233 -0.12035072
0.047866367 0.16281967 0.04075938 -0.11157247 -0.2139541 0.082279384 0.09409701 0.087303795
-0.05060763 -0.021292109 -0.119445704 0.061985116 0.011139152 -0.036509324 -0.070558816 -0.31123722
0.10358023 0.06713512 0.19569209 -0.0246705 0.12126006 0.07301473 -0.14477162 0.1256815
0.037435092 -0.02543342 -0.05393401 0.04691964 0.05987439 -0.011011398 -0.03376186 -0.04958336

gru.weight_hh_l1 f4 [300, 100]
00000000: 1acf 52bd a26a 773d 5e8b c93d ad80 723d
00000010: 129f af3c 79c4 b33b e091 3fbd 3c20 ab3d
00000020: 54a0 d2bd 3d0a a2bd 01fa edbd b76b e4bc
00000030: cf47 26be 5253 b53c 412e 2fbd 3f45 22be
00000040: 97e1 32bd 9ede 873d a0dc d53d b680 4ebd
00000050: 7feb 443d ce79 363e 8538 d5bc 5d2b f13c
00000060: 9d8c 90bc d176 e73b ce3a 273d b732 173d
00000070: b696 bcbd 5987 41bc a7a7 843d a0b8 5c3c
00000080: dd04 f63d 9db7 c13d 5387 1dbe ba7c 993d
00000090: f172 4d3d e371 d5bc 820f a0bc 8782 203c
000000a0: d46f 663d 85ee 7c3d ed9d 17be fcab ecbc
000000b0: 0228 25bc 8856 6cbd b3b8 84bd 6cd8 aabc
000000c0: c98f 983c f8ac 48bd cfd7 83bd e545 b7bd
000000d0: 64d0 4bbd af22 433d a2db 9c3d b0ca af3d
000000e0: bed2 19bd daee 2d3c 14ed a4bd 4686 18bd
000000f0: e0a8 853d a838 ff3c 81ca 29be da56 9a3c
00000100: 0d2a 14bd c690 ba3c 7d21 13bc 338c a9bd
00000110: aa91 39bd d765 c93d 5ee4 da3d ff91 433d
00000120: 92fb 7b3d 7116 b83d 75ea 46bd 7201 843d
00000130: 8509 b63d ace1 e83d fd34 89bd 1655 9dbc
00000140: 0cc4 b6bd 334e d63c 8f44 d63b be47 d63d
00000150: 145f 803d f604 1bbe 6dfe 403d 835e 193e
00000160: 2bf2 ff3d f688 d23d 9c88 d93d dd67 163e
00000170: fcaf 913d fb0f 9cbd 2b2d 993d 99c9 80bc
00000180: 0323 25be 7dea 8abd fefa 82bd 564d 18be
00000190: 4fe5 073d a84c d13d 81e2 133e a048 d8bc
000001a0: b886 c73d e4b8 9abc 7b5c 69bd be80 ecbc
000001b0: a5e5 45be 6fb3 bd3c 3073 76bd 2926 9cbd
000001c0: 6c8b 843d 9c93 adbd 2f39 ff3c a95c dabd
000001d0: 68e2 8c3d 6134 d73c 6b71 73bd c05c 42bd
000001e0: 3137 1bbd 1737 003e 05e6 24bd cd1d 9fbd
000001f0: 3274 d23c 5b8e e2bc f40b d93a c5cc 8cbc
00000200: f9f2 e4bc 8630 853d 4499 173d abb6 76bd
00000210: cff3 dc3c da9c 4abd 8eb2 12be b5b2 533d
00000220: 92e2 8c3d e865 a6bc c4bb ae3d 90b1 a5bd
00000230: 14d1 023e bba8 abbc e381 7b3d e4fb 7bbd
00000240: e4e2 c6bd 07bd 9dbd 61bb ecbb 22d7 39bd
00000250: b1ae d7bd b416 c23d 4618 703d 90a6 613c
00000260: 4a27 a5bd 7d39 ab3c 5730 b43c 5836 283e
00000270: 2d40 f4bc 9975 88bd 7b7a 14bc 4912 01be
00000280: 9547 3f3a 3ead 133d f75b 4e3d 82dd 0c3e
00000290: 52cb 173e c396 76ba 5ba3 a6bd 4878 883d
000002a0: 269d 7e3d a7f6 3d3d ca46 43bd 7ae5 11bd
000002b0: ff95 293d 393a 0b3b 6614 3a3c ff97 28bc
000002c0: 1a80 b23d 856e 69bd b34f 6ebc d1d3 cabd
000002d0: 1b44 743d e97e dabd a1fa 97bd e18e e73c
000002e0: ea7e 06be 27fe b73d 4ecb 8a3b 0875 273b
000002f0: fedf bf3a 2716 86bd cbe1 8bbc fb91 873c
00000300: 9ed4 6c3d 11bb 843c 49a3 d53d fda0 753d
00000310: de28 2cbd f607 443c fb8a 7cbd de74 2d3d
00000320: b2c9 f63c c1fe 193c a40e 89bd 75c2 173d
00000330: 630b 8abd 0087 303c 0ab4 6ebd 3b7a ec3c
00000340: 14b6 89bd d0c7 9e3d 3667 bb3d 8d54 e2bd
00000350: 17c3 8fbd 4d52 d03c 39f5 c03d 137d 02bd
00000360: 1a51 64bd e6c6 3d3d d2a6 a0bd 5fdd e33c
00000370: 1fc3 debc cc66 d43d da6c 1fbb 83ca 8a3c
00000380: f883 90bd 36b4 babc 3f72 9c3d d93f eebd
00000390: 2ace d5bc b9fa a1bd 90e2 e13b e708 b03d
000003a0: 79b7 12bd 3efa 7d3c 7a89 b9bd 012c a53d
000003b0: af51 093e d9bf 71bb 5ee1 85bc c301 4bbd
000003c0: 6995 963d 97b0 33be a910 dbbd 0a9e 523d
000003d0: 654d 26bd f717 4cbd 7dea 55bd 3012 093d
000003e0: 6c48 ae3d 97a2 b338 e1e5 28bc 943c ec3b
000003f0: 8635 1d3c 6943 a13c 47bb 7dbd 09b0 e2bd
-0.05146704 0.060404427 0.09841035 0.059204746 0.021438155 0.005486068 -0.046769977 0.083557576
-0.102844864 -0.07912109 -0.1161995 -0.027883394 -0.1623833 0.022134457 -0.04276872 -0.15846728
-0.04367217 0.06634258 0.104424715 -0.050415717 0.04807615 0.17819902 -0.026027927 0.029439623
-0.017645175 0.0070637246 0.040827565 0.0369136 -0.09208433 -0.011812055 0.0647729 0.013471752
0.12012646 0.094588496 -0.15383653 0.07494493 0.050158445 -0.026055282 -0.019538645 0.009796745
0.05625899 0.061750907 -0.14806338 -0.028890602 -0.010080339 -0.05769971 -0.06480541 -0.020855151
0.01862325 -0.04899308 -0.064376466 -0.08948878 -0.049759284 0.0476405 0.07659079 0.085835814
-0.037554495 0.010616029 -0.080530316 -0.037237428 0.06526351 0.031154945 -0.16581155 0.018840242
-0.036172915 0.022774111 -0.008980152 -0.08278694 -0.04530493 0.098338775 0.10688089 0.047746655
0.061519213 0.08988655 -0.04856344 0.06445588 0.088885345 0.113711685 -0.0669956 -0.019205611
-0.08924112 0.026160335 0.0065389345 0.104629025 0.06268135 -0.15138611 0.04711764 0.1497746
0.12497362 0.102800295 0.10621759 0.14688058 0.071136445 -0.076202355 0.07479318 -0.01572113
-0.16126637 -0.06783006 -0.06395529 -0.14873251 0.03317767 0.10219699 0.14441873 -0.026401818
0.097424924 -0.01888699 -0.056972962 -0.028869983 -0.19325884 0.02315685 -0.060168445 -0.07624466
0.06471905 -0.0847542 0.031155197 -0.10662205 0.06879121 0.026270093 -0.059434336 -0.047451735
-0.03789443 0.12521015 -0.040258426 -0.07769356 0.025690172 -0.027655771 0.0016559348 -0.017187485
-0.02794789 0.06503396 0.0370114 -0.0602328 0.026971726 -0.04946599 -0.14325926 0.0516841
0.06879152 -0.020312265 0.08531907 -0.08090508 0.1277507 -0.02095448 0.061403167 -0.06151952
-0.09711245 -0.0770207 -0.0072244857 -0.045371182 -0.105313666 0.094769865 0.0586169 0.013772622
-0.080641344 0.020901436 0.021995706 0.1642698 -0.029815758 -0.06663055 -0.009062405 -0.12604631
0.00072967383 0.03605389 0.050380673 0.13756374 0.14823654 -0.00094066205 -0.08136626 0.06663567
0.062161587 0.046377804 -0.04767493 -0.035619237 0.041402813 0.002124442 0.011357402 -0.010290145
0.0871584 -0.056990165 -0.014545369 -0.09903682 0.059635263 -0.106687374 -0.074208505 0.028266372
-0.13134351 0.089840226 0.0042356616 0.0025551934 0.0014638898 -0.06547194 -0.01707544 0.016549101
0.057819955 0.016202481 0.10431535 0.059967984 -0.04203116 0.011964789 -0.06165598 0.04234778
0.030125473 0.009399117 -0.066922456 0.037050683 -0.06740453 0.010774374 -0.058277167 0.028866878
-0.06724182 0.07752955 0.09150545 -0.11051283 -0.07019632 0.02542987 0.094217725 -0.03185756
-0.055741407 0.046332262 -0.078443184 0.027815519 -0.02719265 0.103711694 -0.0024326355 0.016942268
-0.07056421 -0.02279101 0.07638978 -0.11633272 -0.026099283 -0.0790915 0.0068934634 0.08595448
-0.035819504 0.015501557 -0.09059425 0.08065034 0.13410066 -0.0036888032 -0.016342815 -0.049562227
0.073527165 -0.17547832 -0.10696537 0.05142025 -0.040601153 -0.049827542 -0.05222558 0.03346461
0.08509907 8.56567e-05 -0.010308714 0.00720937 0.0095952805 0.019685464 -0.06194618 -0.11068732

gru.bias_ih_l1 f4 [300]
00000000: 387f eb3c 2925 2cbd e003 33bd 6e6d 92bd
00000010: 7f11 283e 0baf cf3d a8d0 943d ff78 09bd
00000020: f238 e03c 2d86 933d 253f 2bbd 1c1a 1d3d
00000030: 9b94 76bd ac7e 013d 30d9 7b3d 2fe0 b33d
00000040: 0947 4f3c d2ec c63d b7c4 bf3d d17f b5bd
00000050: e67d 223e 200d 94bd 1bc1 2f3c d08f 6a3d
00000060: 6987 c8bd ec92 6d3e 13f3 953e 018b 33bd
00000070: 16b0 b33d db69 773a ce32 263d babe ec3d
00000080: dcf2 bf3d e045 033d a2d3 933d 560f 9f3d
00000090: a3c0 683d 69fa bebc 5db8 a33d 1190 b43d
000000a0: f8a8 9ebd f180 f93c 17a2 bbbc 53a4 dc3d
000000b0: dc4a 523d 2795 a0bb 7119 f43d f796 00bd
000000c0: 9cc4 1c3d 7f4f 1b3e 6a25 133e fcf1 6c3d
000000d0: db98 3b3c cf19 82bd 5ad1 a9bc 424d 413d
000000e0: 32e5 adbd dd48 d03d a663 debc bff9 a83c
000000f0: 656f f43d 3846 983d 81ae b43b 7ab5 2b3c
00000100: db8d 91bd 2ca5 a63d 6fca 443d 7aeb b83d
00000110: a8d7 e63d ad85 f13d 3264 d3bb 62ad 5f3c
00000120: f2a4 9e3c e6a5 efbc fd26 0ebc 223a afbc
00000130: 7173 77bc 034d 37bd 0dad c23d 59f8 e43a
00000140: 6eb2 58bd 35d6 963d ea37 80bc 3046 92bd
00000150: 3934 cc3d 5cdd 183c 7cdc c3bc e4a4 11bc
00000160: 00be 213d 9385 6dbd b043 853d 0eb1 14bd
00000170: 91a2 50bd 02c2 9cbc 06d4 53bd 4c96 903d
00000180: ca96 a13d 419c 803d 77b2 7a3c 7bac 98bd
00000190: 2750 b8be 942e 7cbe 615c 8cbe bd5f 98be
000001a0: 98d5 f0bd 6a94 5dbd cb2e b6be 261d 0dbe
000001b0: 150d f0bd 85bd 74be 57a3 29be 2c03 87be
000001c0: b84d 85be dfaf 3cbe d97e a4be 8bcd 92be
000001d0: eb08 97bd f850 6cbe ad72 33be 863c 71be
000001e0: 2bbd 82be b768 2dbe fdcd 17be faf7 96be
000001f0: 3bd2 51be d6c6 bcbe 8750 b8be ed6c 71be
00000200: 49f0 0fbe 8f1f 65be ce4a 7dbe 0444 f0bd
00000210: baac 3bbe d357 6ebc bf36 2bbe cf1f 74be
00000220: 573b c7be d444 a1be bf35 95be 5e00 acbd
00000230: 755a 75be f192 55be 8cc3 f4bd 9cf0 f5bd
00000240: 9fdd 05be a781 30be bb13 1abe 56e2 f5bd
00000250: ecb1 2ebe 0e61 8cbe 97b0 36be 3c7e e2bd
00000260: 614b f5bd d3ba 37be f5f6 8dbe 1a51 dbbc
00000270: 5c3c 20be 065b b6be 8918 fbbd f76d b4be
00000280: 28c7 64be 42bf 12be abcc 51bd 6ac7 13be
00000290: ff39 03be a6ae 88be 1b62 6bbe 6c98 5bbe
000002a0: 9a38 37be 881e 05be 2866 77be 9fb0 25be
000002b0: 83aa 49be 83e0 acbd cfa3 e6bd 0e10 16be
000002c0: b67e 40be 7775 66be eeff 5fbe 90f5 41be
000002d0: d564 1abd e174 68be 9796 9cbe 9aaf 82be
000002e0: 8f93 7cbe de44 4abe 301a f1bd 4bd0 09be
000002f0: b484 bcbe 830b c0be 82c8 9abe 34e1 3abe
00000300: 3842 89be e941 8bbe 3672 98be 2f9b 9abe
00000310: cd4e 7cbe c4e0 48be eacc 7fbe 8bf1 e6bd
00000320: 1e27 853e 790b 70bd 78a7 fbbd d79f d7bd
00000330: e6aa 193e c1aa 92bd 663b f7bd 586e 59bd
00000340: f57d cbbd 7d2f fa3c cd8c 4bbd 1e5d 663e
00000350: 3c10 513c 3799 ae3b 1e60 533e 0c76 dfbd
00000360: 99b8 24be 0132 d5bd 20ed b3bc 3379 6dbd
00000370: 406d e53d 766d 033e 73c2 463d 8c28 6abe
00000380: 34f9 023d 8ec2 2a3e 6df4 983e c152 22be
00000390: 847a dabd a7de 483e bfd1 89ba 2a3e 14bc
000003a0: 5108 eabc e47c 093e a52e 90bc 4ffa d9bb
000003b0: 4c6b 5fbc 8cc4 6cbd 3836 26bd 57a5 c3ba
000003c0: 68fa c9bc 9098 8b3d 53fb ca3c cf14 3fbe
000003d0: c742 53bd 6008 5b3d 2200 ad3c 8e14 d73d
000003e0: a6f5 0d3e 1cf1 143e 9413 313d 4453 3ebd
000003f0: 5521 31bd 539b 6fbd b370 cbbc 5bc4 cabc
0.028747186 -0.042027626 -0.043704867 -0.07149778 0.16412924 0.10140809 0.072663605 -0.033562656
0.027370904 0.072033264 -0.041808266 0.038354978 -0.060200315 0.031614944 0.061486423 0.08782994
0.012651213 0.09713139 0.09363692 -0.0886227 0.15868339 -0.07229066 0.010727192 0.057266057
-0.097914524 0.23200577 0.29287013 -0.043833736 0.0877382 0.0009438076 0.040575795 0.11559816
0.093724936 0.03204906 0.072181 0.07766597 0.056824338 -0.023312764 0.07994149 0.08816541
-0.07747072 0.030456992 -0.022904439 0.1077353 0.051340923 -0.004900593 0.11918915 -0.03139397
0.03827344 0.15167044 0.14369741 0.05784796 0.011450018 -0.06352579 -0.02072971 0.04719282
-0.08490981 0.101701476 -0.027147125 0.0206269 0.11935309 0.07435268 0.0055139665 0.010480279
-0.07107135 0.08136973 0.04804462 0.090292886 0.11271602 0.11793075 -0.006451153 0.0136521775
0.019365761 -0.029253911 -0.008676288 -0.021390025 -0.015103207 -0.04475118 0.09505663 0.0017469033
-0.05290454 0.073650755 -0.015651662 -0.071422935 0.09970898 0.00933012 -0.023908846 -0.008889411
0.03948784 -0.057988714 0.06507051 -0.036301665 -0.050936285 -0.019135479 -0.051715873 0.07059917
0.07890089 0.06279803 0.015301338 -0.07454773 -0.3599865 -0.24627143 -0.2741423 -0.29760543
-0.1175949 -0.054096617 -0.35582575 -0.1378065 -0.11721245 -0.23900421 -0.16566215 -0.26369607
-0.26035857 -0.18426464 -0.32128027 -0.28672442 -0.07374748 -0.23077762 -0.17524214 -0.23558244
-0.2553495 -0.16934477 -0.14824672 -0.29486066 -0.20490353 -0.3687045 -0.35998937 -0.23576708
-0.14056505 -0.2237532 -0.24735567 -0.11731723 -0.18327609 -0.014547306 -0.16720103 -0.23840259
-0.3891246 -0.31497824 -0.29142568 -0.083985075 -0.23960288 -0.20856835 -0.1195136 -0.12008783
-0.13072823 -0.17236958 -0.15046589 -0.12006061 -0.1706006 -0.27417797 -0.17840801 -0.110592335
-0.11977268 -0.17942362 -0.27727476 -0.02677207 -0.15648025 -0.3561632 -0.12260539 -0.35240147
-0.22341597 -0.14330772 -0.051220577 -0.14431539 -0.12815093 -0.26695746 -0.22986643 -0.21444863
-0.17892686 -0.12999928 -0.24160063 -0.16180657 -0.19693951 -0.0844126 -0.11261713 -0.14654562
-0.18798336 -0.22505747 -0.21874973 -0.18941331 -0.037693817 -0.22700836 -0.3058364 -0.25524598
-0.24665664 -0.19752833 -0.11772573 -0.13458364 -0.36819994 -0.37508783 -0.302311 -0.1824997
-0.26808333 -0.27198723 -0.29774636 -0.3019652 -0.24639435 -0.19616991 -0.24980512 -0.112765394
0.26006407 -0.05860469 -0.122878015 -0.10528534 0.15006599 -0.07161475 -0.12071876 -0.053083748
-0.09936134 0.030540222 -0.049694825 0.22496459 0.012760218 0.005328323 0.20642135 -0.109111875
-0.16086043 -0.10409928 -0.021963656 -0.057976913 0.112024784 0.12834725 0.048525285 -0.2286703
0.03197594 0.16675779 0.29873982 -0.1585188 -0.10667899 0.19616185 -0.001051478 -0.009048024
-0.028568419 0.13426548 -0.017600367 -0.0066521536 -0.013636421 -0.05780463 -0.04057905 -0.0014926594
-0.024655536 0.06816208 0.024778044 -0.18660282 -0.051577356 0.053474784 0.021118227 0.10501967
0.13863239 0.14545101 0.04323156 -0.046466127 -0.04324468 -0.058497738 -0.024834013 -0.024751833
